pyperplan/src/checkpoints/blocksworld_5.pth (torch_old, 50429 bytes, 7 tensors)

gc1.weight f4 [81, 60]
000000 a4 61 82 25 70 33 ef b6 f8 ba 8c a3 e7 a7 fe 27
       2.261757e-16 -7.128743e-06 -1.5258015e-17 7.0681202e-15
000010 cf d1 e3 2a cb ed 83 35 de e2 fa 2a c9 84 d6 2e
       4.0468884e-13 9.829467e-07 4.4566342e-13 9.755181e-11
000020 43 61 96 33 71 66 a0 b4 94 cd 42 2a 8f d0 fb a8
       7.002611e-08 -2.9876858e-07 1.7301986e-13 -2.7957046e-14
000030 f3 58 8f 2e 17 f1 4f 27 a4 5c 6e b1 d1 a4 4c aa
       6.518688e-11 2.8857716e-15 -3.4686218e-09 -1.8176022e-13
000040 bf 4a d1 a5 79 5d 79 ad 06 a5 2f 27 49 e2 a1 37
       -3.630637e-16 -1.4174766e-11 2.4375588e-15 1.9298068e-05
000050 55 b8 91 b3 c2 41 f0 27 b6 7c f6 2a 4a 3b 56 36
       -6.7856185e-08 6.6684676e-15 4.3784914e-13 3.1922996e-06
000060 22 24 72 29 8c 87 2e 29 d0 fb 1a 30 10 08 1b b1
       5.3766135e-14 3.875333e-14 5.638272e-10 -2.2560052e-09
000070 ff 1c a6 a7 9c c2 76 2e 40 4e 8f 32 42 9c 08 29
       -4.6105693e-15 5.6106772e-11 1.6682975e-08 3.03336e-14
000080 ac 34 8b b1 a6 40 bb 27 c2 78 99 ab 43 24 6b 25
       -4.0514205e-09 5.197302e-15 -1.0904821e-12 2.0395287e-16
000090 cf b2 83 2a a3 ab a1 b6 65 4b c7 2d e2 18 98 a5
       2.3394348e-13 -4.818155e-06 2.2657163e-11 -2.6384658e-16
0000a0 b2 c5 9a 33 33 3c 7e 35 54 75 1d b8 be 50 3f a6
       7.2071444e-08 9.4709975e-07 -3.7540987e-05 -6.6375863e-16
0000b0 b9 19 3e a6 a9 51 83 2a 20 f9 74 2e 2e 00 2a 28
       -6.5954353e-16 2.3326938e-13 5.5700444e-11 9.436935e-15
0000c0 6d 6b 44 b2 fa d4 3d ab cd ce 5b aa 54 e5 a0 ac
       -1.1433127e-08 -6.7441853e-13 -1.9522856e-13 -4.572934e-12
0000d0 ad 36 a4 28 e7 51 f3 a4 3b c3 68 2f 86 0d df af
       1.823137e-14 -1.055232e-16 2.1169637e-10 -4.0573073e-10
0000e0 1c 65 ab 27 8e 79 0e 26 37 59 5e b7 1c af 40 aa
       4.7571657e-15 4.9430884e-16 -1.3253003e-05 -1.7113779e-13
0000f0 40 4b 11 bf 9d 4f 54 3e 16 34 3e bf cc 21 2c bf
       -0.5675545 0.20733495 -0.74298227 -0.6723907
000100 0a 2a 0b bf 8a 91 9b be 9d ae ad 3e 28 a0 03 bf
       -0.5436102 -0.30384475 0.33922282 -0.51416254
000110 e4 be 0b bf 2d 5b b4 3e 6c b0 8a 3e c8 76 55 bf
       -0.5458815 0.35225812 0.27087724 -0.8338437
000120 0c 69 8f be 29 d0 8b bf 37 5e c4 3e e5 b7 b1 bd
       -0.28009832 -1.09229 0.3835313 -0.08677653
000130 2c 1b bb bd a6 52 59 3e 59 22 48 be 68 9e 42 3e
       -0.09136042 0.21222934 -0.19544353 0.1900574
000140 f6 81 80 be 81 4e ff be 63 fa 7a 3e 27 7f 11 bf
       -0.25099152 -0.4986458 0.24509577 -0.56834644
000150 4a e2 0d 3f fa 2e a8 3e ba 5b 97 be 90 86 11 be
       0.55423415 0.3284834 -0.2956217 -0.14211488
000160 27 f2 bb be ed 35 25 3f 09 fb 43 bf f1 ff 4b be
       -0.36708185 0.6453541 -0.76554924 -0.19921853
000170 5e 67 da 3e 3e 92 e9 bd 78 ec d1 3b 81 9a 9e bd
       0.42656988 -0.114048466 0.006406363 -0.07744313
000180 00 29 11 be 6f ba 0b bf 6d b6 69 3e e8 c7 6d be
       -0.14175797 -0.5458135 0.22823496 -0.2322079
000190 6c 41 0e bf 5b 40 69 3e e7 63 8f bc 2d d3 cb be
       -0.55568576 0.22778456 -0.017503692 -0.39809552
0001a0 af 58 66 bc 27 95 37 3e 38 3b d2 be f7 65 a2 bd
       -0.01405923 0.17927991 -0.41060805 -0.079296045
0001b0 c8 6e 4c bf 69 16 cb 3e d2 ad e8 3e 48 03 19 bf
       -0.7985654 0.39665535 0.45445114 -0.5977063
0001c0 1a 92 fb 3d 16 0f ea be 04 14 04 bd bd cf 65 be
       0.12283726 -0.45714635 -0.03224565 -0.22442527
0001d0 11 31 fe bd de 47 b3 3e 06 76 58 be 5b 05 22 bc
       -0.124117024 0.35015768 -0.21138772 -0.009888972
0001e0 21 2f 10 3e 44 1a 07 3e a6 4b 90 3c 30 87 54 bf
       0.14080478 0.13193613 0.017614197 -0.8301878
0001f0 dc 6f f5 be be ae c1 be 94 64 85 bd dd 10 35 bf
       -0.47936904 -0.3782863 -0.065133244 -0.70728856
000200 b2 5e 6e bf 14 be bf 3e 34 73 00 be 44 13 06 bd
       -0.93113244 0.37449706 -0.12543947 -0.032733217
000210 b9 85 9f 3d 40 80 a7 bd 1e a9 41 3f 81 40 69 bf
       0.077891774 -0.081787586 0.7564868 -0.9111405
000220 48 78 99 3d 58 9b cb 3e 79 40 cf 3e 16 6a 83 3e
       0.07493645 0.39766955 0.40478876 0.25666875
000230 d3 66 56 be 8a bd f0 bd 54 18 b4 3e da fb 3e bf
       -0.20937662 -0.11754902 0.3517481 -0.74603045
000240 cf f2 9e 3e a7 cd 12 3f a6 f0 94 3e 61 6e c5 bd
       0.31044623 0.5734505 0.2908985 -0.09640194
000250 91 11 68 3e a0 b5 aa be c7 9b 93 be 3b 5d 10 bf
       0.22662951 -0.33341694 -0.28829786 -0.5639226
000260 ad 76 8d be 77 c4 b4 be 64 da 0f 3e b1 31 1d be
       -0.27629605 -0.3530614 0.14048153 -0.15350987
000270 28 e2 89 be c5 4a 59 3c 30 9b ac 3d c2 6c 4b be
       -0.26930356 0.013262455 0.08428037 -0.19865707
000280 c2 d3 1d 3f b8 ed f6 bd 29 b1 06 3f c2 84 49 bf
       0.6165124 -0.1205706 0.52614075 -0.787182
000290 08 d2 11 3f ef 71 8c 3e 22 f9 0f bf e8 67 a2 3e
       0.5696111 0.27430674 -0.5623952 0.317199
0002a0 af 22 6b 3d ec 6d 0a 3e c1 95 38 be a0 33 53 bf
       0.057406124 0.13518494 -0.18025877 -0.8250065
0002b0 62 ac 18 be ba 43 f2 be a1 b7 7e 3e ac 49 00 be
       -0.14909509 -0.47317296 0.24874736 -0.12528104
0002c0 c9 24 e5 3d 72 0e f9 3e 31 b0 e4 3d 36 4f 13 bd
       0.11188657 0.48643833 0.11166418 -0.035964213
0002d0 d7 b5 bf 3e a5 23 f2 3e 77 59 ea bd 03 14 29 3f
       0.3744342 0.4729282 -0.11442845 0.6604616
0002e0 97 b5 b9 3d 55 cd 3d 3e fb 6c 0a bf 66 09 53 be
       0.09067839 0.18535359 -0.5407254 -0.20609054
0002f0 96 c1 94 bf 85 f7 0f 3f 99 11 1b be 0a c4 c4 be
       -1.1621578 0.5623706 -0.15143432 -0.38430816
000300 52 ca 80 3d 33 54 93 be 28 d4 cd 3e 4f 56 a6 be
       0.062885895 -0.28775176 0.40200925 -0.32487723
000310 c2 3f 8b 3e 41 bf b4 3e 90 e5 9b 3e 2a 74 8a be
       0.2719708 0.35302165 0.3044858 -0.2704175
000320 b7 9b 77 bf 9b 52 14 bf 02 fa 43 3e 7b 88 2e bf
       -0.96721977 -0.57938546 0.19138339 -0.68177
000330 7a 54 01 3e 3c 4a 02 3f 94 fd 0f 3f 60 44 74 be
       0.12629882 0.5089452 0.56246305 -0.23854208
000340 9c e1 d2 bd 24 f8 de 3d 1c 60 9e be 69 cc e6 be
       -0.10296938 0.10887173 -0.309327 -0.45077828
000350 e4 69 aa be 3b 67 46 3e 28 92 a9 3e a9 65 5e 3e
       -0.33283913 0.19375317 0.3311932 0.21718468
000360 80 76 52 be ab cc 2b bf d1 cb 27 bf 96 a8 e9 be
       -0.20553017 -0.67109174 -0.65545374 -0.45636433
000370 21 0f 28 be 9c f1 0c be e6 fb e1 3d b2 b5 4c bf
       -0.16412021 -0.13764042 0.11034374 -0.79964745
000380 c7 e0 1f 3f b9 bc 1e 3f 79 4f 84 3c d2 ca 75 be
       0.6245236 0.6200672 0.016151177 -0.24003151
000390 86 21 97 bd 62 08 10 bb 20 cf 26 bf a8 43 5a be
       -0.07379441 -0.0021977653 -0.651598 -0.21314871
0003a0 5c 83 5c be 9e be b5 bd b6 e6 0c 3e e6 24 bd be
       -0.21534485 -0.08874248 0.13759884 -0.36942214
0003b0 52 97 74 3e a3 2a 7b 3e 01 06 65 be eb 4d 84 bd
       0.23885849 0.24527983 -0.22365572 -0.06460174
0003c0 a0 c7 35 3d 8e 45 b9 bd 17 37 47 3e ae 0f d8 be
       0.04437983 -0.0904647 0.19454609 -0.42199463
0003d0 52 ca ea 3c c3 9b 38 be e3 01 79 bd 46 48 17 bd
       0.028660927 -0.18028168 -0.060792815 -0.03693416
0003e0 33 a6 2f be 4d 69 59 3e 54 cf a2 be 27 65 89 bc
       -0.17153244 0.21231575 -0.31798804 -0.016771866
0003f0 db 35 e9 bd 90 5c 95 be 8d 09 a4 bc 53 f5 06 bf
       -0.11387225 -0.29172182 -0.020024085 -0.52718085

gc1.bias f4 [60]
000000 67 af ce bc a2 28 cd 3d e6 3c 1e bd e3 8f 09 3d
       -0.025230123 0.10017516 -0.038632296 0.033584487
000010 4c ce b8 be 94 f9 e3 be a1 6f ba 3c 00 9e 97 3c
       -0.36094892 -0.4452635 0.022758307 0.018507957
000020 fc 6e 80 bd 69 5b e9 3d 80 06 0a be 49 53 a5 3c
       -0.062711686 0.11394388 -0.13479042 0.020181315
000030 d4 5c fc 3d 1b 10 15 bd 53 34 7a 3d 63 e2 52 bd
       0.12322393 -0.036392312 0.061085057 -0.05148543
000040 e5 68 30 3d a3 4c 93 3c f0 53 83 3e 76 fe 19 3e
       0.043068785 0.01798088 0.25649977 0.15038475
000050 7d 53 fb 3d 18 f2 b7 bd 71 53 96 bd 67 cf d5 bc
       0.122717835 -0.089817226 -0.07340134 -0.026099874
000060 cb 53 3e 3d 27 1c bb bc 4e b8 fc bb 23 18 cf be
       0.04646663 -0.022840573 -0.0077124005 -0.40448102
000070 f3 ab ba 39 88 39 b9 3d 93 ab 81 be c4 37 8d bd
       0.00035604797 0.09044176 -0.25326213 -0.06895402
000080 f6 7b 1d bc b4 52 40 be 07 9d 1d 3e ce 32 36 3d
       -0.009612074 -0.18781549 0.15391932 0.044482045
000090 c8 6f 0e 3e c7 49 52 bd 3d f4 49 3c bd 68 92 bd
       0.13909829 -0.05133989 0.012326297 -0.071488835
0000a0 14 0f 63 bd 0c 1c b8 3d 1a 6e bc 3c db d1 f0 3c
       -0.0554343 0.089897245 0.02300172 0.029396942
0000b0 6a 77 11 3d ec be d9 3d b1 38 70 bc 9c 8e 4c 3c
       0.035514273 0.106321186 -0.014661954 0.012485173
0000c0 28 59 84 3d 88 c5 1f be 6d 7a ae be 0d 7f 9e 3d
       0.06462318 -0.15602696 -0.34077778 0.07739077
0000d0 14 31 e7 be 8d 83 07 3c 93 a7 9a 3c a3 cc 28 be
       -0.4515463 0.00827111 0.018878734 -0.16484313
0000e0 2c cd b6 bc 8b 4d c2 3c 77 01 90 be 0a 31 ae 3c
       -0.02231463 0.023718616 -0.28126118 0.021263618

gc2.weight f4 [60, 60]
000000 dc 3d 9e bc 3a ed ec bd b2 72 13 bd be e2 e0 3d
       -0.019316606 -0.11568685 -0.035998054 0.10980748
000010 d0 6f c2 3c 7c d8 bc bc 2a ce 89 3d 2e d6 cb 3d
       0.023734957 -0.023052447 0.06728776 0.09952961
000020 74 be cd 3d 1c a0 c3 bd c0 dc 17 3c 22 1d d9 bd
       0.10046092 -0.09552023 0.0092689395 -0.1060126
000030 39 4b b6 bd 76 06 cb 3d 2b a6 d2 bd 04 aa 81 bd
       -0.08901066 0.09913342 -0.102856 -0.06331256
000040 b8 97 7d 3d fd 9f 00 3e 4a 6b 00 be fb 9b aa bd
       0.06191227 0.1256103 -0.12540928 -0.08330532
000050 56 5b 4f bd f2 d0 cc 3d 0a 15 9a 3d a0 d4 a4 3d
       -0.050624214 0.10000791 0.07523544 0.080483675
000060 16 6a a9 3d 42 56 04 bd d4 f2 c2 3d 80 bf 6d bb
       0.082721874 -0.032308824 0.09518972 -0.0036277473
000070 30 ba 46 3c 3c 3b 0c bd ac 51 60 3d 68 23 6c 3d
       0.0121293515 -0.034236178 0.05476539 0.057650954
000080 58 35 60 bc 04 c2 e8 3d 1e f3 08 bd 9c d7 05 3d
       -0.013684593 0.113651305 -0.03343498 0.032676324
000090 d2 23 f0 3d fa f6 94 3d 0a 8e 40 bd 50 88 6f bd
       0.11725582 0.072736695 -0.04701046 -0.058479607
0000a0 d0 1b cc 3c 80 3e 80 ba f0 dc 14 3c 70 50 aa 3d
       0.024915606 -0.0009784251 0.009085879 0.083161235
0000b0 bc d6 38 3d e0 48 94 bd b2 de d7 bd de f6 f9 3d
       0.04512666 -0.07240462 -0.10540523 0.12205289
0000c0 d0 db 68 bc 18 53 50 bd 34 30 c2 bd c2 e4 fd 3d
       -0.014212564 -0.050860494 -0.0948185 0.12397148
0000d0 62 6a 85 3d 1d 9c a7 bd 87 59 e4 bd ac af e5 3d
       0.065144315 -0.08184073 -0.111498885 0.112151474
0000e0 b0 aa 63 3d 24 59 9b bc 4c bc db bd 78 40 a0 3d
       0.055582702 -0.018963404 -0.10729274 0.078247964
0000f0 32 7a b3 bd be ec 81 3d 1a 1e fb bd da bc eb bd
       -0.08763541 0.06343983 -0.12261601 -0.1151063
000100 30 a4 fd bd 98 af ef 3d 40 44 f0 3d c0 9a e1 bd
       -0.12384832 0.11703414 0.11731768 -0.11015844
000110 0e 63 cc 3d e7 b4 a0 bd 83 b7 f5 bd 84 7c 7e 3d
       0.09979831 -0.078470044 -0.11997893 0.062130466
000120 3c e0 95 3d e6 dd 95 3d 58 9a b9 3c 1a be fd 3d
       0.0731816 0.073177144 0.022656605 0.123897746
000130 eb c3 e3 bd bc fa 73 3d e4 90 27 bd c0 ed d0 3b
       -0.11121353 0.05956529 -0.040909663 0.0063759983
000140 ba 59 b6 3d c2 55 bd bd c0 bb 67 3d c0 3d d3 bc
       0.08903833 -0.09244873 0.056575537 -0.02578628
000150 3a 04 ab 3d 80 2c 5e bb 30 2d 83 3d 7e af fd 3d
       0.083504155 -0.0033901036 0.06405103 0.12386988
000160 12 ce 3c bd 95 38 02 be ee 65 f9 3d c2 90 91 bd
       -0.04609496 -0.12716897 0.12177645 -0.071076885
000170 48 b0 f1 3c 12 70 a4 3d 98 3c a4 bc 5e a2 ce 3d
       0.029503003 0.08029188 -0.020048425 0.10089563
000180 bc 57 ab 3d d8 eb d4 bc 84 a4 0a 3d 80 4b 20 3c
       0.083663434 -0.025991365 0.0338483 0.009783626
000190 e3 53 01 3e 80 0c b7 3d 3a 19 b0 bd d0 cc 4b 3c
       0.12629656 0.08937931 -0.085985616 0.012438968
0001a0 b2 9a 8e 3d ac 21 ca 3d dc 8b 34 3d 40 b1 60 3d
       0.069630995 0.09869704 0.044078693 0.05485654
0001b0 ec 43 c3 bc c0 82 37 3b 4c fd b6 bd 4e a9 d9 3d
       -0.023836099 0.0028001517 -0.08935031 0.106279954
0001c0 0e 32 d0 3d 9d 96 91 bd 5c 5c e2 bd 28 2c ce 3d
       0.10165797 -0.07108805 -0.110527724 0.10067016
0001d0 38 56 ea bd 0c 90 a9 3d 15 c4 00 be 51 2c 87 bd
       -0.11442226 0.08279428 -0.125748 -0.066002496
0001e0 2a e3 5f bd fa 7a f8 3d 7c f5 b2 bc 70 10 e4 3d
       -0.05466 0.12132831 -0.021845572 0.11135948
0001f0 e0 a2 19 3d 2d 12 00 3e 32 1f af 3d 7c b8 c2 3d
       0.037508845 0.12506934 0.08550872 0.09507844
000200 5e 83 e6 3d 66 3b 1c bd 84 63 11 bd 90 61 2a 3d
       0.11255525 -0.038142584 -0.035495296 0.04159695
000210 d4 ea e8 3d 76 99 42 bd 3a fa cf bd 94 d3 ce bd
       0.11372915 -0.047509633 -0.10155149 -0.10098949
000220 3a 4d 74 bd e0 c0 a8 3c a0 c4 74 bc 94 04 0d bd
       -0.05964396 0.020599782 -0.014939457 -0.034428194
000230 78 35 77 bd 78 8a 09 3d 88 c9 d9 bd 29 0f 02 3e
       -0.060353726 0.03357932 -0.10634142 0.12701096
000240 3c c9 a3 bc 08 55 c5 3c 24 32 2e 3d 82 bf 4d bd
       -0.019993417 0.024088398 0.042528287 -0.050231464
000250 b4 a8 d0 3d 00 d4 7a ba 00 84 2d 3c c2 b1 fb bd
       0.101884276 -0.00095683336 0.010590553 -0.12289764
000260 28 e8 82 3c 2c 71 35 3d 20 5f 93 3c 48 9f 51 bc
       0.015979841 0.044297382 0.017989695 -0.012794323
000270 b8 a4 c7 3d 4a 08 d1 3d bc 06 b6 3d 4c 8e b7 bc
       0.097482145 0.10206659 0.08888003 -0.02240672
000280 18 b1 b6 3c 1c 9b b8 bd 10 f0 c5 bd 90 d6 b8 bc
       0.022301242 -0.0901396 -0.09664929 -0.022563249
000290 10 6c 6c 3c 99 ff 99 bd 7e b0 dc bd 78 8e 70 3d
       0.014430061 -0.075194545 -0.10775851 0.05872962
0002a0 38 55 41 3d de af ae bd 48 f0 af 3d 42 a0 c5 bd
       0.04720041 -0.08529638 0.08590752 -0.096497074
0002b0 34 01 c8 3d 66 75 8c 3d cc b6 32 bd 46 b8 fb 3d
       0.097658545 0.068583295 -0.04363136 0.12291007
0002c0 8b 73 94 bd 16 8c 71 bd dc bb d2 3d 82 42 08 bd
       -0.072486006 -0.058971487 0.102897376 -0.03326655
0002d0 9e 92 55 bd 78 a4 a3 3c a4 b4 b2 bc 22 91 a6 3d
       -0.05214178 0.019975886 -0.021814652 0.08133151
0002e0 34 dc d7 3d 44 37 6b 3d a8 b8 e4 3c 5c d7 04 3d
       0.10540047 0.057425752 0.027920082 0.032431945
0002f0 00 47 5c 3b 00 66 78 3c 00 a9 20 3b 3a 4a b4 3d
       0.0033611655 0.015161037 0.0024514794 0.0880322
000300 e0 da 93 3d 78 aa 54 bc 7c af 47 3d 00 f6 e9 3b
       0.072194815 -0.012980096 0.04875134 0.007139921
000310 a8 dd 3a 3d b2 11 d9 3d 67 e3 b3 bd c0 4a 96 3c
       0.045621544 0.10599078 -0.08783608 0.01834619
000320 48 05 dc bc 1c 3d 01 be b3 75 00 be 8c 7a 8a bc
       -0.026857987 -0.12620968 -0.12544899 -0.016904138
000330 c0 3b bd 3d b4 56 ae bd 38 3f 2c 3d 70 62 98 3d
       0.09239912 -0.08512631 0.042052478 0.074406505
000340 7b b6 c0 bd f4 18 63 3d 00 9a c7 3c 81 b5 f0 bd
       -0.094098054 0.05544372 0.024365425 -0.11753369
000350 80 ab 22 bb 83 37 f8 bd 6e 29 e7 3d b4 d5 77 3d
       -0.002482146 -0.12119963 0.11287199 0.060506538
000360 2c 9d 4a 3d bc fb ca 3d 4e 33 ca 3d 51 3d 03 3e
       0.049466297 0.09911296 0.09873067 0.12816359
000370 78 2b 5a 3d 52 e3 be bd 8a 94 f5 3d e8 e3 12 3d
       0.05326411 -0.09320702 0.11991222 0.03586188
000380 10 73 50 bd 30 cc 44 bd 92 67 f7 3d f8 ee ea 3c
       -0.050890982 -0.04804629 0.12080301 0.028678402
000390 b4 2c c0 3d 00 f6 24 3c 2e 3b f4 3d 7a 77 c1 bd
       0.093835264 0.010068417 0.1192535 -0.094466165
0003a0 a0 0e fc 3c d0 5b fc 3c 80 28 c3 ba 18 33 eb 3d
       0.030768692 0.030805498 -0.0014889389 0.11484355
0003b0 08 60 d4 3c 20 29 e5 3b 66 75 b4 3d f0 fb 26 bc
       0.025924698 0.006993428 0.088114545 -0.0101919025
0003c0 a0 a9 08 bc c4 fb d9 bd 00 ba 5d ba a0 d3 76 bd
       -0.008341223 -0.106437236 -0.0008458197 -0.060260415
0003d0 92 14 99 3d fe 01 e6 3d a9 a9 f6 bd 54 24 99 bd
       0.074746266 0.11230849 -0.12044079 -0.07477632
0003e0 56 8d fe 3d 2e b3 61 bd fe 22 eb 3d 43 28 02 3e
       0.124293014 -0.05510252 0.114812836 0.12710671
0003f0 3c 9d 04 bd af 06 d6 bd ee 33 84 3d c8 5f 70 3d
       -0.032376513 -0.104504935 0.06455217 0.058685094

gc2.bias f4 [60]
000000 20 07 bf bb e0 a6 77 3d f3 f9 c9 bd 3e 8b 0d bd
       -0.005829707 0.06046188 -0.09862127 -0.03455662
000010 17 16 a1 bd 3d 25 ef bd 00 2d bd bd 01 e1 a9 bd
       -0.078655414 -0.116770245 -0.09237099 -0.08294869
000020 de 50 c9 3d 1c 9b a1 3d a2 7e b3 bd 36 a6 d0 bd
       0.09829877 0.07890913 -0.08764388 -0.10187952
000030 aa c6 ec 3d 70 08 fb 3c 14 82 73 3d 90 28 a5 3c
       0.1156133 0.030643672 0.059450224 0.020160943
000040 ce 94 45 bd 7c d7 8e bd 30 40 8e 3d 91 97 02 be
       -0.048237614 -0.06974694 0.069458365 -0.1275313
000050 4e 02 dc bd 58 af 1f 3d 02 ac 0a bd f8 4b ca 3c
       -0.10742627 0.03898558 -0.033855446 0.024694428
000060 a0 03 8d 3d 8e f0 97 bd ca d4 94 bd 81 9e a2 bd
       0.06885457 -0.07418929 -0.07267149 -0.079403885
000070 7b 55 e7 bd f0 2c 0f bc 12 84 e0 3d e0 47 01 bc
       -0.11295601 -0.008738741 0.109626904 -0.0078906715
000080 86 00 91 3d 2e 7d 83 bd 30 dd 51 3c a4 88 c6 bd
       0.07080178 -0.064203605 0.012809083 -0.09694031
000090 90 d0 0b bc 00 16 e8 3c 66 40 62 bd c0 be f2 3d
       -0.008533612 0.028330803 -0.055237196 0.11852789
0000a0 2c 4c 15 3d 10 3f 84 3d 13 91 03 3e 3c 28 60 3d
       0.036449596 0.06457341 0.1284831 0.05472587
0000b0 38 2c 26 bc d4 8c 7c 3d d7 45 02 3e 2e 8b fe bd
       -0.0101423785 0.06165774 0.12721954 -0.1242889
0000c0 e4 64 c7 bc 40 64 80 3d 6a 2a 00 bd 3b 1b d7 bd
       -0.0243401 0.06269121 -0.03129045 -0.10503241
0000d0 20 7c 99 bd a2 6b 89 bd a8 3a 5b 3d 6a 54 a8 3d
       -0.07494378 -0.067099825 0.053522736 0.08219226
0000e0 f8 b4 70 bc 7a 57 d8 bd 18 44 96 3c 54 d6 13 3d
       -0.014691584 -0.1056356 0.018343017 0.03609307

gc3.weight f4 [60, 60]
000000 b0 76 47 bd 04 56 36 3d 0a 02 58 bd c0 03 32 3d
       -0.048697174 0.044515625 -0.05273632 0.043460608
000010 fe 2b bd 3d 24 dc 83 3d 20 e4 47 bc 52 f3 fd 3d
       0.092369065 0.06438473 -0.012200385 0.12399925
000020 e8 fe 39 bc d8 d3 eb bd e4 0c be 3d c0 d9 f5 3d
       -0.011352278 -0.11515015 0.092798024 0.12004423
000030 f0 51 71 3d 5e b6 e7 3d 34 cd 8e 3d 78 d6 57 3d
       0.058916032 0.11314081 0.06972733 0.052694768
000040 e6 15 99 3d d1 1a cb bd 00 e8 c9 ba c6 e5 61 bd
       0.0747488 -0.09917224 -0.0015404224 -0.05515077
000050 bc 76 11 3d 64 d0 e9 bd e0 16 fa 3b 6c e0 4e 3d
       0.035513625 -0.114167005 0.0076321214 0.050506994
000060 e8 7d 44 bd 02 47 55 bd a2 79 ab bd 24 97 11 3d
       -0.047971636 -0.05206967 -0.08372809 0.03554453
000070 18 ef dd bd bc 13 d9 bc 60 4c eb 3b c4 de 16 3d
       -0.10836619 -0.026498668 0.0071807355 0.03683354
000080 94 fb e2 bd d8 68 d5 3c c0 74 4f bd 20 41 76 bc
       -0.11083141 0.02605097 -0.05064845 -0.015030175
000090 a2 ee c0 bd d6 a9 cf bd 50 45 90 3c a8 96 b3 3c
       -0.094205156 -0.101398155 0.017611176 0.021922424
0000a0 a0 3c e3 3d 5a c8 f8 3d ea 2d c1 3d 90 e5 4c 3d
       0.11095548 0.12147589 0.094325855 0.050023615
0000b0 6e d7 af 3d ac d1 61 3d ce 4e f6 bd de 6a c0 3d
       0.08586012 0.0551316 -0.120267496 0.09395383
0000c0 78 66 80 3c 96 de 03 bd b2 42 1d bd 6e e5 d2 3d
       0.01567386 -0.032194696 -0.038393684 0.102976665
0000d0 5c 80 b8 3d 80 7a 44 bc c6 ab 45 bd 5e 26 8e bd
       0.090088576 -0.011992097 -0.04825952 -0.06940912
0000e0 b4 6b 98 3d 48 57 a0 bd 18 48 af bd ae aa 9e bd
       0.07442418 -0.078291476 -0.08558673 -0.07747398
0000f0 94 89 19 3d 8e ad ca 3d 70 61 d3 3c bc 1a 45 3d
       0.03748472 0.09896384 0.025803298 0.0481212
000100 ef 89 d5 bd 4c 1a c0 bd 91 da 9a bd c2 2f a9 bd
       -0.10426699 -0.09380016 -0.075612195 -0.08261062
000110 40 0b 6c bd f2 4a a0 bd a6 04 2d bd c4 ab a3 bd
       -0.057627916 -0.07826795 -0.04224076 -0.07991746
000120 d4 82 1d 3d 80 58 5a 3b 00 47 d7 3b 58 32 60 3d
       0.038454846 0.003331691 0.006569743 0.05473551
000130 f1 0b ee bd ba 05 4f bd 50 b1 8f bb 0b 0c f7 bd
       -0.116233714 -0.05054257 -0.004385151 -0.12062844
000140 5c 7f 8c 3d 0c 88 c6 bd 5e ba b2 3d f7 d3 02 3e
       0.068602294 -0.09693918 0.08726953 0.1277617
000150 30 f4 d9 3c 1b b0 80 bd 4e 9a ba 3d 3d 55 ad bd
       0.026605695 -0.062835895 0.091114625 -0.084635235
000160 a0 4a c8 3b e2 c4 a5 3d 5a de f7 3d 00 fd 1a 3c
       0.0061124116 0.08094193 0.12102957 0.009459734
000170 e0 88 20 bc b0 8b 37 bc 3b 2b 00 be 38 ee bb 3c
       -0.009798259 -0.011202738 -0.12516491 0.02294074
000180 21 dc d1 bd 00 24 3e 3c bc 4d fb bc 26 20 a8 3d
       -0.102470644 0.011605263 -0.030676715 0.08209257
000190 a8 ba 53 bd 6a ea bb 3d cc 02 fc bc d4 8b cc bc
       -0.05169168 0.0917557 -0.030763052 -0.024969019
0001a0 ac b1 f0 bd fc c7 e5 3d 60 f3 36 3c 1e 4a ee bd
       -0.11752638 0.112197846 0.011166424 -0.116352305
0001b0 20 e8 ed 3b 9c 93 58 3d 44 7d df bc b0 c2 d7 3d
       0.0072603375 0.052875146 -0.027281411 0.105351806
0001c0 e8 4f 81 3d 40 8f 87 bc 77 2a 04 3e 4e 77 ba 3d
       0.06314069 -0.0165478 0.12906824 0.09104787
0001d0 30 b9 81 bc 60 b5 36 bc 50 49 22 3d 3e 43 38 bd
       -0.015835375 -0.011151642 0.039620697 -0.044986002
0001e0 4c c3 a2 3d e8 5f fe bd 08 a6 8d bd b8 63 72 3d
       0.07947406 -0.124206364 -0.069164336 0.05917713
0001f0 68 c2 fd bd 58 34 2f bd b4 95 8c bd 10 3b 8f 3d
       -0.12390596 -0.04277453 -0.06864491 0.06993687
000200 a0 b2 d4 3b 3a c9 bb bd 2e 0f d5 3d ca 24 71 bd
       0.0064910203 -0.0916924 0.10403286 -0.058872975
000210 48 5b 69 bc 38 6d 32 3d 36 4c b0 bd e8 16 43 bc
       -0.014242955 0.04356119 -0.08608286 -0.011907317
000220 fe 23 32 bd 64 d9 fa bc 96 d0 3f bd e8 3c a9 3d
       -0.043491356 -0.030621238 -0.046829782 0.0826357
000230 ee ec 81 bd f7 6e b2 bd 34 6c 64 3d cc 53 2b 3d
       -0.06344019 -0.08712571 0.055767253 0.04182796
000240 00 b1 b0 3a 20 4c 2e 3c a3 c0 01 3e 26 e7 30 bd
       0.0013480484 0.010638267 0.12671141 -0.04318919
000250 7e f3 eb bd 80 35 02 be 00 17 09 3d 48 19 4e 3d
       -0.11521052 -0.12715721 0.0334692 0.05031708
000260 00 1f ef 3a a5 ba db bd ad 87 ce bd 88 27 b4 bd
       0.0018243492 -0.10728959 -0.10084472 -0.087966025
000270 88 36 aa 3d d8 40 cf 3c 71 42 93 bd 88 0a fa bd
       0.08311182 0.025299475 -0.07190407 -0.1220904
000280 7c e5 97 3d 00 d4 b5 3a 03 68 03 3e b7 a0 d8 bd
       0.074168175 0.0013872385 0.12832646 -0.10577529
000290 3e 73 d6 bd a0 77 b6 3c 66 35 b1 3d 04 a6 ae 3d
       -0.104711995 0.022273839 0.08652763 0.08527759
0002a0 b9 6e 03 3e 0a 53 a8 3d 58 32 6c 3d ff 90 a2 bd
       0.12835206 0.082189634 0.0576652 -0.07937812
0002b0 8b 46 02 3e 4a 06 6a bd 0e 06 aa 3d 48 8a 59 3d
       0.12722223 -0.057134904 0.08301936 0.05311039
0002c0 4e b7 9c bd 30 f5 3c bc 88 1f 30 bc 4a a4 c7 3d
       -0.0765215 -0.011533067 -0.010749705 0.097481325
0002d0 50 51 ca 3d 60 c1 e2 3c 15 41 96 bd 60 9a 16 3d
       0.098787904 0.027680099 -0.07336632 0.036768317
0002e0 9e 9f d8 3d ce 1a 8c bd 1a e5 d3 3d d0 fc ee 3c
       0.105773196 -0.0684105 0.10346432 0.029173285
0002f0 c4 40 92 3d 9c 62 35 3d 5c eb a6 3d fe f1 e0 bd
       0.07141259 0.044283494 0.0815036 -0.10983656
000300 84 64 5a 3d ef 47 e5 bd d0 55 10 bc 56 c3 ce 3d
       0.053318515 -0.11195361 -0.008809522 0.10095851
000310 74 d2 d8 bd 4b 1c c9 bd 68 c2 67 bd 00 2a 9f 3b
       -0.10587016 -0.098198496 -0.056581885 0.0048573017
000320 58 37 92 bc e6 88 cf bd e8 cc 89 3c 16 d6 04 bd
       -0.017848656 -0.10133533 0.01682134 -0.03243073
000330 10 f8 76 bd 00 b3 b8 3a cc 93 33 3d 88 ab a9 3c
       -0.060295165 0.0014091432 0.043842122 0.020711675
000340 f2 44 af bd 94 3a b3 3d 78 89 c7 3c fe 84 58 bd
       -0.08558072 0.08751407 0.024357542 -0.052861206
000350 d6 db e4 3d 88 30 d5 3c 5a 7d 89 3d 14 f2 ba 3d
       0.11174743 0.026024118 0.06713362 0.09128204
000360 00 c7 16 bb 00 e6 d9 3d 00 fb 16 ba ea 84 d3 3d
       -0.0023006797 0.10639572 -0.0005759448 0.10328086
000370 90 47 80 3c a8 51 73 3d 36 25 85 3d 94 88 92 bd
       0.015659124 0.059404045 0.06501238 -0.071549565
000380 8e 0d e7 3d 20 47 80 3b c4 59 42 3d 9e 13 c3 bd
       0.11281882 0.0039147288 0.04744889 -0.09525226
000390 e0 61 45 bd 1a 5a ac 3d 92 dc a6 bd 30 85 92 3c
       -0.048189044 0.08415623 -0.08147539 0.017885774
0003a0 a0 2a e8 3d 44 21 fb bd 00 e7 ba ba f0 da ab 3c
       0.11336255 -0.12262204 -0.0014259517 0.020978421
0003b0 c4 49 ad 3d a4 ab 31 bd f8 32 01 be 09 a4 a3 bd
       0.08461335 -0.04337658 -0.126171 -0.079902716
0003c0 64 b4 1e 3d 50 b4 c2 bd 63 54 e2 bd c0 77 55 bb
       0.038746253 -0.09507048 -0.11051252 -0.0032572597
0003d0 c0 be 0a 3d 08 cb a5 bd d0 62 4d bd 1a a0 90 3d
       0.03387332 -0.08095366 -0.050143063 0.07061787
0003e0 fe c3 b2 bd a9 7a d9 bd 74 d1 1f bd fa 6f d4 3d
       -0.08728789 -0.10619099 -0.03901811 0.1037292
0003f0 ac 08 1b bd 2d 39 b3 bd 18 91 bb bd a8 8d f8 bc
       -0.037850067 -0.0875114 -0.09158534 -0.030340984

gc3.bias f4 [60]
000000 35 de 85 bd 65 4b 81 bd 44 73 00 3d 0c 01 8a bd
       -0.06536523 -0.063132085 0.031359926 -0.06738481
000010 58 0d 64 3d 26 2d f9 bd e4 db 41 bd 07 d4 03 3e
       0.055676788 -0.121668145 -0.047328845 0.12873851
000020 b0 34 d6 bb 12 a6 8f 3d a4 63 ee 3d b6 1d 17 bd
       -0.0065370426 0.07014097 0.11640099 -0.03689357
000030 8c 85 f6 bc 8c ca 97 bc 82 b6 83 bd c0 fa 7e bb
       -0.030092977 -0.018529199 -0.06431295 -0.0038906783
000040 b0 fe 7b 3d fe 32 e4 3d 48 e8 b6 3d 1d 31 02 3e
       0.061522186 0.111425385 0.08931023 0.12714048
000050 1b 87 85 bd a8 43 b6 bd 23 59 02 be c2 ad 9b 3d
       -0.0651991 -0.08899623 -0.12729315 0.07601501
000060 28 71 6a 3d dc 1f fd bc b8 98 da 3d be 4c be bd
       0.05723682 -0.03089898 0.1067366 -0.09291981
000070 ac 1b ab bc 40 4f 5d bb d8 a4 54 3d 8c 7f dc 3d
       -0.020887218 -0.003376916 0.05191502 0.10766515
000080 3a 54 96 bd 95 dd 03 3e 26 d5 fb 3d 80 ae 0c 3d
       -0.07340284 0.12877496 0.12296514 0.034346104
000090 ac 02 ae bd a8 59 2e 3d e8 62 dc 3c a4 bb 3f bd
       -0.08496603 0.04256597 0.02690263 -0.046809807
0000a0 0e 89 fe 3d b2 5f d4 bd 92 d6 3b bd 7e 59 46 bd
       0.12428485 -0.10369815 -0.045858927 -0.04842519
0000b0 9a c4 12 bd e0 f5 c3 3d 30 85 d2 bb a0 27 93 3c
       -0.035832025 0.09568381 -0.0064245686 0.01796323
0000c0 bb cd eb bd 78 d5 b2 bd 44 14 a6 3d ba 9f 21 bd
       -0.11513849 -0.08732122 0.08109334 -0.039458968
0000d0 a4 29 3d 3d bf c6 cb bd f2 21 96 bd 80 71 7e 3d
       0.04618229 -0.09950017 -0.07330693 0.06211996
0000e0 b4 30 ba 3d 10 78 03 3c 70 6b ef bd 8a 57 a6 bd
       0.09091321 0.008024231 -0.11690414 -0.081221655

gc4.weight f4 [60, 1]
000000 74 87 18 bf 6c 91 19 3f 95 08 b4 bf d7 52 af bf
       -0.59581685 0.5998752 -1.4065119 -1.3697156
000010 63 ae a5 bf 74 75 34 bf e7 13 b1 3e 4c f0 ae bf
       -1.2943844 -0.7049172 0.34585497 -1.3667083
000020 f0 e8 a9 bf b7 60 62 3e 6c 92 56 bf ac fa c3 bf
       -1.3274212 0.22107206 -0.8381717 -1.5310874
000030 c8 1d 0b 3f a3 22 2d bf d3 77 17 3f d5 87 11 bf
       0.5434232 -0.67630976 0.5916721 -0.5684789
000040 71 e8 29 3e c1 9d 03 3e 69 f2 fa 3e 42 38 a5 3e
       0.16592576 0.12853147 0.4901307 0.32269484
000050 06 29 7f bf 7e cf 72 bf db 16 e7 3d 7b 74 9f be
       -0.9967197 -0.9484786 0.11283656 -0.31143555
000060 e2 47 5c bf 26 db 58 3f 58 13 49 3f 2e 61 f0 bf
       -0.86047184 0.84709394 0.7854514 -1.8779657
000070 e6 dc 05 3f 4e 91 07 3f 9a fa d1 bf 79 cf cf be
       0.5229019 0.5295609 -1.6404603 -0.40587977
000080 74 88 fb be f4 35 0a c0 f8 da da 3e 1e b8 d8 3e
       -0.49127543 -2.159543 0.42745185 0.4232797
000090 b4 7a 38 be c6 64 a5 bf de 4a 1e bf dc 16 27 bf
       -0.18015558 -1.2921379 -0.6183299 -0.65269256
0000a0 4d 1d 99 bf 19 cb 4b 3e b2 55 0f 3e 2b 98 22 bf
       -1.1962067 0.19901694 0.13997534 -0.6351344
0000b0 e6 be 8b 3e 49 92 35 3e e2 d6 b9 bf f9 30 19 bf
       0.2729408 0.17731585 -1.4518702 -0.5984035
0000c0 d6 2a 9a bf 3e d1 47 3f 53 40 a6 bf 01 98 29 bf
       -1.2044322 0.78053653 -1.298838 -0.66247565
0000d0 b5 26 1c bf 17 46 96 bf 72 2a d9 3d 2d da fe bf
       -0.6099656 -1.174014 0.10603799 -1.9910332
0000e0 0b e3 8e be 88 a5 ff be 9b ea 9c bf 49 2b 1d 3f
       -0.27907595 -0.49930978 -1.2259096 0.6139417
