pyperplan/src/checkpoints/blocksworld_4.pth (torch_old, 50415 bytes, 7 tensors)

gc1.weight f4 [81, 60]
00000000: a461 8225 7033 efb6 f8ba 8ca3 e7a7 fe27
00000010: cfd1 e32a cbed 8335 dee2 fa2a c984 d62e
00000020: 4361 9633 7166 a0b4 94cd 422a 8fd0 fba8
00000030: f358 8f2e 17f1 4f27 a45c 6eb1 d1a4 4caa
00000040: bf4a d1a5 795d 79ad 06a5 2f27 49e2 a137
00000050: 55b8 91b3 c241 f027 b67c f62a 4a3b 5636
00000060: 2224 7229 8c87 2e29 d0fb 1a30 1008 1bb1
00000070: ff1c a6a7 9cc2 762e 404e 8f32 429c 0829
00000080: ac34 8bb1 a640 bb27 c278 99ab 4324 6b25
00000090: cfb2 832a a3ab a1b6 654b c72d e218 98a5
000000a0: b2c5 9a33 333c 7e35 5475 1db8 be50 3fa6
000000b0: b919 3ea6 a951 832a 20f9 742e 2e00 2a28
000000c0: 6d6b 44b2 fad4 3dab cdce 5baa 54e5 a0ac
000000d0: ad36 a428 e751 f3a4 3bc3 682f 860d dfaf
000000e0: 1c65 ab27 8e79 0e26 3759 5eb7 1caf 40aa
000000f0: 3fec 00bd 9f45 94bd 4ca5 443e 9163 20bf
00000100: cfca 1cbd 4e00 84bf b7d2 a63e a186 36bf
00000110: 8f40 09bf 3a30 933e 2076 8fbe f0d6 8dbe
00000120: 817d 313e b815 72bf 7d09 dfbd 29f1 22bf
00000130: bd9a 6c3d 147f 8a3d d61d c43e 5594 513e
00000140: 0e7f bfbe 903a 4bbf d473 ca3e 4bf2 64bf
00000150: c8e9 60bd 7c6d 07be 0271 c83e 17ef e5be
00000160: 7b51 71bd 36da 0a3e 0edc 31bf ee3b 26be
00000170: 61fd b3be dc4b b33e 70b6 01be b724 a4bd
00000180: 5d81 35be d84d 83bf 9349 50bf 4b59 7dbf
00000190: 85a3 30bf a85a 993e 567a 8d3e a74a 2dbf
000001a0: f1ee c83e 97b5 953e 4283 933e 0a73 12bf
000001b0: 0ddd 553e f7a6 593e 73f2 b93e 4072 ca3c
000001c0: 14b3 673d 644c 46bf adfb 9d3e 30f7 e9be
000001d0: 0319 90be 2363 2fbf b0a6 9cbe 4175 62bd
000001e0: 2cd8 083e 5087 d13d 3b5b 24bf 92c9 94be
000001f0: 1489 5c3d db97 00bf 7fe7 b23e 07b2 23bf
00000200: 7035 93be dbad e33e d6ff b7bd 148b 86bd
00000210: 1b5c c13e eb37 543d 2352 33be c747 46be
00000220: 3d1e 8f3e 87fc 7e3e 09bb fb3e 47ba 973e
00000230: 365c dc3d 13b8 58bf 09af be3e f80d 52bd
00000240: 5c45 a1bd e62c 513e 67aa 153f d7ee 853e
00000250: f738 843d 59aa 1f3e e129 68bf 703c 31bf
00000260: ba0c b1be 546c 6bbf 725c 363d d0c5 32bd
00000270: 6f29 05bf 3f3e 343d df74 a8be 2d97 acbe
00000280: ed79 aa3f b611 ae3e f997 f63e f4a4 97bd
00000290: eacb 003f 059e cc3e 6abe 8bbf cb16 a73f
000002a0: f258 b83e 717a d53d b271 603e 37de 1cbf
000002b0: 2f99 4ebf 648b 0cbf 5f32 c33e 5b95 bdbe
000002c0: a7a8 8ebe 936c c73d 84b1 2fbf 4039 143e
000002d0: 1c0c c43e e36c d2bb fa65 40bd ea14 98bf
000002e0: 12c1 603e b45a 0d3f 77e8 103e 98c2 8dbe
000002f0: 5233 9ebe a9ad 153e ca74 c2be 29f5 2cbf
00000300: d429 763e a6da 1f3f 5bdf 693d 0d61 b7bf
00000310: a2ec 963e 5ee2 9f3e a3af 363e bc54 483e
00000320: 0065 4dbf 93c6 3cbf 31f8 883e 14ea a6bd
00000330: ea6e 33be 8072 793c 51fe d23e af54 21bf
00000340: fe6c a23e d384 293e e823 cebd c90a 033e
00000350: 1bb4 bdbe 3d79 afbe 02ea 95bd 5457 3f3e
00000360: cd28 9fbf 0a07 4cbf 1806 c9be ae65 08bf
00000370: 1517 3dbf 800b 1d3e 7177 e93d 2927 533d
00000380: 4a50 3a3e 949a 2f3e 4a1e 083f 9128 3dbf
00000390: 0cf2 e13d 0d56 2f3e 81ab 13bf bcc2 e53a
000003a0: bc9f 143f 112d 273e 77bd 573e 6bc1 c7bc
000003b0: 02da 50be fcbd 1abf 228b aebf 15df c33e
000003c0: df61 2f30 bb6d c7b2 ff11 d6a5 45ce fa34
000003d0: fff0 0b2a f174 7631 0cfc 7eb4 8092 f2b2
000003e0: 037a d525 8e4b 472c 68f8 162b 2ce9 81b8
000003f0: 8262 7c33 061c 7b25 c6d5 4729 2454 b334
2.261757e-16 -7.128743e-06 -1.5258015e-17 7.0681202e-15 4.0468884e-13 9.829467e-07 4.4566342e-13 9.755181e-11
7.002611e-08 -2.9876858e-07 1.7301986e-13 -2.7957046e-14 6.518688e-11 2.8857716e-15 -3.4686218e-09 -1.8176022e-13
-3.630637e-16 -1.4174766e-11 2.4375588e-15 1.9298068e-05 -6.7856185e-08 6.6684676e-15 4.3784914e-13 3.1922996e-06
5.3766135e-14 3.875333e-14 5.638272e-10 -2.2560052e-09 -4.6105693e-15 5.6106772e-11 1.6682975e-08 3.03336e-14
-4.0514205e-09 5.197302e-15 -1.0904821e-12 2.0395287e-16 2.3394348e-13 -4.818155e-06 2.2657163e-11 -2.6384658e-16
7.2071444e-08 9.4709975e-07 -3.7540987e-05 -6.6375863e-16 -6.5954353e-16 2.3326938e-13 5.5700444e-11 9.436935e-15
-1.1433127e-08 -6.7441853e-13 -1.9522856e-13 -4.572934e-12 1.823137e-14 -1.055232e-16 2.1169637e-10 -4.0573073e-10
4.7571657e-15 4.9430884e-16 -1.3253003e-05 -1.7113779e-13 -0.0314753 -0.07239842 0.19203681 -0.62651926
-0.03827935 -1.0312593 0.32582638 -0.7129918 -0.53614134 0.2874773 -0.2801981 -0.27703047
0.17333032 -0.9456439 -0.108904816 -0.6364923 0.057764757 0.067625195 0.38304013 0.2046674
-0.37401623 -0.79386234 0.39541495 -0.8943221 -0.05491045 -0.13225359 0.39148718 -0.44908974
-0.058915596 0.13559803 -0.694764 -0.16233799 -0.3515425 0.35018814 -0.1266725 -0.08014815
-0.1772513 -1.0258131 -0.81362265 -0.98964375 -0.6899951 0.29951978 0.27632397 -0.67692035
0.39244798 0.29240105 0.2881108 -0.57206786 0.20885105 0.21255098 0.36317787 0.024712682
0.056567267 -0.7746031 0.30856076 -0.45696402 -0.28144082 -0.68510646 -0.30595922 -0.055287603
0.13363713 0.10230887 -0.64201707 -0.29060036 0.053841665 -0.50231713 0.34942243 -0.63943523
-0.28751707 0.4446858 -0.08984344 -0.06569496 0.37765583 0.05181114 -0.17511801 -0.19363318
0.27952757 0.24901019 0.49166134 0.29634306 0.10759775 -0.84655875 0.37242916 -0.051282853
-0.078745574 0.20427284 0.5846314 0.26158783 0.06456178 0.15592326 -0.906889 -0.69232845
-0.34580022 -0.9196217 0.044521756 -0.04364568 -0.5201635 0.044004675 -0.32901666 -0.33709088
1.3318459 0.33997887 0.4816282 -0.07404509 0.5031115 0.3996431 -1.0917485 1.3053831
0.3600536 0.104237445 0.21918371 -0.6127657 -0.8070249 -0.54900193 0.38124368 -0.37028012
-0.27863047 0.09737506 -0.6863024 0.14474964 0.3829049 -0.0064216717 -0.046972252 -1.1881382
0.2194865 0.55216527 0.14151178 -0.27687526 -0.3089853 0.14617027 -0.37979728 -0.67561585
0.24039394 0.62443006 0.057097774 -1.4326493 0.29477412 0.31227392 0.17840438 0.19563574
-0.8023224 -0.737405 0.26751855 -0.081501156 -0.17522779 0.015225053 0.41209653 -0.6301984
0.3172378 0.16554575 -0.10065442 0.12797083 -0.37051472 -0.34272185 -0.07320024 0.18685657
-1.2434326 -0.7969824 -0.39262462 -0.5328015 -0.73863345 0.15336418 0.11399735 0.051551018
0.1819469 0.1714881 0.5317122 -0.73890024 0.11032495 0.1712267 -0.5768357 0.0017529349
0.58056235 0.16325785 0.21068369 -0.024384221 -0.20395663 -0.60446143 -1.363621 0.38256136
6.380371e-10 -2.3216549e-08 -3.7135277e-16 4.671621e-07 1.2429292e-13 3.5864185e-09 -2.3747288e-07 -2.8239128e-08
3.7032288e-16 2.8321542e-12 5.363544e-13 -6.194631e-05 5.8762915e-08 2.1780274e-16 4.4372295e-14 3.3402569e-07

gc1.bias f4 [60]
00000000: 6d73 c7bd 20e9 b53d 9056 513c 55ad 3bbe
00000010: f534 adbe bde6 fb3b e029 3d3e 5138 5d3d
00000020: 4d57 433d 964f b53e 4855 74be 3dbc 953d
00000030: e60b 5f3e 23dc 3abe d5d1 a1be e933 c5bc
00000040: 9b86 043c b3d5 b83e 202d ecbd e913 7fbd
00000050: 5941 78bc c62e 953d 69c2 013e 37fb d03c
00000060: 20c1 ea3c 2aba b3bc 5c22 e8bd 27ce 8abe
00000070: 6390 dd3a f469 1cbf d70a 9e3c 3263 a8bd
00000080: 0b43 c03d 0172 d23c a029 f13d b23f 80bc
00000090: c040 8d3c 6179 cbbc a561 09be 1743 89bd
000000a0: 77d0 33bd afd9 07be 19a6 d5bd cfd6 02bd
000000b0: 48aa d13d eeb1 d3bd aba2 2dbe ff24 5ebd
000000c0: b5cd 933e 3120 c23d a178 d43c 2e5d d3bc
000000d0: c1d1 963d 96fe 46be 84e8 9cbd d76f 473c
000000e0: dde8 acbe bfa8 87bc 7a60 19bd 2e4e e8bd
-0.097388126 0.08882356 0.012776986 -0.1832784 -0.33829466 0.0076874183 0.18473005 0.054008786
0.04769068 0.35412282 -0.23860657 0.07311294 0.21781883 -0.18248038 -0.31605402 -0.024072604
0.008088733 0.3610054 -0.115320444 -0.062274847 -0.015152299 0.07284312 0.12671818 0.025510414
0.028656542 -0.021939356 -0.113346785 -0.27110407 0.0016903993 -0.6109917 0.019292278 -0.08222045
0.093877874 0.025689127 0.117755175 -0.015655372 0.01724279 -0.024838151 -0.13416155 -0.067022495
-0.04389998 -0.13266633 -0.10432071 -0.03194314 0.10237557 -0.10336672 -0.16956584 -0.0542345
0.2886788 0.09478796 0.025936427 -0.025801267 0.07364226 -0.19433054 -0.07661536 0.012172661
-0.3377141 -0.016559957 -0.037445523 -0.113430366

gc2.weight f4 [60, 60]
00000000: dc3d 9ebc 3aed ecbd b272 13bd bee2 e03d
00000010: d06f c23c 7cd8 bcbc 2ace 893d 2ed6 cb3d
00000020: 74be cd3d 1ca0 c3bd c0dc 173c 221d d9bd
00000030: 394b b6bd 7606 cb3d 2ba6 d2bd 04aa 81bd
00000040: b897 7d3d fd9f 003e 4a6b 00be fb9b aabd
00000050: 565b 4fbd f2d0 cc3d 0a15 9a3d a0d4 a43d
00000060: 166a a93d 4256 04bd d4f2 c23d 80bf 6dbb
00000070: 30ba 463c 3c3b 0cbd ac51 603d 6823 6c3d
00000080: 5835 60bc 04c2 e83d 1ef3 08bd 9cd7 053d
00000090: d223 f03d faf6 943d 0a8e 40bd 5088 6fbd
000000a0: d01b cc3c 803e 80ba f0dc 143c 7050 aa3d
000000b0: bcd6 383d e048 94bd b2de d7bd def6 f93d
000000c0: d0db 68bc 1853 50bd 3430 c2bd c2e4 fd3d
000000d0: 626a 853d 1d9c a7bd 8759 e4bd acaf e53d
000000e0: b0aa 633d 2459 9bbc 4cbc dbbd 7840 a03d
000000f0: 327a b3bd beec 813d 1a1e fbbd dabc ebbd
00000100: 30a4 fdbd 98af ef3d 4044 f03d c09a e1bd
00000110: 0e63 cc3d e7b4 a0bd 83b7 f5bd 847c 7e3d
00000120: 3ce0 953d e6dd 953d 589a b93c 1abe fd3d
00000130: ebc3 e3bd bcfa 733d e490 27bd c0ed d03b
00000140: ba59 b63d c255 bdbd c0bb 673d c03d d3bc
00000150: 3a04 ab3d 802c 5ebb 302d 833d 7eaf fd3d
00000160: 12ce 3cbd 9538 02be ee65 f93d c290 91bd
00000170: 48b0 f13c 1270 a43d 983c a4bc 5ea2 ce3d
00000180: bc57 ab3d d8eb d4bc 84a4 0a3d 804b 203c
00000190: e353 013e 800c b73d 3a19 b0bd d0cc 4b3c
000001a0: b29a 8e3d ac21 ca3d dc8b 343d 40b1 603d
000001b0: ec43 c3bc c082 373b 4cfd b6bd 4ea9 d93d
000001c0: 0e32 d03d 9d96 91bd 5c5c e2bd 282c ce3d
000001d0: 3856 eabd 0c90 a93d 15c4 00be 512c 87bd
000001e0: 2ae3 5fbd fa7a f83d 7cf5 b2bc 7010 e43d
000001f0: e0a2 193d 2d12 003e 321f af3d 7cb8 c23d
00000200: 5e83 e63d 663b 1cbd 8463 11bd 9061 2a3d
00000210: d4ea e83d 7699 42bd 3afa cfbd 94d3 cebd
00000220: 3a4d 74bd e0c0 a83c a0c4 74bc 9404 0dbd
00000230: 7835 77bd 788a 093d 88c9 d9bd 290f 023e
00000240: 3cc9 a3bc 0855 c53c 2432 2e3d 82bf 4dbd
00000250: b4a8 d03d 00d4 7aba 0084 2d3c c2b1 fbbd
00000260: 28e8 823c 2c71 353d 205f 933c 489f 51bc
00000270: b8a4 c73d 4a08 d13d bc06 b63d 4c8e b7bc
00000280: 18b1 b63c 1c9b b8bd 10f0 c5bd 90d6 b8bc
00000290: 106c 6c3c 99ff 99bd 7eb0 dcbd 788e 703d
000002a0: 3855 413d deaf aebd 48f0 af3d 42a0 c5bd
000002b0: 3401 c83d 6675 8c3d ccb6 32bd 46b8 fb3d
000002c0: 8b73 94bd 168c 71bd dcbb d23d 8242 08bd
000002d0: 9e92 55bd 78a4 a33c a4b4 b2bc 2291 a63d
000002e0: 34dc d73d 4437 6b3d a8b8 e43c 5cd7 043d
000002f0: 0047 5c3b 0066 783c 00a9 203b 3a4a b43d
00000300: e0da 933d 78aa 54bc 7caf 473d 00f6 e93b
00000310: a8dd 3a3d b211 d93d 67e3 b3bd c04a 963c
00000320: 4805 dcbc 1c3d 01be b375 00be 8c7a 8abc
00000330: c03b bd3d b456 aebd 383f 2c3d 7062 983d
00000340: 7bb6 c0bd f418 633d 009a c73c 81b5 f0bd
00000350: 80ab 22bb 8337 f8bd 6e29 e73d b4d5 773d
00000360: 2c9d 4a3d bcfb ca3d 4e33 ca3d 513d 033e
00000370: 782b 5a3d 52e3 bebd 8a94 f53d e8e3 123d
00000380: 1073 50bd 30cc 44bd 9267 f73d f8ee ea3c
00000390: b42c c03d 00f6 243c 2e3b f43d 7a77 c1bd
000003a0: a00e fc3c d05b fc3c 8028 c3ba 1833 eb3d
000003b0: 0860 d43c 2029 e53b 6675 b43d f0fb 26bc
000003c0: a0a9 08bc c4fb d9bd 00ba 5dba a0d3 76bd
000003d0: 9214 993d fe01 e63d a9a9 f6bd 5424 99bd
000003e0: 568d fe3d 2eb3 61bd fe22 eb3d 4328 023e
000003f0: 3c9d 04bd af06 d6bd ee33 843d c85f 703d
-0.019316606 -0.11568685 -0.035998054 0.10980748 0.023734957 -0.023052447 0.06728776 0.09952961
0.10046092 -0.09552023 0.0092689395 -0.1060126 -0.08901066 0.09913342 -0.102856 -0.06331256
0.06191227 0.1256103 -0.12540928 -0.08330532 -0.050624214 0.10000791 0.07523544 0.080483675
0.082721874 -0.032308824 0.09518972 -0.0036277473 0.0121293515 -0.034236178 0.05476539 0.057650954
-0.013684593 0.113651305 -0.03343498 0.032676324 0.11725582 0.072736695 -0.04701046 -0.058479607
0.024915606 -0.0009784251 0.009085879 0.083161235 0.04512666 -0.07240462 -0.10540523 0.12205289
-0.014212564 -0.050860494 -0.0948185 0.12397148 0.065144315 -0.08184073 -0.111498885 0.112151474
0.055582702 -0.018963404 -0.10729274 0.078247964 -0.08763541 0.06343983 -0.12261601 -0.1151063
-0.12384832 0.11703414 0.11731768 -0.11015844 0.09979831 -0.078470044 -0.11997893 0.062130466
0.0731816 0.073177144 0.022656605 0.123897746 -0.11121353 0.05956529 -0.040909663 0.0063759983
0.08903833 -0.09244873 0.056575537 -0.02578628 0.083504155 -0.0033901036 0.06405103 0.12386988
-0.04609496 -0.12716897 0.12177645 -0.071076885 0.029503003 0.08029188 -0.020048425 0.10089563
0.083663434 -0.025991365 0.0338483 0.009783626 0.12629656 0.08937931 -0.085985616 0.012438968
0.069630995 0.09869704 0.044078693 0.05485654 -0.023836099 0.0028001517 -0.08935031 0.106279954
0.10165797 -0.07108805 -0.110527724 0.10067016 -0.11442226 0.08279428 -0.125748 -0.066002496
-0.05466 0.12132831 -0.021845572 0.11135948 0.037508845 0.12506934 0.08550872 0.09507844
0.11255525 -0.038142584 -0.035495296 0.04159695 0.11372915 -0.047509633 -0.10155149 -0.10098949
-0.05964396 0.020599782 -0.014939457 -0.034428194 -0.060353726 0.03357932 -0.10634142 0.12701096
-0.019993417 0.024088398 0.042528287 -0.050231464 0.101884276 -0.00095683336 0.010590553 -0.12289764
0.015979841 0.044297382 0.017989695 -0.012794323 0.097482145 0.10206659 0.08888003 -0.02240672
0.022301242 -0.0901396 -0.09664929 -0.022563249 0.014430061 -0.075194545 -0.10775851 0.05872962
0.04720041 -0.08529638 0.08590752 -0.096497074 0.097658545 0.068583295 -0.04363136 0.12291007
-0.072486006 -0.058971487 0.102897376 -0.03326655 -0.05214178 0.019975886 -0.021814652 0.08133151
0.10540047 0.057425752 0.027920082 0.032431945 0.0033611655 0.015161037 0.0024514794 0.0880322
0.072194815 -0.012980096 0.04875134 0.007139921 0.045621544 0.10599078 -0.08783608 0.01834619
-0.026857987 -0.12620968 -0.12544899 -0.016904138 0.09239912 -0.08512631 0.042052478 0.074406505
-0.094098054 0.05544372 0.024365425 -0.11753369 -0.002482146 -0.12119963 0.11287199 0.060506538
0.049466297 0.09911296 0.09873067 0.12816359 0.05326411 -0.09320702 0.11991222 0.03586188
-0.050890982 -0.04804629 0.12080301 0.028678402 0.093835264 0.010068417 0.1192535 -0.094466165
0.030768692 0.030805498 -0.0014889389 0.11484355 0.025924698 0.006993428 0.088114545 -0.0101919025
-0.008341223 -0.106437236 -0.0008458197 -0.060260415 0.074746266 0.11230849 -0.12044079 -0.07477632
0.124293014 -0.05510252 0.114812836 0.12710671 -0.032376513 -0.104504935 0.06455217 0.058685094

gc2.bias f4 [60]
00000000: 2007 bfbb e0a6 773d f3f9 c9bd 3e8b 0dbd
00000010: 1716 a1bd 3d25 efbd 002d bdbd 01e1 a9bd
00000020: de50 c93d 1c9b a13d a27e b3bd 36a6 d0bd
00000030: aac6 ec3d 7008 fb3c 1482 733d 9028 a53c
00000040: ce94 45bd 7cd7 8ebd 3040 8e3d 9197 02be
00000050: 4e02 dcbd 58af 1f3d 02ac 0abd f84b ca3c
00000060: a003 8d3d 8ef0 97bd cad4 94bd 819e a2bd
00000070: 7b55 e7bd f02c 0fbc 1284 e03d e047 01bc
00000080: 8600 913d 2e7d 83bd 30dd 513c a488 c6bd
00000090: 90d0 0bbc 0016 e83c 6640 62bd c0be f23d
000000a0: 2c4c 153d 103f 843d 1391 033e 3c28 603d
000000b0: 382c 26bc d48c 7c3d d745 023e 2e8b febd
000000c0: e464 c7bc 4064 803d 6a2a 00bd 3b1b d7bd
000000d0: 207c 99bd a26b 89bd a83a 5b3d 6a54 a83d
000000e0: f8b4 70bc 7a57 d8bd 1844 963c 54d6 133d
-0.005829707 0.06046188 -0.09862127 -0.03455662 -0.078655414 -0.116770245 -0.09237099 -0.08294869
0.09829877 0.07890913 -0.08764388 -0.10187952 0.1156133 0.030643672 0.059450224 0.020160943
-0.048237614 -0.06974694 0.069458365 -0.1275313 -0.10742627 0.03898558 -0.033855446 0.024694428
0.06885457 -0.07418929 -0.07267149 -0.079403885 -0.11295601 -0.008738741 0.109626904 -0.0078906715
0.07080178 -0.064203605 0.012809083 -0.09694031 -0.008533612 0.028330803 -0.055237196 0.11852789
0.036449596 0.06457341 0.1284831 0.05472587 -0.0101423785 0.06165774 0.12721954 -0.1242889
-0.0243401 0.06269121 -0.03129045 -0.10503241 -0.07494378 -0.067099825 0.053522736 0.08219226
-0.014691584 -0.1056356 0.018343017 0.03609307

gc3.weight f4 [60, 60]
00000000: b076 47bd 0456 363d 0a02 58bd c003 323d
00000010: fe2b bd3d 24dc 833d 20e4 47bc 52f3 fd3d
00000020: e8fe 39bc d8d3 ebbd e40c be3d c0d9 f53d
00000030: f051 713d 5eb6 e73d 34cd 8e3d 78d6 573d
00000040: e615 993d d11a cbbd 00e8 c9ba c6e5 61bd
00000050: bc76 113d 64d0 e9bd e016 fa3b 6ce0 4e3d
00000060: e87d 44bd 0247 55bd a279 abbd 2497 113d
00000070: 18ef ddbd bc13 d9bc 604c eb3b c4de 163d
00000080: 94fb e2bd d868 d53c c074 4fbd 2041 76bc
00000090: a2ee c0bd d6a9 cfbd 5045 903c a896 b33c
000000a0: a03c e33d 5ac8 f83d ea2d c13d 90e5 4c3d
000000b0: 6ed7 af3d acd1 613d ce4e f6bd de6a c03d
000000c0: 7866 803c 96de 03bd b242 1dbd 6ee5 d23d
000000d0: 5c80 b83d 807a 44bc c6ab 45bd 5e26 8ebd
000000e0: b46b 983d 4857 a0bd 1848 afbd aeaa 9ebd
000000f0: 9489 193d 8ead ca3d 7061 d33c bc1a 453d
00000100: ef89 d5bd 4c1a c0bd 91da 9abd c22f a9bd
00000110: 400b 6cbd f24a a0bd a604 2dbd c4ab a3bd
00000120: d482 1d3d 8058 5a3b 0047 d73b 5832 603d
00000130: f10b eebd ba05 4fbd 50b1 8fbb 0b0c f7bd
00000140: 5c7f 8c3d 0c88 c6bd 5eba b23d f7d3 023e
00000150: 30f4 d93c 1bb0 80bd 4e9a ba3d 3d55 adbd
00000160: a04a c83b e2c4 a53d 5ade f73d 00fd 1a3c
00000170: e088 20bc b08b 37bc 3b2b 00be 38ee bb3c
00000180: 21dc d1bd 0024 3e3c bc4d fbbc 2620 a83d
00000190: a8ba 53bd 6aea bb3d cc02 fcbc d48b ccbc
000001a0: acb1 f0bd fcc7 e53d 60f3 363c 1e4a eebd
000001b0: 20e8 ed3b 9c93 583d 447d dfbc b0c2 d73d
000001c0: e84f 813d 408f 87bc 772a 043e 4e77 ba3d
000001d0: 30b9 81bc 60b5 36bc 5049 223d 3e43 38bd
000001e0: 4cc3 a23d e85f febd 08a6 8dbd b863 723d
000001f0: 68c2 fdbd 5834 2fbd b495 8cbd 103b 8f3d
00000200: a0b2 d43b 3ac9 bbbd 2e0f d53d ca24 71bd
00000210: 485b 69bc 386d 323d 364c b0bd e816 43bc
00000220: fe23 32bd 64d9 fabc 96d0 3fbd e83c a93d
00000230: eeec 81bd f76e b2bd 346c 643d cc53 2b3d
00000240: 00b1 b03a 204c 2e3c a3c0 013e 26e7 30bd
00000250: 7ef3 ebbd 8035 02be 0017 093d 4819 4e3d
00000260: 001f ef3a a5ba dbbd ad87 cebd 8827 b4bd
00000270: 8836 aa3d d840 cf3c 7142 93bd 880a fabd
00000280: 7ce5 973d 00d4 b53a 0368 033e b7a0 d8bd
00000290: 3e73 d6bd a077 b63c 6635 b13d 04a6 ae3d
000002a0: b96e 033e 0a53 a83d 5832 6c3d ff90 a2bd
000002b0: 8b46 023e 4a06 6abd 0e06 aa3d 488a 593d
000002c0: 4eb7 9cbd 30f5 3cbc 881f 30bc 4aa4 c73d
000002d0: 5051 ca3d 60c1 e23c 1541 96bd 609a 163d
000002e0: 9e9f d83d ce1a 8cbd 1ae5 d33d d0fc ee3c
000002f0: c440 923d 9c62 353d 5ceb a63d fef1 e0bd
00000300: 8464 5a3d ef47 e5bd d055 10bc 56c3 ce3d
00000310: 74d2 d8bd 4b1c c9bd 68c2 67bd 002a 9f3b
00000320: 5837 92bc e688 cfbd e8cc 893c 16d6 04bd
00000330: 10f8 76bd 00b3 b83a cc93 333d 88ab a93c
00000340: f244 afbd 943a b33d 7889 c73c fe84 58bd
00000350: d6db e43d 8830 d53c 5a7d 893d 14f2 ba3d
00000360: 00c7 16bb 00e6 d93d 00fb 16ba ea84 d33d
00000370: 9047 803c a851 733d 3625 853d 9488 92bd
00000380: 8e0d e73d 2047 803b c459 423d 9e13 c3bd
00000390: e061 45bd 1a5a ac3d 92dc a6bd 3085 923c
000003a0: a02a e83d 4421 fbbd 00e7 baba f0da ab3c
000003b0: c449 ad3d a4ab 31bd f832 01be 09a4 a3bd
000003c0: 64b4 1e3d 50b4 c2bd 6354 e2bd c077 55bb
000003d0: c0be 0a3d 08cb a5bd d062 4dbd 1aa0 903d
000003e0: fec3 b2bd a97a d9bd 74d1 1fbd fa6f d43d
000003f0: ac08 1bbd 2d39 b3bd 1891 bbbd a88d f8bc
-0.048697174 0.044515625 -0.05273632 0.043460608 0.092369065 0.06438473 -0.012200385 0.12399925
-0.011352278 -0.11515015 0.092798024 0.12004423 0.058916032 0.11314081 0.06972733 0.052694768
0.0747488 -0.09917224 -0.0015404224 -0.05515077 0.035513625 -0.114167005 0.0076321214 0.050506994
-0.047971636 -0.05206967 -0.08372809 0.03554453 -0.10836619 -0.026498668 0.0071807355 0.03683354
-0.11083141 0.02605097 -0.05064845 -0.015030175 -0.094205156 -0.101398155 0.017611176 0.021922424
0.11095548 0.12147589 0.094325855 0.050023615 0.08586012 0.0551316 -0.120267496 0.09395383
0.01567386 -0.032194696 -0.038393684 0.102976665 0.090088576 -0.011992097 -0.04825952 -0.06940912
0.07442418 -0.078291476 -0.08558673 -0.07747398 0.03748472 0.09896384 0.025803298 0.0481212
-0.10426699 -0.09380016 -0.075612195 -0.08261062 -0.057627916 -0.07826795 -0.04224076 -0.07991746
0.038454846 0.003331691 0.006569743 0.05473551 -0.116233714 -0.05054257 -0.004385151 -0.12062844
0.068602294 -0.09693918 0.08726953 0.1277617 0.026605695 -0.062835895 0.091114625 -0.084635235
0.0061124116 0.08094193 0.12102957 0.009459734 -0.009798259 -0.011202738 -0.12516491 0.02294074
-0.102470644 0.011605263 -0.030676715 0.08209257 -0.05169168 0.0917557 -0.030763052 -0.024969019
-0.11752638 0.112197846 0.011166424 -0.116352305 0.0072603375 0.052875146 -0.027281411 0.105351806
0.06314069 -0.0165478 0.12906824 0.09104787 -0.015835375 -0.011151642 0.039620697 -0.044986002
0.07947406 -0.124206364 -0.069164336 0.05917713 -0.12390596 -0.04277453 -0.06864491 0.06993687
0.0064910203 -0.0916924 0.10403286 -0.058872975 -0.014242955 0.04356119 -0.08608286 -0.011907317
-0.043491356 -0.030621238 -0.046829782 0.0826357 -0.06344019 -0.08712571 0.055767253 0.04182796
0.0013480484 0.010638267 0.12671141 -0.04318919 -0.11521052 -0.12715721 0.0334692 0.05031708
0.0018243492 -0.10728959 -0.10084472 -0.087966025 0.08311182 0.025299475 -0.07190407 -0.1220904
0.074168175 0.0013872385 0.12832646 -0.10577529 -0.104711995 0.022273839 0.08652763 0.08527759
0.12835206 0.082189634 0.0576652 -0.07937812 0.12722223 -0.057134904 0.08301936 0.05311039
-0.0765215 -0.011533067 -0.010749705 0.097481325 0.098787904 0.027680099 -0.07336632 0.036768317
0.105773196 -0.0684105 0.10346432 0.029173285 0.07141259 0.044283494 0.0815036 -0.10983656
0.053318515 -0.11195361 -0.008809522 0.10095851 -0.10587016 -0.098198496 -0.056581885 0.0048573017
-0.017848656 -0.10133533 0.01682134 -0.03243073 -0.060295165 0.0014091432 0.043842122 0.020711675
-0.08558072 0.08751407 0.024357542 -0.052861206 0.11174743 0.026024118 0.06713362 0.09128204
-0.0023006797 0.10639572 -0.0005759448 0.10328086 0.015659124 0.059404045 0.06501238 -0.071549565
0.11281882 0.0039147288 0.04744889 -0.09525226 -0.048189044 0.08415623 -0.08147539 0.017885774
0.11336255 -0.12262204 -0.0014259517 0.020978421 0.08461335 -0.04337658 -0.126171 -0.079902716
0.038746253 -0.09507048 -0.11051252 -0.0032572597 0.03387332 -0.08095366 -0.050143063 0.07061787
-0.08728789 -0.10619099 -0.03901811 0.1037292 -0.037850067 -0.0875114 -0.09158534 -0.030340984

gc3.bias f4 [60]
00000000: 35de 85bd 654b 81bd 4473 003d 0c01 8abd
00000010: 580d 643d 262d f9bd e4db 41bd 07d4 033e
00000020: b034 d6bb 12a6 8f3d a463 ee3d b61d 17bd
00000030: 8c85 f6bc 8cca 97bc 82b6 83bd c0fa 7ebb
00000040: b0fe 7b3d fe32 e43d 48e8 b63d 1d31 023e
00000050: 1b87 85bd a843 b6bd 2359 02be c2ad 9b3d
00000060: 2871 6a3d dc1f fdbc b898 da3d be4c bebd
00000070: ac1b abbc 404f 5dbb d8a4 543d 8c7f dc3d
00000080: 3a54 96bd 95dd 033e 26d5 fb3d 80ae 0c3d
00000090: ac02 aebd a859 2e3d e862 dc3c a4bb 3fbd
000000a0: 0e89 fe3d b25f d4bd 92d6 3bbd 7e59 46bd
000000b0: 9ac4 12bd e0f5 c33d 3085 d2bb a027 933c
000000c0: bbcd ebbd 78d5 b2bd 4414 a63d ba9f 21bd
000000d0: a429 3d3d bfc6 cbbd f221 96bd 8071 7e3d
000000e0: b430 ba3d 1078 033c 706b efbd 8a57 a6bd
-0.06536523 -0.063132085 0.031359926 -0.06738481 0.055676788 -0.121668145 -0.047328845 0.12873851
-0.0065370426 0.07014097 0.11640099 -0.03689357 -0.030092977 -0.018529199 -0.06431295 -0.0038906783
0.061522186 0.111425385 0.08931023 0.12714048 -0.0651991 -0.08899623 -0.12729315 0.07601501
0.05723682 -0.03089898 0.1067366 -0.09291981 -0.020887218 -0.003376916 0.05191502 0.10766515
-0.07340284 0.12877496 0.12296514 0.034346104 -0.08496603 0.04256597 0.02690263 -0.046809807
0.12428485 -0.10369815 -0.045858927 -0.04842519 -0.035832025 0.09568381 -0.0064245686 0.01796323
-0.11513849 -0.08732122 0.08109334 -0.039458968 0.04618229 -0.09950017 -0.07330693 0.06211996
0.09091321 0.008024231 -0.11690414 -0.081221655

gc4.weight f4 [60, 1]
00000000: 40fe 20bf 393a 313f 98c3 d4bf 99ab 88bf
00000010: 3abe bdbe e4a8 31c0 d5d1 a43e 9780 2bbf
00000020: 12dd a7be 14eb 1d3e 15f4 cbbe efed e0bf
00000030: 53d4 143e 9b5a 87bf cdaa a13f 14db 49c0
00000040: 2c0b 183e d13a 4f3e 15c0 3d3f 62f9 d43d
00000050: 91f1 b7bf f179 c6bf 7da9 6b3e 4c3a 70bf
00000060: 99cd 8dbe 8b6f 143f 3bc1 423f 188e 2dbf
00000070: 156e f33e 52da 273f b2c8 19c0 df79 87bf
00000080: 0b40 95be 40b7 96bf 30a9 3c3f 58b8 c83e
00000090: 695c 1cc0 3561 65bf 7594 f4bf a169 eabe
000000a0: 142a 09c0 94c3 003e 63ba 5e3e d8bb 67bf
000000b0: bc1d 023e 9f34 f83d 1938 c6bf ea4d 1ac0
000000c0: c752 073e 053a e63e 6098 8fbf 0386 3cbf
000000d0: 621d f1bf 1a4d 00c0 4230 553e 1938 77bf
000000e0: 3e41 36bf dfbc fcbf a1af 0cc0 120c 1f3f
-0.62887955 0.69229466 -1.662219 -1.0677367 -0.37059194 -2.7759333 0.3219134 -0.6699309
-0.3278585 0.15421706 -0.39834657 -1.7572612 0.1453412 -1.0574526 1.2630249 -3.1539965
0.14848012 0.2023728 0.7412122 0.103991285 -1.4370595 -1.5505964 0.23013873 -0.93838954
-0.2769592 0.579827 0.76076096 -0.6779494 0.47544923 0.65567505 -2.4028745 -1.0584067
-0.29150423 -1.1774673 0.7369566 0.39203143 -2.4431403 -0.8960145 -1.9107805 -0.45783713
-2.1431932 0.12574607 0.21750788 -0.90521 0.12706655 0.12119412 -1.548587 -2.4110055
0.13215171 0.4496614 -1.1218376 -0.73641986 -1.8837092 -2.004706 0.2081919 -0.96569973
-0.711933 -1.9745139 -2.1982195 0.6212779
