pyperplan/src/checkpoints/discrim.pth (torch_old, 50427 bytes, 7 tensors)

gc1.weight f4 [81, 60]
-4.0666e-41 4.1473e-41 1.4551e-41 5.7413e-41 3.1836e-41 1.02104e-40 6.2732e-41 4.9013e-41
-3.888e-41 1.4969e-41 3.3662e-41 -1.10285e-40 -3.7237e-41 -2.7166e-41 3.6481e-41 5.1969e-41
5.6451e-41 2.5841e-40 4.4539e-41 -6.2293e-41 4.0879e-41 -1.1213e-41 -2.5016e-41 2.5094e-41
2.1521e-41 -3.7726e-41 1.14139e-40 -4.6213e-41 2.6396965e-36 1.696e-41 -2.601e-41 -5.1676e-41
-9.37e-41 1.78458e-40 -5.4299e-41 -1.9206e-41 -1.76851e-40 3.9574e-41 -7.826e-41 1.14769e-40
1.56405e-40 9.3391e-41 -6.6168e-41 -3.336e-41 4.6792e-41 8.8615e-41 -1.1596e-40 3.205e-42
-6.391e-41 -4.9854e-41 2.9366e-41 2.254e-41 1.1928e-41 1.4509e-41 -4.4303e-41 1.16738e-40
1.1455e-40 -7.383189e-10 3.3326e-41 -9.7219e-41 -0.28320277 -0.064289905 -0.2112928 -0.9168684
0.24727939 -0.11102132 0.18554191 -0.12040941 -0.46983364 0.13032192 0.075210415 0.16713192
0.43442157 -0.68398434 0.0935635 0.039377127 0.06453907 0.15229082 0.12542276 0.1157326
-0.66305554 -0.52990854 0.1555552 -0.2993146 -0.037025064 0.12366996 0.17265838 -0.62026066
0.1222313 -0.1254717 -0.6697278 -0.73508537 0.02703437 0.01987596 0.083462335 2.0996e-41
0.26671723 0.015529629 -0.5095896 -4.0179857e-32 -0.07099568 0.11036849 0.15791087 -0.42413297
0.11566847 0.2860341 -0.1225917 -0.4006062 -0.050162487 0.09531291 0.2823114 -0.507768
0.1916822 -0.3617008 0.059167325 -0.5727674 5.570617e-13 0.24171089 -0.39195487 0.10227197
-0.09046225 -0.11775211 0.041983973 -0.7346141 -0.7095803 -0.10810244 0.09688912 -0.26778358
0.35628834 0.2005036 -0.1708613 0.23111765 -0.72198313 0.35564515 0.09806038 -0.01148086
0.08112815 0.18038782 0.14438337 0.16980132 -0.019650811 -0.76511335 0.3052838 -0.43226576
-0.05787933 0.10775793 0.22204876 0.36113247 0.23173533 0.0048446152 0.10306226 -0.737126
-0.00627716 -0.6594993 0.24020131 -7.7571476e-18 0.21777801 0.051630773 0.2892352 -9.199272e-13
0.189943 0.16137908 0.1951109 0.06840533 0.13376436 0.23478407 -0.67256904 0.057240408
-0.00869967 0.15531063 -0.4707134 -0.5606064 -0.5650299 -0.7224515 0.11389768 -0.57353806
-3.768e-42 0.33996475 0.3672782 0.16799217 1.53573e-40 -5.7254e-41 -7.3837e-41 -2.9178e-41
2.862e-41 2.4947e-41 -6.1028e-41 -1.98827e-40 -8.2944e-41 1.94724e-40 -8.4099e-41 4.138e-42
2.14e-42 3.2422e-41 1.208e-41 8.717e-42 3.2423094e-17 -2.5080846e-24 -3.4555e-41 7.5702e-41
4.8541e-41 8.0058e-41 -3.9403e-41 3.5493e-41 -1.1271223e-05 1.9314e-41 6.4307e-41 -6.1852e-41
5.2327e-41 -5.3695e-41 4.8733e-41 -7.753e-41 -4.874e-41 8.5852e-41 -1.44998e-40 -4.7563e-41
1.7089e-40 -1.01621e-40 1.294e-40 -9.0377e-41 4.327e-42 -3.112e-42 1.34993e-40 -1.31971e-40
-3.2621e-41 -5.1639e-41 3.575e-42 3.1452e-41 2.726e-41 2.5777e-41 2.5883e-41 9.468e-41
-3.2423e-41 -1.163e-42 1.5651e-41 -5.5215e-41 1.3015278e-11 9.73e-43 -1.145e-42 3.6592e-41
1.5298e-41 -1.2018e-40 8.6149e-41 6.1328e-41 1.58406e-40 -5.8735e-41 -8.3388e-41 9.9785e-41
4.8091e-41 -2.6904e-41 4.3125e-41 4.8596e-41 -8.1393e-41 3.3855e-41 -6.1696e-41 2.0673e-41
00000000: 5c71 0080 9c73 0000 9028 0000 0ba0 0000
00000010: bf58 0000 a01c 0100 dfae 0000 a188 0000
00000020: 626c 0080 ba29 0000 d65d 0000 6e33 0180
00000030: cd67 0080 ba4b 0080 b265 0000 de90 0000
00000040: 5d9d 0000 58d0 0200 287c 0000 a6ad 0080
00000050: f471 0000 421f 0080 bc45 0080 f445 0000
00000060: fe3b 0000 2a69 0080 2c3e 0100 d380 0080
00000070: 808f 6004 472f 0000 8148 0080 0d90 0080
00000080: 3305 0180 78f1 0100 5d97 0080 8a35 0080
00000090: fdec 0180 516e 0000 28da 0080 ee3f 0100
000000a0: feb3 0100 5604 0100 73b8 0080 fe5c 0080
000000b0: 7082 0000 06f7 0000 4043 0180 ef08 0000
000000c0: 28b2 0080 f98a 0080 dc51 0000 d53e 0000
000000d0: 4021 0000 7228 0000 807b 0080 6b45 0100
000000e0: 523f 0100 93f2 4ab0 e65c 0000 020f 0180
000000f0: f4ff 90be 6daa 83bd 245d 58be e3b7 6abf
00000100: cf36 7d3e 255f e3bd b3fe 3d3e 3599 f6bd
00000110: 098e f0be 1c73 053e eb07 9a3d a124 2b3e
00000120: 816c de3e 9919 2fbf 389e bf3d e949 213d
00000130: 0f2d 843d 20f2 1b3e d36e 003e 3705 ed3d
00000140: 02be 29bf 16a8 07bf dd49 1f3e c33f 99be
00000150: 98a7 17bd ad46 fd3d 5ccd 303e 67c9 1ebf
00000160: 6754 fa3d a77b 00be 4873 2bbf 8e2e 3cbf
00000170: 2f77 dd3c e9d2 a23c 4dee aa3d 873a 0000
00000180: 298f 883e fc6f 7e3c 7774 02bf 31a0 508b
00000190: 2f66 91bd e008 e23d 63b3 213e f527 d9be
000001a0: 97e3 ec3d 1073 923e 5b11 fbbd 411c cdbe
000001b0: 2e77 4dbd 6a33 c33d 1f8b 903e 15fd 01bf
000001c0: 5748 443e d930 b9be 7059 723d e2a0 12bf
000001d0: 87cc 1c2b 0f83 773e 4fae c8be f773 d13d
000001e0: 4644 b9bd 0528 f1bd 63f7 2b3d ab0f 3cbf
000001f0: 0ea7 35bf d064 ddbd ce6d c63d ee1a 89be
00000200: 6d6b b63e d150 4d3e 44f6 2ebe 1baa 6c3e
00000210: e3d3 38bf 1f17 b63e e1d3 c83d 381a 3cbc
00000220: 8426 a63d 96b7 383e 3cd9 133e 66e0 2d3e
00000230: bdfa a0bc 78de 43bf 294e 9c3e f051 ddbe
00000240: e012 6dbd 31b0 dc3d c060 633e 5be6 b83e
00000250: 074c 6d3e 94bf 9e3b 4e12 d33d 4ab4 3cbf
00000260: a2b0 cdbb f2d4 28bf 55f7 753e 1818 0fa3
00000270: 3301 5f3e ca7a 533d a316 943e df77 81ab
00000280: 6b80 423e 8f40 253e 27cb 473e 1818 8c3d
00000290: 86f9 083e 3c6b 703e 7c2d 2cbf eb74 6a3d
000002a0: 1089 0ebc c009 1f3e 5901 f1be e783 0fbf
000002b0: cda5 10bf 95f2 38bf 3043 e93d 64d3 12bf
000002c0: 810a 0080 dc0f ae3e e30b bc3e 2406 2c3e
000002d0: 19ac 0100 9a9f 0080 d4cd 0080 5651 0080
000002e0: c84f 0000 8b45 0000 1faa 0080 402a 0280
000002f0: 37e7 0080 d01e 0200 6fea 0080 890b 0000
00000300: f705 0000 615a 0000 ad21 0000 4d18 0000
00000310: 6f86 1524 bc0d 4298 5360 0080 07d3 0000
00000320: 5087 0000 2bdf 0000 d76d 0080 f162 0000
00000330: 8919 3db7 d735 0000 43b3 0000 6bac 0080
00000340: de91 0000 ae95 0080 d987 0000 1fd8 0080
00000350: de87 0080 52ef 0000 3294 0180 9684 0080
00000360: 5fdc 0100 471b 0180 b768 0100 effb 0080
00000370: 100c 0000 ad08 0080 4e78 0100 e26f 0180
00000380: ef5a 0080 f38f 0080 f709 0000 ad57 0000
00000390: fd4b 0000 db47 0000 2748 0000 ee07 0100
000003a0: 625a 0080 3e03 0080 a12b 0000 eb99 0080
000003b0: 9af7 642d b602 0000 3103 0080 0166 0000
000003c0: a52a 0000 034f 0180 26f0 0000 f5aa 0000
000003d0: 92b9 0100 bba3 0080 74e8 0080 2916 0100
000003e0: 0f86 0000 ff4a 0080 3778 0000 7787 0000
000003f0: e4e2 0080 605e 0000 fcab 0080 a139 0000

gc1.bias f4 [60]
0.02581618 0.071416214 0.1020584 0.060719553 0.14919743 0.11907782 0.15978545 -0.00808915
-0.061304383 0.17754944 0.008324286 0.14488722 0.0064096474 0.06723494 0.019513054 -0.0016875869
0.08251958 0.19303015 0.10540422 0.03182707 0.18949814 0.006158762 0.11523711 -0.09577056
-0.014966366 0.056058027 0.10249229 0.15192792 0.13026518 0.04007948 0.04684327 0.08854465
-0.033076767 0.059725057 0.0800194 -3.6517196e-11 0.06903163 0.12689619 0.036577567 -2.4990518e-08
0.023486912 0.034851562 0.04184476 -0.0074603134 0.14142957 0.12243407 0.10743365 0.08402851
0.13516463 0.09014433 -0.012710262 0.12743782 -0.026934756 0.065566406 0.014870157 -0.026861098
-7.0055216e-06 0.07660641 0.06286884 0.08108382
00000000: 747c d33c aa42 923d ff03 d13d 11b5 783d
00000010: 36c7 183e 12df f33d cc9e 233e 5b88 04bc
00000020: 4e1a 7bbd 85cf 353e 9662 083c 515d 143e
00000030: 0508 d23b 79b2 893d d7d9 9f3c 0532 ddba
00000040: 0700 a93d b2a9 453e 2bde d73d 1a5d 023d
00000050: cd0b 423e 71cf c93b 6f01 ec3d 5b23 c4bd
00000060: 7d35 75bc 1a9d 653d 7ae7 d13d fe92 1b3e
00000070: 3c64 053e 612a 243d bbde 3f3d e656 b53d
00000080: 817b 07bd 43a2 743d 36e1 a33d b59a 20ae
00000090: 7560 8d3d 13f1 013e 5cd2 153d bbaa d6b2
000000a0: a067 c03c 83c0 0e3d 6965 2b3d a575 f4bb
000000b0: ead2 103e b7be fa3d 2c06 dc3d 2417 ac3d
000000c0: 9968 0a3e 979d b83d b43e 50bc 0f7f 023e
000000d0: 47a6 dcbc ae47 863d f6a1 733c ce0b dcbc
000000e0: f910 ebb6 d2e3 9c3d 61c1 803d 460f a63d

gc2.weight f4 [60, 60]
-0.019316606 -0.11568685 -0.035998054 0.10980748 0.023734957 -0.023052447 0.06728776 0.09952961
0.10046092 -0.09552023 0.0092689395 -0.1060126 -0.08901066 0.09913342 -0.102856 -0.06331256
0.06191227 0.1256103 -0.12540928 -0.08330532 -0.050624214 0.10000791 0.07523544 0.080483675
0.082721874 -0.032308824 0.09518972 -0.0036277473 0.0121293515 -0.034236178 0.05476539 0.057650954
-0.013684593 0.113651305 -0.03343498 0.032676324 0.11725582 0.072736695 -0.04701046 -0.058479607
0.024915606 -0.0009784251 0.009085879 0.083161235 0.04512666 -0.07240462 -0.10540523 0.12205289
-0.014212564 -0.050860494 -0.0948185 0.12397148 0.065144315 -0.08184073 -0.111498885 0.112151474
0.055582702 -0.018963404 -0.10729274 0.078247964 -0.08763541 0.06343983 -0.12261601 -0.1151063
-0.12384832 0.11703414 0.11731768 -0.11015844 0.09979831 -0.078470044 -0.11997893 0.062130466
0.0731816 0.073177144 0.022656605 0.123897746 -0.11121353 0.05956529 -0.040909663 0.0063759983
0.08903833 -0.09244873 0.056575537 -0.02578628 0.083504155 -0.0033901036 0.06405103 0.12386988
-0.04609496 -0.12716897 0.12177645 -0.071076885 0.029503003 0.08029188 -0.020048425 0.10089563
0.083663434 -0.025991365 0.0338483 0.009783626 0.12629656 0.08937931 -0.085985616 0.012438968
0.069630995 0.09869704 0.044078693 0.05485654 -0.023836099 0.0028001517 -0.08935031 0.106279954
0.10165797 -0.07108805 -0.110527724 0.10067016 -0.11442226 0.08279428 -0.125748 -0.066002496
-0.05466 0.12132831 -0.021845572 0.11135948 0.037508845 0.12506934 0.08550872 0.09507844
0.11255525 -0.038142584 -0.035495296 0.04159695 0.11372915 -0.047509633 -0.10155149 -0.10098949
-0.05964396 0.020599782 -0.014939457 -0.034428194 -0.060353726 0.03357932 -0.10634142 0.12701096
-0.019993417 0.024088398 0.042528287 -0.050231464 0.101884276 -0.00095683336 0.010590553 -0.12289764
0.015979841 0.044297382 0.017989695 -0.012794323 0.097482145 0.10206659 0.08888003 -0.02240672
0.022301242 -0.0901396 -0.09664929 -0.022563249 0.014430061 -0.075194545 -0.10775851 0.05872962
0.04720041 -0.08529638 0.08590752 -0.096497074 0.097658545 0.068583295 -0.04363136 0.12291007
-0.072486006 -0.058971487 0.102897376 -0.03326655 -0.05214178 0.019975886 -0.021814652 0.08133151
0.10540047 0.057425752 0.027920082 0.032431945 0.0033611655 0.015161037 0.0024514794 0.0880322
0.072194815 -0.012980096 0.04875134 0.007139921 0.045621544 0.10599078 -0.08783608 0.01834619
-0.026857987 -0.12620968 -0.12544899 -0.016904138 0.09239912 -0.08512631 0.042052478 0.074406505
-0.094098054 0.05544372 0.024365425 -0.11753369 -0.002482146 -0.12119963 0.11287199 0.060506538
0.049466297 0.09911296 0.09873067 0.12816359 0.05326411 -0.09320702 0.11991222 0.03586188
-0.050890982 -0.04804629 0.12080301 0.028678402 0.093835264 0.010068417 0.1192535 -0.094466165
0.030768692 0.030805498 -0.0014889389 0.11484355 0.025924698 0.006993428 0.088114545 -0.0101919025
-0.008341223 -0.106437236 -0.0008458197 -0.060260415 0.074746266 0.11230849 -0.12044079 -0.07477632
0.124293014 -0.05510252 0.114812836 0.12710671 -0.032376513 -0.104504935 0.06455217 0.058685094
00000000: dc3d 9ebc 3aed ecbd b272 13bd bee2 e03d
00000010: d06f c23c 7cd8 bcbc 2ace 893d 2ed6 cb3d
00000020: 74be cd3d 1ca0 c3bd c0dc 173c 221d d9bd
00000030: 394b b6bd 7606 cb3d 2ba6 d2bd 04aa 81bd
00000040: b897 7d3d fd9f 003e 4a6b 00be fb9b aabd
00000050: 565b 4fbd f2d0 cc3d 0a15 9a3d a0d4 a43d
00000060: 166a a93d 4256 04bd d4f2 c23d 80bf 6dbb
00000070: 30ba 463c 3c3b 0cbd ac51 603d 6823 6c3d
00000080: 5835 60bc 04c2 e83d 1ef3 08bd 9cd7 053d
00000090: d223 f03d faf6 943d 0a8e 40bd 5088 6fbd
000000a0: d01b cc3c 803e 80ba f0dc 143c 7050 aa3d
000000b0: bcd6 383d e048 94bd b2de d7bd def6 f93d
000000c0: d0db 68bc 1853 50bd 3430 c2bd c2e4 fd3d
000000d0: 626a 853d 1d9c a7bd 8759 e4bd acaf e53d
000000e0: b0aa 633d 2459 9bbc 4cbc dbbd 7840 a03d
000000f0: 327a b3bd beec 813d 1a1e fbbd dabc ebbd
00000100: 30a4 fdbd 98af ef3d 4044 f03d c09a e1bd
00000110: 0e63 cc3d e7b4 a0bd 83b7 f5bd 847c 7e3d
00000120: 3ce0 953d e6dd 953d 589a b93c 1abe fd3d
00000130: ebc3 e3bd bcfa 733d e490 27bd c0ed d03b
00000140: ba59 b63d c255 bdbd c0bb 673d c03d d3bc
00000150: 3a04 ab3d 802c 5ebb 302d 833d 7eaf fd3d
00000160: 12ce 3cbd 9538 02be ee65 f93d c290 91bd
00000170: 48b0 f13c 1270 a43d 983c a4bc 5ea2 ce3d
00000180: bc57 ab3d d8eb d4bc 84a4 0a3d 804b 203c
00000190: e353 013e 800c b73d 3a19 b0bd d0cc 4b3c
000001a0: b29a 8e3d ac21 ca3d dc8b 343d 40b1 603d
000001b0: ec43 c3bc c082 373b 4cfd b6bd 4ea9 d93d
000001c0: 0e32 d03d 9d96 91bd 5c5c e2bd 282c ce3d
000001d0: 3856 eabd 0c90 a93d 15c4 00be 512c 87bd
000001e0: 2ae3 5fbd fa7a f83d 7cf5 b2bc 7010 e43d
000001f0: e0a2 193d 2d12 003e 321f af3d 7cb8 c23d
00000200: 5e83 e63d 663b 1cbd 8463 11bd 9061 2a3d
00000210: d4ea e83d 7699 42bd 3afa cfbd 94d3 cebd
00000220: 3a4d 74bd e0c0 a83c a0c4 74bc 9404 0dbd
00000230: 7835 77bd 788a 093d 88c9 d9bd 290f 023e
00000240: 3cc9 a3bc 0855 c53c 2432 2e3d 82bf 4dbd
00000250: b4a8 d03d 00d4 7aba 0084 2d3c c2b1 fbbd
00000260: 28e8 823c 2c71 353d 205f 933c 489f 51bc
00000270: b8a4 c73d 4a08 d13d bc06 b63d 4c8e b7bc
00000280: 18b1 b63c 1c9b b8bd 10f0 c5bd 90d6 b8bc
00000290: 106c 6c3c 99ff 99bd 7eb0 dcbd 788e 703d
000002a0: 3855 413d deaf aebd 48f0 af3d 42a0 c5bd
000002b0: 3401 c83d 6675 8c3d ccb6 32bd 46b8 fb3d
000002c0: 8b73 94bd 168c 71bd dcbb d23d 8242 08bd
000002d0: 9e92 55bd 78a4 a33c a4b4 b2bc 2291 a63d
000002e0: 34dc d73d 4437 6b3d a8b8 e43c 5cd7 043d
000002f0: 0047 5c3b 0066 783c 00a9 203b 3a4a b43d
00000300: e0da 933d 78aa 54bc 7caf 473d 00f6 e93b
00000310: a8dd 3a3d b211 d93d 67e3 b3bd c04a 963c
00000320: 4805 dcbc 1c3d 01be b375 00be 8c7a 8abc
00000330: c03b bd3d b456 aebd 383f 2c3d 7062 983d
00000340: 7bb6 c0bd f418 633d 009a c73c 81b5 f0bd
00000350: 80ab 22bb 8337 f8bd 6e29 e73d b4d5 773d
00000360: 2c9d 4a3d bcfb ca3d 4e33 ca3d 513d 033e
00000370: 782b 5a3d 52e3 bebd 8a94 f53d e8e3 123d
00000380: 1073 50bd 30cc 44bd 9267 f73d f8ee ea3c
00000390: b42c c03d 00f6 243c 2e3b f43d 7a77 c1bd
000003a0: a00e fc3c d05b fc3c 8028 c3ba 1833 eb3d
000003b0: 0860 d43c 2029 e53b 6675 b43d f0fb 26bc
000003c0: a0a9 08bc c4fb d9bd 00ba 5dba a0d3 76bd
000003d0: 9214 993d fe01 e63d a9a9 f6bd 5424 99bd
000003e0: 568d fe3d 2eb3 61bd fe22 eb3d 4328 023e
000003f0: 3c9d 04bd af06 d6bd ee33 843d c85f 703d

gc2.bias f4 [60]
-0.005829707 0.06046188 -0.09862127 -0.03455662 -0.078655414 -0.116770245 -0.09237099 -0.08294869
0.09829877 0.07890913 -0.08764388 -0.10187952 0.1156133 0.030643672 0.059450224 0.020160943
-0.048237614 -0.06974694 0.069458365 -0.1275313 -0.10742627 0.03898558 -0.033855446 0.024694428
0.06885457 -0.07418929 -0.07267149 -0.079403885 -0.11295601 -0.008738741 0.109626904 -0.0078906715
0.07080178 -0.064203605 0.012809083 -0.09694031 -0.008533612 0.028330803 -0.055237196 0.11852789
0.036449596 0.06457341 0.1284831 0.05472587 -0.0101423785 0.06165774 0.12721954 -0.1242889
-0.0243401 0.06269121 -0.03129045 -0.10503241 -0.07494378 -0.067099825 0.053522736 0.08219226
-0.014691584 -0.1056356 0.018343017 0.03609307
00000000: 2007 bfbb e0a6 773d f3f9 c9bd 3e8b 0dbd
00000010: 1716 a1bd 3d25 efbd 002d bdbd 01e1 a9bd
00000020: de50 c93d 1c9b a13d a27e b3bd 36a6 d0bd
00000030: aac6 ec3d 7008 fb3c 1482 733d 9028 a53c
00000040: ce94 45bd 7cd7 8ebd 3040 8e3d 9197 02be
00000050: 4e02 dcbd 58af 1f3d 02ac 0abd f84b ca3c
00000060: a003 8d3d 8ef0 97bd cad4 94bd 819e a2bd
00000070: 7b55 e7bd f02c 0fbc 1284 e03d e047 01bc
00000080: 8600 913d 2e7d 83bd 30dd 513c a488 c6bd
00000090: 90d0 0bbc 0016 e83c 6640 62bd c0be f23d
000000a0: 2c4c 153d 103f 843d 1391 033e 3c28 603d
000000b0: 382c 26bc d48c 7c3d d745 023e 2e8b febd
000000c0: e464 c7bc 4064 803d 6a2a 00bd 3b1b d7bd
000000d0: 207c 99bd a26b 89bd a83a 5b3d 6a54 a83d
000000e0: f8b4 70bc 7a57 d8bd 1844 963c 54d6 133d

gc3.weight f4 [60, 60]
-0.048697174 0.044515625 -0.05273632 0.043460608 0.092369065 0.06438473 -0.012200385 0.12399925
-0.011352278 -0.11515015 0.092798024 0.12004423 0.058916032 0.11314081 0.06972733 0.052694768
0.0747488 -0.09917224 -0.0015404224 -0.05515077 0.035513625 -0.114167005 0.0076321214 0.050506994
-0.047971636 -0.05206967 -0.08372809 0.03554453 -0.10836619 -0.026498668 0.0071807355 0.03683354
-0.11083141 0.02605097 -0.05064845 -0.015030175 -0.094205156 -0.101398155 0.017611176 0.021922424
0.11095548 0.12147589 0.094325855 0.050023615 0.08586012 0.0551316 -0.120267496 0.09395383
0.01567386 -0.032194696 -0.038393684 0.102976665 0.090088576 -0.011992097 -0.04825952 -0.06940912
0.07442418 -0.078291476 -0.08558673 -0.07747398 0.03748472 0.09896384 0.025803298 0.0481212
-0.10426699 -0.09380016 -0.075612195 -0.08261062 -0.057627916 -0.07826795 -0.04224076 -0.07991746
0.038454846 0.003331691 0.006569743 0.05473551 -0.116233714 -0.05054257 -0.004385151 -0.12062844
0.068602294 -0.09693918 0.08726953 0.1277617 0.026605695 -0.062835895 0.091114625 -0.084635235
0.0061124116 0.08094193 0.12102957 0.009459734 -0.009798259 -0.011202738 -0.12516491 0.02294074
-0.102470644 0.011605263 -0.030676715 0.08209257 -0.05169168 0.0917557 -0.030763052 -0.024969019
-0.11752638 0.112197846 0.011166424 -0.116352305 0.0072603375 0.052875146 -0.027281411 0.105351806
0.06314069 -0.0165478 0.12906824 0.09104787 -0.015835375 -0.011151642 0.039620697 -0.044986002
0.07947406 -0.124206364 -0.069164336 0.05917713 -0.12390596 -0.04277453 -0.06864491 0.06993687
0.0064910203 -0.0916924 0.10403286 -0.058872975 -0.014242955 0.04356119 -0.08608286 -0.011907317
-0.043491356 -0.030621238 -0.046829782 0.0826357 -0.06344019 -0.08712571 0.055767253 0.04182796
0.0013480484 0.010638267 0.12671141 -0.04318919 -0.11521052 -0.12715721 0.0334692 0.05031708
0.0018243492 -0.10728959 -0.10084472 -0.087966025 0.08311182 0.025299475 -0.07190407 -0.1220904
0.074168175 0.0013872385 0.12832646 -0.10577529 -0.104711995 0.022273839 0.08652763 0.08527759
0.12835206 0.082189634 0.0576652 -0.07937812 0.12722223 -0.057134904 0.08301936 0.05311039
-0.0765215 -0.011533067 -0.010749705 0.097481325 0.098787904 0.027680099 -0.07336632 0.036768317
0.105773196 -0.0684105 0.10346432 0.029173285 0.07141259 0.044283494 0.0815036 -0.10983656
0.053318515 -0.11195361 -0.008809522 0.10095851 -0.10587016 -0.098198496 -0.056581885 0.0048573017
-0.017848656 -0.10133533 0.01682134 -0.03243073 -0.060295165 0.0014091432 0.043842122 0.020711675
-0.08558072 0.08751407 0.024357542 -0.052861206 0.11174743 0.026024118 0.06713362 0.09128204
-0.0023006797 0.10639572 -0.0005759448 0.10328086 0.015659124 0.059404045 0.06501238 -0.071549565
0.11281882 0.0039147288 0.04744889 -0.09525226 -0.048189044 0.08415623 -0.08147539 0.017885774
0.11336255 -0.12262204 -0.0014259517 0.020978421 0.08461335 -0.04337658 -0.126171 -0.079902716
0.038746253 -0.09507048 -0.11051252 -0.0032572597 0.03387332 -0.08095366 -0.050143063 0.07061787
-0.08728789 -0.10619099 -0.03901811 0.1037292 -0.037850067 -0.0875114 -0.09158534 -0.030340984
00000000: b076 47bd 0456 363d 0a02 58bd c003 323d
00000010: fe2b bd3d 24dc 833d 20e4 47bc 52f3 fd3d
00000020: e8fe 39bc d8d3 ebbd e40c be3d c0d9 f53d
00000030: f051 713d 5eb6 e73d 34cd 8e3d 78d6 573d
00000040: e615 993d d11a cbbd 00e8 c9ba c6e5 61bd
00000050: bc76 113d 64d0 e9bd e016 fa3b 6ce0 4e3d
00000060: e87d 44bd 0247 55bd a279 abbd 2497 113d
00000070: 18ef ddbd bc13 d9bc 604c eb3b c4de 163d
00000080: 94fb e2bd d868 d53c c074 4fbd 2041 76bc
00000090: a2ee c0bd d6a9 cfbd 5045 903c a896 b33c
000000a0: a03c e33d 5ac8 f83d ea2d c13d 90e5 4c3d
000000b0: 6ed7 af3d acd1 613d ce4e f6bd de6a c03d
000000c0: 7866 803c 96de 03bd b242 1dbd 6ee5 d23d
000000d0: 5c80 b83d 807a 44bc c6ab 45bd 5e26 8ebd
000000e0: b46b 983d 4857 a0bd 1848 afbd aeaa 9ebd
000000f0: 9489 193d 8ead ca3d 7061 d33c bc1a 453d
00000100: ef89 d5bd 4c1a c0bd 91da 9abd c22f a9bd
00000110: 400b 6cbd f24a a0bd a604 2dbd c4ab a3bd
00000120: d482 1d3d 8058 5a3b 0047 d73b 5832 603d
00000130: f10b eebd ba05 4fbd 50b1 8fbb 0b0c f7bd
00000140: 5c7f 8c3d 0c88 c6bd 5eba b23d f7d3 023e
00000150: 30f4 d93c 1bb0 80bd 4e9a ba3d 3d55 adbd
00000160: a04a c83b e2c4 a53d 5ade f73d 00fd 1a3c
00000170: e088 20bc b08b 37bc 3b2b 00be 38ee bb3c
00000180: 21dc d1bd 0024 3e3c bc4d fbbc 2620 a83d
00000190: a8ba 53bd 6aea bb3d cc02 fcbc d48b ccbc
000001a0: acb1 f0bd fcc7 e53d 60f3 363c 1e4a eebd
000001b0: 20e8 ed3b 9c93 583d 447d dfbc b0c2 d73d
000001c0: e84f 813d 408f 87bc 772a 043e 4e77 ba3d
000001d0: 30b9 81bc 60b5 36bc 5049 223d 3e43 38bd
000001e0: 4cc3 a23d e85f febd 08a6 8dbd b863 723d
000001f0: 68c2 fdbd 5834 2fbd b495 8cbd 103b 8f3d
00000200: a0b2 d43b 3ac9 bbbd 2e0f d53d ca24 71bd
00000210: 485b 69bc 386d 323d 364c b0bd e816 43bc
00000220: fe23 32bd 64d9 fabc 96d0 3fbd e83c a93d
00000230: eeec 81bd f76e b2bd 346c 643d cc53 2b3d
00000240: 00b1 b03a 204c 2e3c a3c0 013e 26e7 30bd
00000250: 7ef3 ebbd 8035 02be 0017 093d 4819 4e3d
00000260: 001f ef3a a5ba dbbd ad87 cebd 8827 b4bd
00000270: 8836 aa3d d840 cf3c 7142 93bd 880a fabd
00000280: 7ce5 973d 00d4 b53a 0368 033e b7a0 d8bd
00000290: 3e73 d6bd a077 b63c 6635 b13d 04a6 ae3d
000002a0: b96e 033e 0a53 a83d 5832 6c3d ff90 a2bd
000002b0: 8b46 023e 4a06 6abd 0e06 aa3d 488a 593d
000002c0: 4eb7 9cbd 30f5 3cbc 881f 30bc 4aa4 c73d
000002d0: 5051 ca3d 60c1 e23c 1541 96bd 609a 163d
000002e0: 9e9f d83d ce1a 8cbd 1ae5 d33d d0fc ee3c
000002f0: c440 923d 9c62 353d 5ceb a63d fef1 e0bd
00000300: 8464 5a3d ef47 e5bd d055 10bc 56c3 ce3d
00000310: 74d2 d8bd 4b1c c9bd 68c2 67bd 002a 9f3b
00000320: 5837 92bc e688 cfbd e8cc 893c 16d6 04bd
00000330: 10f8 76bd 00b3 b83a cc93 333d 88ab a93c
00000340: f244 afbd 943a b33d 7889 c73c fe84 58bd
00000350: d6db e43d 8830 d53c 5a7d 893d 14f2 ba3d
00000360: 00c7 16bb 00e6 d93d 00fb 16ba ea84 d33d
00000370: 9047 803c a851 733d 3625 853d 9488 92bd
00000380: 8e0d e73d 2047 803b c459 423d 9e13 c3bd
00000390: e061 45bd 1a5a ac3d 92dc a6bd 3085 923c
000003a0: a02a e83d 4421 fbbd 00e7 baba f0da ab3c
000003b0: c449 ad3d a4ab 31bd f832 01be 09a4 a3bd
000003c0: 64b4 1e3d 50b4 c2bd 6354 e2bd c077 55bb
000003d0: c0be 0a3d 08cb a5bd d062 4dbd 1aa0 903d
000003e0: fec3 b2bd a97a d9bd 74d1 1fbd fa6f d43d
000003f0: ac08 1bbd 2d39 b3bd 1891 bbbd a88d f8bc

gc3.bias f4 [60]
-0.06536523 -0.063132085 0.031359926 -0.06738481 0.055676788 -0.121668145 -0.047328845 0.12873851
-0.0065370426 0.07014097 0.11640099 -0.03689357 -0.030092977 -0.018529199 -0.06431295 -0.0038906783
0.061522186 0.111425385 0.08931023 0.12714048 -0.0651991 -0.08899623 -0.12729315 0.07601501
0.05723682 -0.03089898 0.1067366 -0.09291981 -0.020887218 -0.003376916 0.05191502 0.10766515
-0.07340284 0.12877496 0.12296514 0.034346104 -0.08496603 0.04256597 0.02690263 -0.046809807
0.12428485 -0.10369815 -0.045858927 -0.04842519 -0.035832025 0.09568381 -0.0064245686 0.01796323
-0.11513849 -0.08732122 0.08109334 -0.039458968 0.04618229 -0.09950017 -0.07330693 0.06211996
0.09091321 0.008024231 -0.11690414 -0.081221655
00000000: 35de 85bd 654b 81bd 4473 003d 0c01 8abd
00000010: 580d 643d 262d f9bd e4db 41bd 07d4 033e
00000020: b034 d6bb 12a6 8f3d a463 ee3d b61d 17bd
00000030: 8c85 f6bc 8cca 97bc 82b6 83bd c0fa 7ebb
00000040: b0fe 7b3d fe32 e43d 48e8 b63d 1d31 023e
00000050: 1b87 85bd a843 b6bd 2359 02be c2ad 9b3d
00000060: 2871 6a3d dc1f fdbc b898 da3d be4c bebd
00000070: ac1b abbc 404f 5dbb d8a4 543d 8c7f dc3d
00000080: 3a54 96bd 95dd 033e 26d5 fb3d 80ae 0c3d
00000090: ac02 aebd a859 2e3d e862 dc3c a4bb 3fbd
000000a0: 0e89 fe3d b25f d4bd 92d6 3bbd 7e59 46bd
000000b0: 9ac4 12bd e0f5 c33d 3085 d2bb a027 933c
000000c0: bbcd ebbd 78d5 b2bd 4414 a63d ba9f 21bd
000000d0: a429 3d3d bfc6 cbbd f221 96bd 8071 7e3d
000000e0: b430 ba3d 1078 033c 706b efbd 8a57 a6bd

gc4.weight f4 [60, 1]
-0.62167203 0.89965844 -0.9362873 -1.8645458 -1.8099827 -1.1200382 0.73240894 -0.43493983
-0.72062904 0.15487987 -0.2913061 -0.7518888 -1.0698502 -1.2463543 0.58716553 -0.0050707487
0.4094513 0.23868173 0.7488201 0.47160622 -1.1813171 -1.0742692 0.3240605 -0.61839885
-0.045432393 0.73658967 0.66906434 -1.273647 0.35442647 1.2081492 -1.3355579 -1.2209537
-4.8185416e-06 -1.6985874 0.7840802 -1.1425086e-34 -1.0352814 -0.30447298 -1.3848288 4.022e-42
-0.2923105 0.393878 0.2884143 -0.873742 0.49091473 0.4284486 -1.0938315 -0.8039809
0.5839416 0.4243017 -1.8162873 -0.83597434 -1.9715666 -1.6923637 0.4297699 -0.86050487
-0.0028117741 -0.6912868 -1.4172565 0.57191235
00000000: e625 1fbf 0450 663f 86b0 6fbf 70a9 eebf
00000010: 83ad e7bf 695d 8fbf 277f 3b3f 6fb0 debe
00000020: 257b 38bf d498 1e3e 1326 95be c97b 40bf
00000030: daf0 88bf 8a88 9fbf 7b50 163f 8628 a6bb
00000040: 9aa3 d13e fc68 743e adb2 3f3f 5f76 f13e
00000050: 6635 97bf a781 89bf 42eb a53e 634f 1ebf
00000060: 5117 3abd 2491 3c3f cd47 2b3f dd06 a3bf
00000070: 6377 b53e a2a4 9a3f 90f3 aabf 3648 9cbf
00000080: f5ae a1b6 506b d9bf 7bb9 483f 8edd 1787
00000090: 1a84 84bf e2e3 9bbe 1242 b1bf 360b 0000
000000a0: b9a9 95be 61aa c93e 0aab 933e 8ead 5fbf
000000b0: 2d59 fb3e 9d5d db3e ac02 8cbf b1d1 4dbf
000000c0: 327d 153f 133e d93e 1a7c e8bf 6a02 56bf
000000d0: 4b5c fcbf 609f d8bf cd0a dc3e 0c4a 5cbf
000000e0: be45 38bb 2cf8 30bf a968 b5bf d968 123f
