pyperplan/src/checkpoints/standard_100data.pth (torch_old, 50427 bytes, 7 tensors)

gc1.weight f4 [81, 60]
000000 00 8d 14 a9 0c 91 9c b3 5e 9d 33 b3 08 21 58 9e
       -3.29849e-14 -7.2907e-08 -4.181981e-08 -1.14417755e-20
000010 b7 7b da 34 ad 71 7d 24 d5 5a 8e 36 ad 4e 49 28
       4.069568e-07 5.4956917e-17 4.242504e-06 1.11748015e-14
000020 26 cd 12 9f a7 95 56 2c 20 25 89 9f 61 cc f1 34
       -3.1086397e-20 3.0494303e-12 -5.8083175e-20 4.5038453e-07
000030 9b 98 a9 25 9c a1 44 2e bf 56 0c 27 3b 38 19 a5
       2.9420236e-16 4.470878e-11 1.9475928e-15 -1.3289686e-16
000040 5d 1a eb a9 38 4b 20 a7 84 a8 b4 ae 88 60 d6 22
       -1.044067e-13 -2.2245237e-15 -8.215387e-11 5.8107023e-18
000050 5b e9 0d a6 f9 cc 9f b0 b3 e3 52 b6 10 0e 96 a6
       -4.923546e-16 -1.1627029e-09 -3.1424977e-06 -1.0412153e-15
000060 e2 2f a6 b0 72 48 70 aa b6 25 38 ac f8 b0 13 34
       -1.2091699e-09 -2.1341417e-13 -2.6168906e-12 1.3754823e-07
000070 eb 2a 08 ac 6c cb 7d 25 6f 29 11 a5 09 09 81 34
       -1.9350587e-12 2.2013174e-16 -1.2590783e-16 2.4034696e-07
000080 63 0b d0 a9 fe 85 15 2d 51 53 9a 30 4d d7 22 2c
       -9.239031e-14 8.499422e-12 1.1228655e-09 2.31411e-12
000090 db 88 04 2d 6e f6 ce af ba 69 87 b6 21 3d 1d 27
       7.533719e-12 -3.764628e-10 -4.0356217e-06 2.1821265e-15
0000a0 16 dd 20 a8 e4 69 95 27 de a7 6b 2a 58 53 a6 21
       -8.9297246e-15 4.1470615e-15 2.0930433e-13 1.1270658e-18
0000b0 a7 55 1f a8 44 80 70 a6 a0 3c c6 29 1a 85 7b ab
       -8.844846e-15 -8.344056e-16 8.803483e-14 -8.935783e-13
0000c0 65 71 8b 35 2d 6b 55 92 f6 30 e8 b5 bb 96 8d a5
       1.0389309e-06 -6.7343053e-28 -1.7299596e-06 -2.456174e-16
0000d0 f5 23 6c a3 de 78 08 b2 3a 25 00 2e ab 4e 01 26
       -1.28012e-17 -7.943724e-09 2.9136894e-11 4.486248e-16
0000e0 98 28 93 29 b2 6a db a7 63 71 57 13 eb 99 66 a2
       6.535153e-14 -6.090039e-15 2.719272e-27 -3.1252296e-18
0000f0 38 84 86 3e 9b ad 7a bd e7 68 52 be c4 3c 4d bf
       0.2627275 -0.06120072 -0.2054783 -0.80170846
000100 ea 7e 88 3e 2b 74 c5 be 58 37 58 3e 4b 70 f0 bd
       0.26659328 -0.38565192 0.21114862 -0.11740168
000110 10 8c d7 be 95 0a 7b 3e d0 3b 38 bf 0e 6e 59 3e
       -0.42099047 0.24515755 -0.71966267 0.21233389
000120 9d e3 e9 3e 66 3e 21 bf 5f ac 80 bd ec 5d 2e bf
       0.45681468 -0.6298584 -0.06282877 -0.68112063
000130 05 90 60 3e 88 78 82 3e 91 9f 91 3e fb b6 50 3e
       0.21929939 0.25482583 0.28442052 0.20382302
000140 c5 04 35 bf 07 89 09 bf 6b 82 56 3e 05 84 0f bf
       -0.707104 -0.5372471 0.20948188 -0.5606082
000150 35 20 00 80 5c 9a d1 ba f3 c1 76 3e ef 2b fb be
       -1.1554e-41 -0.0015991437 0.24097423 -0.49056956
000160 24 9e 26 3e 87 44 ee 3d 38 59 33 bf d7 41 d3 be
       0.16271263 0.11634164 -0.7005801 -0.4126117
000170 4f 23 00 00 11 31 17 3e d7 39 85 3d 5f 15 02 aa
       1.2666e-41 0.14764811 0.06505173 -1.1553734e-13
000180 2b 14 9d 3e 1f 46 83 be a4 2c 17 bf 30 e8 63 ac
       0.3067945 -0.25639436 -0.5905249 -3.238753e-12
000190 73 51 2f 3e 04 aa 79 3e 9d 8a 34 3e 4f bf d8 be
       0.17120914 0.24381262 0.17631002 -0.42333457
0001a0 64 1c 45 3e f5 a4 64 ae d9 87 0b 3c 65 16 f8 be
       0.19249111 -5.198771e-11 0.008516275 -0.48454586
0001b0 ba 9e 41 a9 82 b0 98 3d 7c fa 9d 3e ca 11 a7 bd
       -4.2992282e-14 0.07455541 0.30855167 -0.0815769
0001c0 25 85 ba 3d 90 df f0 be 8f 72 e3 3d da da 2c bf
       0.091074266 -0.47045565 0.11105835 -0.6752144
0001d0 bc 1d 00 00 b4 2b 00 00 4e 00 12 bf cc 74 5a 3e
       1.0667e-41 1.5678e-41 -0.57031715 0.21333617
0001e0 c0 ee 32 3e 82 5d c5 bd 6a 39 85 3e b1 33 11 bf
       0.17473888 -0.09636976 0.26020366 -0.567195
0001f0 72 27 1f bf 4f 3a 4a 3d 9a 4e 4d 3e 39 b9 11 bf
       -0.62169564 0.049372014 0.20049515 -0.5692325
000200 59 21 82 3e 1a 87 85 3e bd 25 d8 be 4b ed a8 3e
       0.25416067 0.26079637 -0.42216292 0.3299354
000210 80 4e 1a bf fa 07 cd 3e 3c 73 96 3e a6 68 69 bf
       -0.6027603 0.40045148 0.29384792 -0.91175306
000220 75 f0 d0 3d 61 95 81 3e 15 88 55 3e 73 54 48 3e
       0.102021135 0.2530928 0.20852692 0.19563465
000230 6e 58 06 bd 9a 08 cc be 7a 34 83 3e 9c db 54 bf
       -0.032799177 -0.39850312 0.25625974 -0.831476
000240 f8 24 00 00 83 46 d3 3c 7d ef 53 3e 4a 7b 27 3d
       1.3262e-41 0.025790459 0.20696826 0.040889062
000250 4b 2a 86 3e 65 32 15 3e d5 8f 5f 3e 84 da 1d bf
       0.26204142 0.14570005 0.21832211 -0.61661553
000260 38 6e 18 10 0a ba 1d bf 08 e2 6d 3e 39 29 00 00
       3.0061624e-29 -0.61612 0.23230755 1.4788e-41
000270 c6 60 49 3e 38 1e ff bc 3e 4a 77 3e a2 aa 89 23
       0.19665822 -0.03114234 0.24149415 1.4925836e-17
000280 e9 bb c7 3e 43 0d 2c 3e 8e f0 6a 3e f2 9e 36 bf
       0.39010552 0.16801934 0.22943327 -0.7133628
000290 45 86 35 3e 5c df 02 81 b2 0c 5c bf 9d bf a0 3d
       0.17727001 -2.4037481e-38 -0.8595687 0.07849047
0002a0 d0 7c a0 aa 52 fe 8e 3d 55 2b e1 be 9c 60 47 bf
       -2.8508315e-13 0.069821015 -0.43978372 -0.7788179
0002b0 10 e9 21 bf 91 52 3a bf f4 b7 1c 3e fd 0c ec be
       -0.6324625 -0.72782236 0.15304548 -0.4610366
0002c0 c7 30 00 80 28 8b bd 9e a0 c1 80 3e 9a de 23 3e
       -1.7498e-41 -2.0068707e-20 0.25147724 0.16002885
0002d0 96 5a d0 b3 4a c3 3a 27 67 32 8c 31 c2 0c 7f a9
       -9.702232e-08 2.5918552e-15 4.0802663e-09 -5.663244e-14
0002e0 2f a4 0b aa 1f a2 a4 a9 fa e9 3b 2d 0f df 7e 38
       -1.2402643e-13 -7.3111866e-14 1.06816726e-11 6.076606e-05
0002f0 ca c9 34 a5 d7 bc bd 28 5b e6 47 ac c8 84 99 b2
       -1.568088e-16 2.1065111e-14 -2.8407474e-12 -1.7871926e-08
000300 ab b9 76 b6 35 82 3d 35 32 64 c5 24 37 79 8e a6
       -3.676493e-06 7.059746e-07 8.560487e-17 -9.886085e-16
000310 c0 eb 0f b1 b0 b6 46 31 2e 09 00 2e 1a 44 66 ad
       -2.0943247e-09 2.8916638e-09 2.9111984e-11 -1.3089108e-11
000320 e7 3e 9c 20 d3 3c b6 32 b9 fb 51 b8 8a 8e 0d 37
       2.6469053e-19 2.1215248e-08 -5.0063918e-05 8.437442e-06
000330 6d 3e 26 ac 61 36 c5 2a 96 62 9c ad 2c 4b ba a8
       -2.3624672e-12 3.5031963e-13 -1.7778928e-11 -2.0682749e-14
000340 77 29 c6 b7 39 25 8f 18 e4 f6 a3 a4 eb 59 cd 2d
       -2.3622748e-05 3.700222e-24 -7.110823e-17 2.3345733e-11
000350 aa b0 23 33 d6 52 e2 ab 7c b4 aa 2d 87 db 27 a3
       3.811207e-08 -1.6081257e-12 1.9406914e-11 -9.099575e-18
000360 e2 43 66 af 12 22 f9 a5 2b fb ae 2d 4c 0b 7e aa
       -2.0942495e-10 -4.3217701e-16 1.989305e-11 -2.2563651e-13
000370 e5 cb 77 25 51 22 bc a6 27 a6 52 35 04 a9 cd 23
       2.1492917e-16 -1.3054422e-15 7.847288e-07 2.2297725e-17
000380 49 92 59 ad 5b 7b b2 2f 05 60 e5 a9 41 a6 1d 27
       -1.2367504e-11 3.246566e-10 -1.01862996e-13 2.1878253e-15
000390 35 d5 d5 22 4e 0f 57 00 bd f7 d9 30 b5 7e 48 24
       5.7959507e-18 7.995178e-39 1.585924e-09 4.3475412e-17
0003a0 65 69 de 35 5d 76 5b 2e be b1 74 ae 19 f1 6b 2f
       1.6570963e-06 4.9899963e-11 -5.5637044e-11 2.145878e-10
0003b0 35 9d 29 2b 55 f0 96 a3 9b 21 81 b4 0f b1 51 21
       6.025903e-13 -1.6364817e-17 -2.4052574e-07 7.104629e-19
0003c0 b9 95 5f 1c 04 19 55 b6 2e fb 28 a6 be d5 16 2a
       7.3978023e-22 -3.1754034e-06 -5.862712e-16 1.3396833e-13
0003d0 f0 3d 25 37 4f 08 5e a3 97 2e a0 35 86 6b c1 9f
       9.849187e-06 -1.20364035e-17 1.1934488e-06 -8.191656e-20
0003e0 5c e1 91 a3 dc 2b ef 36 1b 59 51 27 a8 a9 17 ad
       -1.5816375e-17 7.127861e-06 2.905288e-15 -8.6210275e-12
0003f0 e1 19 74 a5 6e 11 90 9f dd 69 c7 26 dc ce eb a1
       -2.1172395e-16 -6.101521e-20 1.3837093e-15 -1.5978975e-18

gc1.bias f4 [60]
000000 89 9f 29 3d 5f 85 2b 3e 67 a2 cb 3d ad 89 e2 3a
       0.04141191 0.16750096 0.09943085 0.0017283462
000010 fc d9 0c 3e 65 14 c6 3d 73 6a 47 3e 6a 25 d3 3d
       0.1375503 0.09671859 0.19474201 0.103098705
000020 50 b6 65 bd 0b 0b 61 3e 72 63 0d 3b d6 f9 0f 3e
       -0.05608207 0.21976869 0.0021574167 0.14060149
000030 0a 85 6e 3d 63 ca 94 3d 42 56 83 3d 27 22 0c 3d
       0.058232345 0.07265165 0.06412937 0.034212258
000040 05 1c 04 3e 4c 16 59 3e d9 31 dd 3d 52 a9 d4 3d
       0.12901314 0.21199912 0.10800523 0.10383858
000050 ae 4b f6 3d 36 9a f6 bc 65 be 0f 3e a0 a9 b3 bc
       0.120261535 -0.03010283 0.14037473 -0.02193147
000060 7f b0 9c ac 38 90 6e 3d 0c 6b e0 3d 61 a6 0f 3e
       -4.4533817e-12 0.058243006 0.109579176 0.14028312
000070 91 c7 41 3e e4 b0 ab 3d 07 44 90 3c d8 54 e4 3d
       0.18923785 0.083833486 0.017610563 0.11148995
000080 37 c9 29 a8 7c 38 50 3d 35 cb 33 3e 35 c1 17 af
       -9.425016e-15 0.050835118 0.17557986 -1.3802011e-10
000090 a6 0d 9d 3d 06 74 3b 3e c1 e5 8e 3c aa 31 1a b0
       0.07668619 0.18305978 0.01744354 -5.609545e-10
0000a0 50 83 6c 3d 30 28 18 3e de e6 cb 3d b4 e9 d9 bc
       0.057742417 0.1485908 0.09956144 -0.026600696
0000b0 37 b9 08 3e 5a 72 3c b8 14 43 20 3e e1 9d e1 3d
       0.13351904 -4.492919e-05 0.15650588 0.11016441
0000c0 55 9d 7b b0 f0 73 cd 3d 72 71 16 3d e0 8e 40 3e
       -9.153685e-10 0.10031879 0.036729284 0.18804502
0000d0 9e 10 9b 3d d1 48 10 3d f0 c6 af 3d df 98 d5 bd
       0.07571529 0.035225693 0.08582866 -0.104295485
0000e0 30 72 80 ba 12 86 e8 ae 12 9e be 3d 6c ed d6 3d
       -0.0009799656 -1.0573954e-10 0.09307493 0.104945034

gc2.weight f4 [60, 60]
000000 dc 3d 9e bc 3a ed ec bd b2 72 13 bd be e2 e0 3d
       -0.019316606 -0.11568685 -0.035998054 0.10980748
000010 d0 6f c2 3c 7c d8 bc bc 2a ce 89 3d 2e d6 cb 3d
       0.023734957 -0.023052447 0.06728776 0.09952961
000020 74 be cd 3d 1c a0 c3 bd c0 dc 17 3c 22 1d d9 bd
       0.10046092 -0.09552023 0.0092689395 -0.1060126
000030 39 4b b6 bd 76 06 cb 3d 2b a6 d2 bd 04 aa 81 bd
       -0.08901066 0.09913342 -0.102856 -0.06331256
000040 b8 97 7d 3d fd 9f 00 3e 4a 6b 00 be fb 9b aa bd
       0.06191227 0.1256103 -0.12540928 -0.08330532
000050 56 5b 4f bd f2 d0 cc 3d 0a 15 9a 3d a0 d4 a4 3d
       -0.050624214 0.10000791 0.07523544 0.080483675
000060 16 6a a9 3d 42 56 04 bd d4 f2 c2 3d 80 bf 6d bb
       0.082721874 -0.032308824 0.09518972 -0.0036277473
000070 30 ba 46 3c 3c 3b 0c bd ac 51 60 3d 68 23 6c 3d
       0.0121293515 -0.034236178 0.05476539 0.057650954
000080 58 35 60 bc 04 c2 e8 3d 1e f3 08 bd 9c d7 05 3d
       -0.013684593 0.113651305 -0.03343498 0.032676324
000090 d2 23 f0 3d fa f6 94 3d 0a 8e 40 bd 50 88 6f bd
       0.11725582 0.072736695 -0.04701046 -0.058479607
0000a0 d0 1b cc 3c 80 3e 80 ba f0 dc 14 3c 70 50 aa 3d
       0.024915606 -0.0009784251 0.009085879 0.083161235
0000b0 bc d6 38 3d e0 48 94 bd b2 de d7 bd de f6 f9 3d
       0.04512666 -0.07240462 -0.10540523 0.12205289
0000c0 d0 db 68 bc 18 53 50 bd 34 30 c2 bd c2 e4 fd 3d
       -0.014212564 -0.050860494 -0.0948185 0.12397148
0000d0 62 6a 85 3d 1d 9c a7 bd 87 59 e4 bd ac af e5 3d
       0.065144315 -0.08184073 -0.111498885 0.112151474
0000e0 b0 aa 63 3d 24 59 9b bc 4c bc db bd 78 40 a0 3d
       0.055582702 -0.018963404 -0.10729274 0.078247964
0000f0 32 7a b3 bd be ec 81 3d 1a 1e fb bd da bc eb bd
       -0.08763541 0.06343983 -0.12261601 -0.1151063
000100 30 a4 fd bd 98 af ef 3d 40 44 f0 3d c0 9a e1 bd
       -0.12384832 0.11703414 0.11731768 -0.11015844
000110 0e 63 cc 3d e7 b4 a0 bd 83 b7 f5 bd 84 7c 7e 3d
       0.09979831 -0.078470044 -0.11997893 0.062130466
000120 3c e0 95 3d e6 dd 95 3d 58 9a b9 3c 1a be fd 3d
       0.0731816 0.073177144 0.022656605 0.123897746
000130 eb c3 e3 bd bc fa 73 3d e4 90 27 bd c0 ed d0 3b
       -0.11121353 0.05956529 -0.040909663 0.0063759983
000140 ba 59 b6 3d c2 55 bd bd c0 bb 67 3d c0 3d d3 bc
       0.08903833 -0.09244873 0.056575537 -0.02578628
000150 3a 04 ab 3d 80 2c 5e bb 30 2d 83 3d 7e af fd 3d
       0.083504155 -0.0033901036 0.06405103 0.12386988
000160 12 ce 3c bd 95 38 02 be ee 65 f9 3d c2 90 91 bd
       -0.04609496 -0.12716897 0.12177645 -0.071076885
000170 48 b0 f1 3c 12 70 a4 3d 98 3c a4 bc 5e a2 ce 3d
       0.029503003 0.08029188 -0.020048425 0.10089563
000180 bc 57 ab 3d d8 eb d4 bc 84 a4 0a 3d 80 4b 20 3c
       0.083663434 -0.025991365 0.0338483 0.009783626
000190 e3 53 01 3e 80 0c b7 3d 3a 19 b0 bd d0 cc 4b 3c
       0.12629656 0.08937931 -0.085985616 0.012438968
0001a0 b2 9a 8e 3d ac 21 ca 3d dc 8b 34 3d 40 b1 60 3d
       0.069630995 0.09869704 0.044078693 0.05485654
0001b0 ec 43 c3 bc c0 82 37 3b 4c fd b6 bd 4e a9 d9 3d
       -0.023836099 0.0028001517 -0.08935031 0.106279954
0001c0 0e 32 d0 3d 9d 96 91 bd 5c 5c e2 bd 28 2c ce 3d
       0.10165797 -0.07108805 -0.110527724 0.10067016
0001d0 38 56 ea bd 0c 90 a9 3d 15 c4 00 be 51 2c 87 bd
       -0.11442226 0.08279428 -0.125748 -0.066002496
0001e0 2a e3 5f bd fa 7a f8 3d 7c f5 b2 bc 70 10 e4 3d
       -0.05466 0.12132831 -0.021845572 0.11135948
0001f0 e0 a2 19 3d 2d 12 00 3e 32 1f af 3d 7c b8 c2 3d
       0.037508845 0.12506934 0.08550872 0.09507844
000200 5e 83 e6 3d 66 3b 1c bd 84 63 11 bd 90 61 2a 3d
       0.11255525 -0.038142584 -0.035495296 0.04159695
000210 d4 ea e8 3d 76 99 42 bd 3a fa cf bd 94 d3 ce bd
       0.11372915 -0.047509633 -0.10155149 -0.10098949
000220 3a 4d 74 bd e0 c0 a8 3c a0 c4 74 bc 94 04 0d bd
       -0.05964396 0.020599782 -0.014939457 -0.034428194
000230 78 35 77 bd 78 8a 09 3d 88 c9 d9 bd 29 0f 02 3e
       -0.060353726 0.03357932 -0.10634142 0.12701096
000240 3c c9 a3 bc 08 55 c5 3c 24 32 2e 3d 82 bf 4d bd
       -0.019993417 0.024088398 0.042528287 -0.050231464
000250 b4 a8 d0 3d 00 d4 7a ba 00 84 2d 3c c2 b1 fb bd
       0.101884276 -0.00095683336 0.010590553 -0.12289764
000260 28 e8 82 3c 2c 71 35 3d 20 5f 93 3c 48 9f 51 bc
       0.015979841 0.044297382 0.017989695 -0.012794323
000270 b8 a4 c7 3d 4a 08 d1 3d bc 06 b6 3d 4c 8e b7 bc
       0.097482145 0.10206659 0.08888003 -0.02240672
000280 18 b1 b6 3c 1c 9b b8 bd 10 f0 c5 bd 90 d6 b8 bc
       0.022301242 -0.0901396 -0.09664929 -0.022563249
000290 10 6c 6c 3c 99 ff 99 bd 7e b0 dc bd 78 8e 70 3d
       0.014430061 -0.075194545 -0.10775851 0.05872962
0002a0 38 55 41 3d de af ae bd 48 f0 af 3d 42 a0 c5 bd
       0.04720041 -0.08529638 0.08590752 -0.096497074
0002b0 34 01 c8 3d 66 75 8c 3d cc b6 32 bd 46 b8 fb 3d
       0.097658545 0.068583295 -0.04363136 0.12291007
0002c0 8b 73 94 bd 16 8c 71 bd dc bb d2 3d 82 42 08 bd
       -0.072486006 -0.058971487 0.102897376 -0.03326655
0002d0 9e 92 55 bd 78 a4 a3 3c a4 b4 b2 bc 22 91 a6 3d
       -0.05214178 0.019975886 -0.021814652 0.08133151
0002e0 34 dc d7 3d 44 37 6b 3d a8 b8 e4 3c 5c d7 04 3d
       0.10540047 0.057425752 0.027920082 0.032431945
0002f0 00 47 5c 3b 00 66 78 3c 00 a9 20 3b 3a 4a b4 3d
       0.0033611655 0.015161037 0.0024514794 0.0880322
000300 e0 da 93 3d 78 aa 54 bc 7c af 47 3d 00 f6 e9 3b
       0.072194815 -0.012980096 0.04875134 0.007139921
000310 a8 dd 3a 3d b2 11 d9 3d 67 e3 b3 bd c0 4a 96 3c
       0.045621544 0.10599078 -0.08783608 0.01834619
000320 48 05 dc bc 1c 3d 01 be b3 75 00 be 8c 7a 8a bc
       -0.026857987 -0.12620968 -0.12544899 -0.016904138
000330 c0 3b bd 3d b4 56 ae bd 38 3f 2c 3d 70 62 98 3d
       0.09239912 -0.08512631 0.042052478 0.074406505
000340 7b b6 c0 bd f4 18 63 3d 00 9a c7 3c 81 b5 f0 bd
       -0.094098054 0.05544372 0.024365425 -0.11753369
000350 80 ab 22 bb 83 37 f8 bd 6e 29 e7 3d b4 d5 77 3d
       -0.002482146 -0.12119963 0.11287199 0.060506538
000360 2c 9d 4a 3d bc fb ca 3d 4e 33 ca 3d 51 3d 03 3e
       0.049466297 0.09911296 0.09873067 0.12816359
000370 78 2b 5a 3d 52 e3 be bd 8a 94 f5 3d e8 e3 12 3d
       0.05326411 -0.09320702 0.11991222 0.03586188
000380 10 73 50 bd 30 cc 44 bd 92 67 f7 3d f8 ee ea 3c
       -0.050890982 -0.04804629 0.12080301 0.028678402
000390 b4 2c c0 3d 00 f6 24 3c 2e 3b f4 3d 7a 77 c1 bd
       0.093835264 0.010068417 0.1192535 -0.094466165
0003a0 a0 0e fc 3c d0 5b fc 3c 80 28 c3 ba 18 33 eb 3d
       0.030768692 0.030805498 -0.0014889389 0.11484355
0003b0 08 60 d4 3c 20 29 e5 3b 66 75 b4 3d f0 fb 26 bc
       0.025924698 0.006993428 0.088114545 -0.0101919025
0003c0 a0 a9 08 bc c4 fb d9 bd 00 ba 5d ba a0 d3 76 bd
       -0.008341223 -0.106437236 -0.0008458197 -0.060260415
0003d0 92 14 99 3d fe 01 e6 3d a9 a9 f6 bd 54 24 99 bd
       0.074746266 0.11230849 -0.12044079 -0.07477632
0003e0 56 8d fe 3d 2e b3 61 bd fe 22 eb 3d 43 28 02 3e
       0.124293014 -0.05510252 0.114812836 0.12710671
0003f0 3c 9d 04 bd af 06 d6 bd ee 33 84 3d c8 5f 70 3d
       -0.032376513 -0.104504935 0.06455217 0.058685094

gc2.bias f4 [60]
000000 20 07 bf bb e0 a6 77 3d f3 f9 c9 bd 3e 8b 0d bd
       -0.005829707 0.06046188 -0.09862127 -0.03455662
000010 17 16 a1 bd 3d 25 ef bd 00 2d bd bd 01 e1 a9 bd
       -0.078655414 -0.116770245 -0.09237099 -0.08294869
000020 de 50 c9 3d 1c 9b a1 3d a2 7e b3 bd 36 a6 d0 bd
       0.09829877 0.07890913 -0.08764388 -0.10187952
000030 aa c6 ec 3d 70 08 fb 3c 14 82 73 3d 90 28 a5 3c
       0.1156133 0.030643672 0.059450224 0.020160943
000040 ce 94 45 bd 7c d7 8e bd 30 40 8e 3d 91 97 02 be
       -0.048237614 -0.06974694 0.069458365 -0.1275313
000050 4e 02 dc bd 58 af 1f 3d 02 ac 0a bd f8 4b ca 3c
       -0.10742627 0.03898558 -0.033855446 0.024694428
000060 a0 03 8d 3d 8e f0 97 bd ca d4 94 bd 81 9e a2 bd
       0.06885457 -0.07418929 -0.07267149 -0.079403885
000070 7b 55 e7 bd f0 2c 0f bc 12 84 e0 3d e0 47 01 bc
       -0.11295601 -0.008738741 0.109626904 -0.0078906715
000080 86 00 91 3d 2e 7d 83 bd 30 dd 51 3c a4 88 c6 bd
       0.07080178 -0.064203605 0.012809083 -0.09694031
000090 90 d0 0b bc 00 16 e8 3c 66 40 62 bd c0 be f2 3d
       -0.008533612 0.028330803 -0.055237196 0.11852789
0000a0 2c 4c 15 3d 10 3f 84 3d 13 91 03 3e 3c 28 60 3d
       0.036449596 0.06457341 0.1284831 0.05472587
0000b0 38 2c 26 bc d4 8c 7c 3d d7 45 02 3e 2e 8b fe bd
       -0.0101423785 0.06165774 0.12721954 -0.1242889
0000c0 e4 64 c7 bc 40 64 80 3d 6a 2a 00 bd 3b 1b d7 bd
       -0.0243401 0.06269121 -0.03129045 -0.10503241
0000d0 20 7c 99 bd a2 6b 89 bd a8 3a 5b 3d 6a 54 a8 3d
       -0.07494378 -0.067099825 0.053522736 0.08219226
0000e0 f8 b4 70 bc 7a 57 d8 bd 18 44 96 3c 54 d6 13 3d
       -0.014691584 -0.1056356 0.018343017 0.03609307

gc3.weight f4 [60, 60]
000000 b0 76 47 bd 04 56 36 3d 0a 02 58 bd c0 03 32 3d
       -0.048697174 0.044515625 -0.05273632 0.043460608
000010 fe 2b bd 3d 24 dc 83 3d 20 e4 47 bc 52 f3 fd 3d
       0.092369065 0.06438473 -0.012200385 0.12399925
000020 e8 fe 39 bc d8 d3 eb bd e4 0c be 3d c0 d9 f5 3d
       -0.011352278 -0.11515015 0.092798024 0.12004423
000030 f0 51 71 3d 5e b6 e7 3d 34 cd 8e 3d 78 d6 57 3d
       0.058916032 0.11314081 0.06972733 0.052694768
000040 e6 15 99 3d d1 1a cb bd 00 e8 c9 ba c6 e5 61 bd
       0.0747488 -0.09917224 -0.0015404224 -0.05515077
000050 bc 76 11 3d 64 d0 e9 bd e0 16 fa 3b 6c e0 4e 3d
       0.035513625 -0.114167005 0.0076321214 0.050506994
000060 e8 7d 44 bd 02 47 55 bd a2 79 ab bd 24 97 11 3d
       -0.047971636 -0.05206967 -0.08372809 0.03554453
000070 18 ef dd bd bc 13 d9 bc 60 4c eb 3b c4 de 16 3d
       -0.10836619 -0.026498668 0.0071807355 0.03683354
000080 94 fb e2 bd d8 68 d5 3c c0 74 4f bd 20 41 76 bc
       -0.11083141 0.02605097 -0.05064845 -0.015030175
000090 a2 ee c0 bd d6 a9 cf bd 50 45 90 3c a8 96 b3 3c
       -0.094205156 -0.101398155 0.017611176 0.021922424
0000a0 a0 3c e3 3d 5a c8 f8 3d ea 2d c1 3d 90 e5 4c 3d
       0.11095548 0.12147589 0.094325855 0.050023615
0000b0 6e d7 af 3d ac d1 61 3d ce 4e f6 bd de 6a c0 3d
       0.08586012 0.0551316 -0.120267496 0.09395383
0000c0 78 66 80 3c 96 de 03 bd b2 42 1d bd 6e e5 d2 3d
       0.01567386 -0.032194696 -0.038393684 0.102976665
0000d0 5c 80 b8 3d 80 7a 44 bc c6 ab 45 bd 5e 26 8e bd
       0.090088576 -0.011992097 -0.04825952 -0.06940912
0000e0 b4 6b 98 3d 48 57 a0 bd 18 48 af bd ae aa 9e bd
       0.07442418 -0.078291476 -0.08558673 -0.07747398
0000f0 94 89 19 3d 8e ad ca 3d 70 61 d3 3c bc 1a 45 3d
       0.03748472 0.09896384 0.025803298 0.0481212
000100 ef 89 d5 bd 4c 1a c0 bd 91 da 9a bd c2 2f a9 bd
       -0.10426699 -0.09380016 -0.075612195 -0.08261062
000110 40 0b 6c bd f2 4a a0 bd a6 04 2d bd c4 ab a3 bd
       -0.057627916 -0.07826795 -0.04224076 -0.07991746
000120 d4 82 1d 3d 80 58 5a 3b 00 47 d7 3b 58 32 60 3d
       0.038454846 0.003331691 0.006569743 0.05473551
000130 f1 0b ee bd ba 05 4f bd 50 b1 8f bb 0b 0c f7 bd
       -0.116233714 -0.05054257 -0.004385151 -0.12062844
000140 5c 7f 8c 3d 0c 88 c6 bd 5e ba b2 3d f7 d3 02 3e
       0.068602294 -0.09693918 0.08726953 0.1277617
000150 30 f4 d9 3c 1b b0 80 bd 4e 9a ba 3d 3d 55 ad bd
       0.026605695 -0.062835895 0.091114625 -0.084635235
000160 a0 4a c8 3b e2 c4 a5 3d 5a de f7 3d 00 fd 1a 3c
       0.0061124116 0.08094193 0.12102957 0.009459734
000170 e0 88 20 bc b0 8b 37 bc 3b 2b 00 be 38 ee bb 3c
       -0.009798259 -0.011202738 -0.12516491 0.02294074
000180 21 dc d1 bd 00 24 3e 3c bc 4d fb bc 26 20 a8 3d
       -0.102470644 0.011605263 -0.030676715 0.08209257
000190 a8 ba 53 bd 6a ea bb 3d cc 02 fc bc d4 8b cc bc
       -0.05169168 0.0917557 -0.030763052 -0.024969019
0001a0 ac b1 f0 bd fc c7 e5 3d 60 f3 36 3c 1e 4a ee bd
       -0.11752638 0.112197846 0.011166424 -0.116352305
0001b0 20 e8 ed 3b 9c 93 58 3d 44 7d df bc b0 c2 d7 3d
       0.0072603375 0.052875146 -0.027281411 0.105351806
0001c0 e8 4f 81 3d 40 8f 87 bc 77 2a 04 3e 4e 77 ba 3d
       0.06314069 -0.0165478 0.12906824 0.09104787
0001d0 30 b9 81 bc 60 b5 36 bc 50 49 22 3d 3e 43 38 bd
       -0.015835375 -0.011151642 0.039620697 -0.044986002
0001e0 4c c3 a2 3d e8 5f fe bd 08 a6 8d bd b8 63 72 3d
       0.07947406 -0.124206364 -0.069164336 0.05917713
0001f0 68 c2 fd bd 58 34 2f bd b4 95 8c bd 10 3b 8f 3d
       -0.12390596 -0.04277453 -0.06864491 0.06993687
000200 a0 b2 d4 3b 3a c9 bb bd 2e 0f d5 3d ca 24 71 bd
       0.0064910203 -0.0916924 0.10403286 -0.058872975
000210 48 5b 69 bc 38 6d 32 3d 36 4c b0 bd e8 16 43 bc
       -0.014242955 0.04356119 -0.08608286 -0.011907317
000220 fe 23 32 bd 64 d9 fa bc 96 d0 3f bd e8 3c a9 3d
       -0.043491356 -0.030621238 -0.046829782 0.0826357
000230 ee ec 81 bd f7 6e b2 bd 34 6c 64 3d cc 53 2b 3d
       -0.06344019 -0.08712571 0.055767253 0.04182796
000240 00 b1 b0 3a 20 4c 2e 3c a3 c0 01 3e 26 e7 30 bd
       0.0013480484 0.010638267 0.12671141 -0.04318919
000250 7e f3 eb bd 80 35 02 be 00 17 09 3d 48 19 4e 3d
       -0.11521052 -0.12715721 0.0334692 0.05031708
000260 00 1f ef 3a a5 ba db bd ad 87 ce bd 88 27 b4 bd
       0.0018243492 -0.10728959 -0.10084472 -0.087966025
000270 88 36 aa 3d d8 40 cf 3c 71 42 93 bd 88 0a fa bd
       0.08311182 0.025299475 -0.07190407 -0.1220904
000280 7c e5 97 3d 00 d4 b5 3a 03 68 03 3e b7 a0 d8 bd
       0.074168175 0.0013872385 0.12832646 -0.10577529
000290 3e 73 d6 bd a0 77 b6 3c 66 35 b1 3d 04 a6 ae 3d
       -0.104711995 0.022273839 0.08652763 0.08527759
0002a0 b9 6e 03 3e 0a 53 a8 3d 58 32 6c 3d ff 90 a2 bd
       0.12835206 0.082189634 0.0576652 -0.07937812
0002b0 8b 46 02 3e 4a 06 6a bd 0e 06 aa 3d 48 8a 59 3d
       0.12722223 -0.057134904 0.08301936 0.05311039
0002c0 4e b7 9c bd 30 f5 3c bc 88 1f 30 bc 4a a4 c7 3d
       -0.0765215 -0.011533067 -0.010749705 0.097481325
0002d0 50 51 ca 3d 60 c1 e2 3c 15 41 96 bd 60 9a 16 3d
       0.098787904 0.027680099 -0.07336632 0.036768317
0002e0 9e 9f d8 3d ce 1a 8c bd 1a e5 d3 3d d0 fc ee 3c
       0.105773196 -0.0684105 0.10346432 0.029173285
0002f0 c4 40 92 3d 9c 62 35 3d 5c eb a6 3d fe f1 e0 bd
       0.07141259 0.044283494 0.0815036 -0.10983656
000300 84 64 5a 3d ef 47 e5 bd d0 55 10 bc 56 c3 ce 3d
       0.053318515 -0.11195361 -0.008809522 0.10095851
000310 74 d2 d8 bd 4b 1c c9 bd 68 c2 67 bd 00 2a 9f 3b
       -0.10587016 -0.098198496 -0.056581885 0.0048573017
000320 58 37 92 bc e6 88 cf bd e8 cc 89 3c 16 d6 04 bd
       -0.017848656 -0.10133533 0.01682134 -0.03243073
000330 10 f8 76 bd 00 b3 b8 3a cc 93 33 3d 88 ab a9 3c
       -0.060295165 0.0014091432 0.043842122 0.020711675
000340 f2 44 af bd 94 3a b3 3d 78 89 c7 3c fe 84 58 bd
       -0.08558072 0.08751407 0.024357542 -0.052861206
000350 d6 db e4 3d 88 30 d5 3c 5a 7d 89 3d 14 f2 ba 3d
       0.11174743 0.026024118 0.06713362 0.09128204
000360 00 c7 16 bb 00 e6 d9 3d 00 fb 16 ba ea 84 d3 3d
       -0.0023006797 0.10639572 -0.0005759448 0.10328086
000370 90 47 80 3c a8 51 73 3d 36 25 85 3d 94 88 92 bd
       0.015659124 0.059404045 0.06501238 -0.071549565
000380 8e 0d e7 3d 20 47 80 3b c4 59 42 3d 9e 13 c3 bd
       0.11281882 0.0039147288 0.04744889 -0.09525226
000390 e0 61 45 bd 1a 5a ac 3d 92 dc a6 bd 30 85 92 3c
       -0.048189044 0.08415623 -0.08147539 0.017885774
0003a0 a0 2a e8 3d 44 21 fb bd 00 e7 ba ba f0 da ab 3c
       0.11336255 -0.12262204 -0.0014259517 0.020978421
0003b0 c4 49 ad 3d a4 ab 31 bd f8 32 01 be 09 a4 a3 bd
       0.08461335 -0.04337658 -0.126171 -0.079902716
0003c0 64 b4 1e 3d 50 b4 c2 bd 63 54 e2 bd c0 77 55 bb
       0.038746253 -0.09507048 -0.11051252 -0.0032572597
0003d0 c0 be 0a 3d 08 cb a5 bd d0 62 4d bd 1a a0 90 3d
       0.03387332 -0.08095366 -0.050143063 0.07061787
0003e0 fe c3 b2 bd a9 7a d9 bd 74 d1 1f bd fa 6f d4 3d
       -0.08728789 -0.10619099 -0.03901811 0.1037292
0003f0 ac 08 1b bd 2d 39 b3 bd 18 91 bb bd a8 8d f8 bc
       -0.037850067 -0.0875114 -0.09158534 -0.030340984

gc3.bias f4 [60]
000000 35 de 85 bd 65 4b 81 bd 44 73 00 3d 0c 01 8a bd
       -0.06536523 -0.063132085 0.031359926 -0.06738481
000010 58 0d 64 3d 26 2d f9 bd e4 db 41 bd 07 d4 03 3e
       0.055676788 -0.121668145 -0.047328845 0.12873851
000020 b0 34 d6 bb 12 a6 8f 3d a4 63 ee 3d b6 1d 17 bd
       -0.0065370426 0.07014097 0.11640099 -0.03689357
000030 8c 85 f6 bc 8c ca 97 bc 82 b6 83 bd c0 fa 7e bb
       -0.030092977 -0.018529199 -0.06431295 -0.0038906783
000040 b0 fe 7b 3d fe 32 e4 3d 48 e8 b6 3d 1d 31 02 3e
       0.061522186 0.111425385 0.08931023 0.12714048
000050 1b 87 85 bd a8 43 b6 bd 23 59 02 be c2 ad 9b 3d
       -0.0651991 -0.08899623 -0.12729315 0.07601501
000060 28 71 6a 3d dc 1f fd bc b8 98 da 3d be 4c be bd
       0.05723682 -0.03089898 0.1067366 -0.09291981
000070 ac 1b ab bc 40 4f 5d bb d8 a4 54 3d 8c 7f dc 3d
       -0.020887218 -0.003376916 0.05191502 0.10766515
000080 3a 54 96 bd 95 dd 03 3e 26 d5 fb 3d 80 ae 0c 3d
       -0.07340284 0.12877496 0.12296514 0.034346104
000090 ac 02 ae bd a8 59 2e 3d e8 62 dc 3c a4 bb 3f bd
       -0.08496603 0.04256597 0.02690263 -0.046809807
0000a0 0e 89 fe 3d b2 5f d4 bd 92 d6 3b bd 7e 59 46 bd
       0.12428485 -0.10369815 -0.045858927 -0.04842519
0000b0 9a c4 12 bd e0 f5 c3 3d 30 85 d2 bb a0 27 93 3c
       -0.035832025 0.09568381 -0.0064245686 0.01796323
0000c0 bb cd eb bd 78 d5 b2 bd 44 14 a6 3d ba 9f 21 bd
       -0.11513849 -0.08732122 0.08109334 -0.039458968
0000d0 a4 29 3d 3d bf c6 cb bd f2 21 96 bd 80 71 7e 3d
       0.04618229 -0.09950017 -0.07330693 0.06211996
0000e0 b4 30 ba 3d 10 78 03 3c 70 6b ef bd 8a 57 a6 bd
       0.09091321 0.008024231 -0.11690414 -0.081221655

gc4.weight f4 [60, 1]
000000 49 c5 5d bf 42 b4 6c 3f 28 46 7a bf 31 57 c6 bf
       -0.8662916 0.9246255 -0.977633 -1.5495359
000010 10 e4 cd bf 68 fb 84 bf 8f df 3d 3f d5 81 4d bf
       -1.6085224 -1.0389223 0.7416925 -0.8027623
000020 de 78 66 bf 58 8b 48 3e 7a bd 7a bf 7d e0 51 bf
       -0.9002818 0.19584405 -0.9794537 -0.81983167
000030 d4 28 99 bf 5a e1 94 bf 8a a0 35 3f 8b e2 83 bf
       -1.1965585 -1.1631272 0.7094809 -1.030351
000040 5b 46 ce 3e 81 40 86 3e 86 f8 6e 3f 8c 2e ce 3e
       0.40288052 0.26221088 0.93347967 0.40269887
000050 12 32 8c bf 16 24 38 bf 8c 29 89 3e f4 6e 80 bf
       -1.095278 -0.7193006 0.2678951 -1.003386
000060 95 04 90 ad 7f 65 3e 3f 4d 16 10 3f 68 5e a6 bf
       -1.637294e-11 0.7437362 0.5628403 -1.299756
000070 3f a4 a7 3e 3a 8d 29 3f 14 22 e9 bf 9b a9 88 bf
       0.32742497 0.6623112 -1.8213525 -1.067676
000080 a6 51 7d 3a 9f b6 fc bf 5e 22 4a 3f 44 08 00 00
       0.00096633506 -1.9743232 0.7895869 2.965e-42
000090 a9 87 8c bf d3 cd 08 bf 2d 59 ae bf 99 9e 63 3b
       -1.09789 -0.5343906 -1.3620964 0.0034731983
0000a0 c4 d9 3a bf cc f0 cd 3e 99 30 88 3e 62 eb a9 bf
       -0.72988534 0.40222776 0.26599577 -1.3274958
0000b0 ca ec c3 3e 75 f1 7d bc 35 f6 a1 bf 1a eb 5c bf
       0.38266593 -0.015499462 -1.2653261 -0.86296237
0000c0 57 c0 37 ba 66 08 e5 3e 61 5c d8 bf 59 1b 51 bf
       -0.0007009557 0.4473297 -1.6903192 -0.81682354
0000d0 88 21 ac bf d6 fb e0 bf 0f ac c7 3e fb 76 85 bf
       -1.3447733 -1.7576854 0.38998458 -1.0426935
0000e0 ea 9c 6f 92 e2 73 aa 3a 5a e2 b4 bf 43 76 02 3f
       -7.5608514e-28 0.0013004506 -1.4131577 0.50961703
