pyperplan/src/checkpoints/standard_1epochs_data1.pth (torch_old, 50413 bytes, 7 tensors)

gc1.weight f4 [81, 60]
00000000: dfd5 a13d b816 b33d b4b3 3dbc d173 ca3d
00000010: 85ba 1fbc cf1a fc3b 61b5 31bd b763 663d
00000020: 1bad c03d 87b1 99bd a46b bd3d 2b5f c43b
00000030: d10e 9b3d 9051 fd39 f243 2f3d fab3 87ba
00000040: f881 a33d 0831 de3a 1b3c 27bd 2ffa 663c
00000050: 120b 24bd 5f31 8d3a 568f 07bd fb32 873d
00000060: ce60 a8bd b32f 24bd 4c51 8fbc aabd 6dbd
00000070: 5dff 1ebb 55ac dcbd 195d c63d 0d38 b8bd
00000080: f6ce a33d ca13 703b deb0 babc eb81 763d
00000090: 0ca8 253b 3247 ad3d 9281 d7ba eb16 b1bc
000000a0: 1169 813c aaf0 83bc 3e38 0f3d 93a6 c33d
000000b0: 608b 613d 62bb 17bd 7c20 613d f9a1 a53b
000000c0: adb2 3c3d 5f11 72bd ec42 ddbd e384 fabc
000000d0: 6c7d a2bd ba97 b03d 5c15 953c 9dc1 0b3d
000000e0: 9a00 b23c 15ed 0db9 ab98 a63d 5b9b 93bd
000000f0: 8025 90bb 43a3 90bd 3ccd ed3c 02ff cebc
00000100: 7d42 e93c f5f2 e2bc bc28 dd3d ac3c 69bd
00000110: dd2d 6bbd 5525 8abd 46d7 d73d 5377 d43c
00000120: b292 e73d 0d09 d8bd 96f0 f3bd 2b88 a6bd
00000130: dd36 8ebd d6e7 243d deb4 0d3d b3a6 dd3d
00000140: 31f8 5cbd 7c06 8cbd 0638 8e3d 4809 5abd
00000150: 06b6 703d 5b03 5abc 2844 753d 032e b3bd
00000160: 3b77 43bd 74a8 b13c 8453 2d3c 49ab 0bbd
00000170: 8f93 723d 7076 8f3d 4772 a9bd ee58 4abd
00000180: e8c3 db3d 94b3 00bd cead 0abd c25f d7bd
00000190: 0ec3 97bd 1fc8 723c 49b9 c8bb 4d7f a6bd
000001a0: 5bd6 3c3b c462 8cbd fc1f e1bd 1f48 90bd
000001b0: bc01 bfbd 9331 80bd 7ef5 f13d 2d5d f23b
000001c0: d2ef f03c c871 f4bd 805c 97bd 89b0 33bd
000001d0: e840 293b a13f c0bd 7727 32bd 505f 6cbd
000001e0: 5745 d3ba 26c4 fbbc c3d4 1abc 7af3 8abd
000001f0: 4e87 b6bd 19b5 9abd 43eb 09bd c65a a8bd
00000200: f77a b83d 59e9 80bc cbcc cd3d 2e91 bc3c
00000210: bf4e dfbd 97af a43d 2132 d2bc 815d f7bc
00000220: afa9 b6bd 7fcf e2bd dd1f 933c 13d3 91bc
00000230: 6199 fd3c 23a0 b0bd f020 c53d 6146 c3bd
00000240: 5da7 8ebb a0b1 5d3c 75a5 573d 231b ad3d
00000250: 866f d43d 6d50 a9bd 1e4c 743c 384b 64bd
00000260: dd5e 06bb 5507 a9bd 3a06 f23d 41c7 99bd
00000270: 43c5 6f3d b920 e63c 7665 c83c 36e7 4dbd
00000280: 1569 db3d c8d4 5f3c e1ac 8c3c aa99 c0bd
00000290: 4d4f 263d 56cb fbba 31e8 72bd f3c7 ce3d
000002a0: 1cb7 393c 0188 54bd aae4 86bd fed7 0ab9
000002b0: dfbc 7c3d 2827 07bd c841 81bd 61f5 36bd
000002c0: 2d3c 9dbd d6ab db3c 95bc a83d 6579 d0bd
000002d0: 98af 393c a449 413d 478d ae3b 3525 dbbc
000002e0: bb17 443d 1bf7 453d 8c9a ed3c f8cf 99bb
000002f0: 1ef6 7abc 190f ebba 523e 9dbb 6345 9fbc
00000300: c8d7 803d 5dd6 ba3d 3f37 123b 9d28 29bc
00000310: 7d7c 51b9 3461 fb3a 59ee 493c 5023 8d3c
00000320: a9b8 c7bd 9b87 e8bc bc48 b63d 1bd7 fd3c
00000330: ad23 853a 6799 6ebd ea46 73bd 626d c4bd
00000340: 94fc bbbc cf18 c83c 0c6d 803d a88b 243d
00000350: 354f c1bd bec9 6dbd 0c49 33bb 364f d73d
00000360: a998 b43a 122f 6fbc 227f 0b3d 48d3 f4bc
00000370: b5f5 82bd 52b5 983d 77e3 20bd f602 f7bb
00000380: a38d debd 5ec0 883d 4604 a03d 1fc5 e33c
00000390: 181f 90bd 6b7a dcbd a363 aebd 7cdf 9c3d
000003a0: ea2c 2e3d 8d1e b63d 821a 453d d557 633c
000003b0: 7f16 a139 ebc5 a0bd 0625 babd 09de cebd
000003c0: 7e3a 093d b4dc 33bd a008 fabb eb33 60bd
000003d0: e4e1 b1bb 3bd9 91bd 8494 84bd 85e9 c13c
000003e0: 9b72 9ebc 3b30 763d 1bae b6bc 6cad 99bd
000003f0: 8873 9cbb ec9a 30bd e667 a7bc 3b42 d3bd
0.07902121 0.08744568 -0.011578489 0.098853715 -0.00974906 0.0076936255 -0.043385867 0.05624744
0.09408017 -0.07504564 0.092490464 0.00599279 0.075711854 0.0004831669 0.042789407 -0.001035332
0.07983774 0.0016951868 -0.040828805 0.014097734 -0.04004962 0.001077216 -0.03309568 0.06601521
-0.08221589 -0.040084552 -0.01749482 -0.058042206 -0.0024261095 -0.10775057 0.09685726 -0.08995066
0.07998459 0.003663289 -0.022789415 0.060182493 0.0025277166 0.08460845 -0.0016441813 -0.021617373
0.01579717 -0.016105969 0.034965746 0.09553256 0.05506456 -0.037043937 0.05496262 0.005054709
0.046068836 -0.059098598 -0.1080378 -0.030580943 -0.079340786 0.086226895 0.018198662 0.03412019
0.021728802 -0.00013535128 0.08134588 -0.07207366 -0.0043990016 -0.0706239 0.029028527 -0.025268082
0.028474087 -0.027703742 0.10798785 -0.056942627 -0.057416786 -0.06745402 0.10539107 0.025935804
0.11307277 -0.10548601 -0.119111225 -0.08131441 -0.06944058 0.04026016 0.034596317 0.10822811
-0.05394763 -0.06837174 0.069442794 -0.053231508 0.05876734 -0.013306464 0.059879452 -0.087490104
-0.04772113 0.02168677 0.010578994 -0.034098897 0.059222754 0.07005012 -0.0827375 -0.049401216
0.107307255 -0.03142126 -0.03385716 -0.10516311 -0.074102506 0.01481822 -0.0061256033 -0.081297494
0.002881429 -0.068547755 -0.10992429 -0.07045006 -0.09326503 -0.062594555 0.11814402 0.0073963613
0.02941123 -0.119357646 -0.0739069 -0.04386953 0.002582604 -0.09387136 -0.043494668 -0.057708085
-0.0016118687 -0.03073318 -0.00945014 -0.06784721 -0.08912526 -0.07554073 -0.03367163 -0.08220439
0.09007829 -0.015736269 0.10048827 0.023018446 -0.109036915 0.080413036 -0.025658669 -0.030195953
-0.08919083 -0.11074733 0.01795953 -0.017800843 0.030956926 -0.08624294 0.09625423 -0.09534908
-0.0043534474 0.013531119 0.052648026 0.084524415 0.10372834 -0.08267293 0.014910726 -0.055735797
-0.002050332 -0.082533516 0.11817594 -0.07508708 0.058537733 0.028091775 0.024462443 -0.050269328
0.10713402 0.013661571 0.017172279 -0.09404309 0.04060297 -0.0019210379 -0.059303466 0.10096731
0.011335161 -0.051887516 -0.06586583 -0.00013241169 0.06170356 -0.032996327 -0.06311375 -0.044667605
-0.07677493 0.026815336 0.08239094 -0.10179404 0.011333369 0.04718937 0.0053269 -0.02675114
0.047874194 0.04833136 0.029004358 -0.0046939813 -0.015317468 -0.0017933577 -0.004798689 -0.019442266
0.06291157 0.09122918 0.0022310761 -0.010324624 -0.00019978169 0.0019178749 0.012324893 0.017228752
-0.09752018 -0.028384974 0.08900592 0.03098636 0.0010157727 -0.058251765 -0.0593938 -0.095911756
-0.022947587 0.024425892 0.06270799 0.04017225 -0.09438936 -0.058053724 -0.0027356772 0.10513155
0.0013778406 -0.014598625 0.03405679 -0.029885903 -0.06394521 0.07456459 -0.039279427 -0.007538195
-0.10866859 0.06677316 0.07813315 0.027803956 -0.07037181 -0.10765537 -0.08515098 0.07659814
0.042523302 0.08892546 0.048120983 0.013875921 0.00030725074 -0.0785025 -0.09089093 -0.101009436
0.033503048 -0.04391165 -0.0076304227 -0.054737013 -0.0054285396 -0.071215115 -0.064736396 0.023670921
-0.019341758 0.06010459 -0.022299817 -0.07503781 -0.0047745146 -0.043116495 -0.020435285 -0.10315367

gc1.bias f4 [60]
00000000: 3438 cabc e8bd 473d d702 c63c df68 3f3c
00000010: e464 be3d 766a 183c d366 b53d 8ac2 a1bc
00000020: 05eb eebd a0c6 a23d 75db 283d c1d1 c63d
00000030: 1979 1b3d 6b6b b4bb 9b02 aabd cefa e9bd
00000040: 18f0 e63c d9c1 dd3d 5116 d43a 828d f2bc
00000050: b294 5e3d b420 60bd 0cff 433d 29de dbbd
00000060: 8c32 c7bd 66d1 6bbd b1b2 aabb 610a 003d
00000070: c0df 533d adda 80bd eadb 9cbc cc7f fe3c
00000080: cd75 f0bc 591e f0bb e213 b03d 7a8b 95bc
00000090: f0bd 5e3d d71a bd3d 31a6 df3c 120f a1bb
000000a0: 95af a5bd 4f85 90bd 938a 61bc 4f4c e33c
000000b0: 4cff 953d 5a49 a03b f8c4 be3d 7450 55bd
000000c0: 50e0 383c 8edd 3ebd 248d bb3c 0b39 c93d
000000d0: b56e 0b3d 7364 15bb eb35 0ebd b764 ddbd
000000e0: 86b5 8cbd d169 babd 2867 a33d fbe3 30bd
-0.024685003 0.048765093 0.024171276 0.011682718 0.09296587 0.009302726 0.08857503 -0.019746084
-0.1166592 0.07948041 0.041224916 0.09707976 0.037957285 -0.0055059693 -0.08301278 -0.1142479
0.028190657 0.10827989 0.0016180967 -0.029608492 0.054341026 -0.054718688 0.047850654 -0.10735733
-0.09726438 -0.057572745 -0.00520929 0.031259898 0.051727057 -0.06291709 -0.019147832 0.031066798
-0.029353047 -0.0073278365 0.08597542 -0.018254984 0.054380357 0.09233635 0.027300926 -0.0049151266
-0.0809013 -0.070566766 -0.013765949 0.027746348 0.07324085 0.0048915567 0.093149126 -0.05207868
0.011283949 -0.04659801 0.02289445 0.09825333 0.034041125 -0.0022795468 -0.03471939 -0.108102255
-0.0687056 -0.09102214 0.0797866 -0.04318617

gc2.weight f4 [60, 60]
00000000: dc3d 9ebc 3aed ecbd b272 13bd bee2 e03d
00000010: d06f c23c 7cd8 bcbc 2ace 893d 2ed6 cb3d
00000020: 74be cd3d 1ca0 c3bd c0dc 173c 221d d9bd
00000030: 394b b6bd 7606 cb3d 2ba6 d2bd 04aa 81bd
00000040: b897 7d3d fd9f 003e 4a6b 00be fb9b aabd
00000050: 565b 4fbd f2d0 cc3d 0a15 9a3d a0d4 a43d
00000060: 166a a93d 4256 04bd d4f2 c23d 80bf 6dbb
00000070: 30ba 463c 3c3b 0cbd ac51 603d 6823 6c3d
00000080: 5835 60bc 04c2 e83d 1ef3 08bd 9cd7 053d
00000090: d223 f03d faf6 943d 0a8e 40bd 5088 6fbd
000000a0: d01b cc3c 803e 80ba f0dc 143c 7050 aa3d
000000b0: bcd6 383d e048 94bd b2de d7bd def6 f93d
000000c0: d0db 68bc 1853 50bd 3430 c2bd c2e4 fd3d
000000d0: 626a 853d 1d9c a7bd 8759 e4bd acaf e53d
000000e0: b0aa 633d 2459 9bbc 4cbc dbbd 7840 a03d
000000f0: 327a b3bd beec 813d 1a1e fbbd dabc ebbd
00000100: 30a4 fdbd 98af ef3d 4044 f03d c09a e1bd
00000110: 0e63 cc3d e7b4 a0bd 83b7 f5bd 847c 7e3d
00000120: 3ce0 953d e6dd 953d 589a b93c 1abe fd3d
00000130: ebc3 e3bd bcfa 733d e490 27bd c0ed d03b
00000140: ba59 b63d c255 bdbd c0bb 673d c03d d3bc
00000150: 3a04 ab3d 802c 5ebb 302d 833d 7eaf fd3d
00000160: 12ce 3cbd 9538 02be ee65 f93d c290 91bd
00000170: 48b0 f13c 1270 a43d 983c a4bc 5ea2 ce3d
00000180: bc57 ab3d d8eb d4bc 84a4 0a3d 804b 203c
00000190: e353 013e 800c b73d 3a19 b0bd d0cc 4b3c
000001a0: b29a 8e3d ac21 ca3d dc8b 343d 40b1 603d
000001b0: ec43 c3bc c082 373b 4cfd b6bd 4ea9 d93d
000001c0: 0e32 d03d 9d96 91bd 5c5c e2bd 282c ce3d
000001d0: 3856 eabd 0c90 a93d 15c4 00be 512c 87bd
000001e0: 2ae3 5fbd fa7a f83d 7cf5 b2bc 7010 e43d
000001f0: e0a2 193d 2d12 003e 321f af3d 7cb8 c23d
00000200: 5e83 e63d 663b 1cbd 8463 11bd 9061 2a3d
00000210: d4ea e83d 7699 42bd 3afa cfbd 94d3 cebd
00000220: 3a4d 74bd e0c0 a83c a0c4 74bc 9404 0dbd
00000230: 7835 77bd 788a 093d 88c9 d9bd 290f 023e
00000240: 3cc9 a3bc 0855 c53c 2432 2e3d 82bf 4dbd
00000250: b4a8 d03d 00d4 7aba 0084 2d3c c2b1 fbbd
00000260: 28e8 823c 2c71 353d 205f 933c 489f 51bc
00000270: b8a4 c73d 4a08 d13d bc06 b63d 4c8e b7bc
00000280: 18b1 b63c 1c9b b8bd 10f0 c5bd 90d6 b8bc
00000290: 106c 6c3c 99ff 99bd 7eb0 dcbd 788e 703d
000002a0: 3855 413d deaf aebd 48f0 af3d 42a0 c5bd
000002b0: 3401 c83d 6675 8c3d ccb6 32bd 46b8 fb3d
000002c0: 8b73 94bd 168c 71bd dcbb d23d 8242 08bd
000002d0: 9e92 55bd 78a4 a33c a4b4 b2bc 2291 a63d
000002e0: 34dc d73d 4437 6b3d a8b8 e43c 5cd7 043d
000002f0: 0047 5c3b 0066 783c 00a9 203b 3a4a b43d
00000300: e0da 933d 78aa 54bc 7caf 473d 00f6 e93b
00000310: a8dd 3a3d b211 d93d 67e3 b3bd c04a 963c
00000320: 4805 dcbc 1c3d 01be b375 00be 8c7a 8abc
00000330: c03b bd3d b456 aebd 383f 2c3d 7062 983d
00000340: 7bb6 c0bd f418 633d 009a c73c 81b5 f0bd
00000350: 80ab 22bb 8337 f8bd 6e29 e73d b4d5 773d
00000360: 2c9d 4a3d bcfb ca3d 4e33 ca3d 513d 033e
00000370: 782b 5a3d 52e3 bebd 8a94 f53d e8e3 123d
00000380: 1073 50bd 30cc 44bd 9267 f73d f8ee ea3c
00000390: b42c c03d 00f6 243c 2e3b f43d 7a77 c1bd
000003a0: a00e fc3c d05b fc3c 8028 c3ba 1833 eb3d
000003b0: 0860 d43c 2029 e53b 6675 b43d f0fb 26bc
000003c0: a0a9 08bc c4fb d9bd 00ba 5dba a0d3 76bd
000003d0: 9214 993d fe01 e63d a9a9 f6bd 5424 99bd
000003e0: 568d fe3d 2eb3 61bd fe22 eb3d 4328 023e
000003f0: 3c9d 04bd af06 d6bd ee33 843d c85f 703d
-0.019316606 -0.11568685 -0.035998054 0.10980748 0.023734957 -0.023052447 0.06728776 0.09952961
0.10046092 -0.09552023 0.0092689395 -0.1060126 -0.08901066 0.09913342 -0.102856 -0.06331256
0.06191227 0.1256103 -0.12540928 -0.08330532 -0.050624214 0.10000791 0.07523544 0.080483675
0.082721874 -0.032308824 0.09518972 -0.0036277473 0.0121293515 -0.034236178 0.05476539 0.057650954
-0.013684593 0.113651305 -0.03343498 0.032676324 0.11725582 0.072736695 -0.04701046 -0.058479607
0.024915606 -0.0009784251 0.009085879 0.083161235 0.04512666 -0.07240462 -0.10540523 0.12205289
-0.014212564 -0.050860494 -0.0948185 0.12397148 0.065144315 -0.08184073 -0.111498885 0.112151474
0.055582702 -0.018963404 -0.10729274 0.078247964 -0.08763541 0.06343983 -0.12261601 -0.1151063
-0.12384832 0.11703414 0.11731768 -0.11015844 0.09979831 -0.078470044 -0.11997893 0.062130466
0.0731816 0.073177144 0.022656605 0.123897746 -0.11121353 0.05956529 -0.040909663 0.0063759983
0.08903833 -0.09244873 0.056575537 -0.02578628 0.083504155 -0.0033901036 0.06405103 0.12386988
-0.04609496 -0.12716897 0.12177645 -0.071076885 0.029503003 0.08029188 -0.020048425 0.10089563
0.083663434 -0.025991365 0.0338483 0.009783626 0.12629656 0.08937931 -0.085985616 0.012438968
0.069630995 0.09869704 0.044078693 0.05485654 -0.023836099 0.0028001517 -0.08935031 0.106279954
0.10165797 -0.07108805 -0.110527724 0.10067016 -0.11442226 0.08279428 -0.125748 -0.066002496
-0.05466 0.12132831 -0.021845572 0.11135948 0.037508845 0.12506934 0.08550872 0.09507844
0.11255525 -0.038142584 -0.035495296 0.04159695 0.11372915 -0.047509633 -0.10155149 -0.10098949
-0.05964396 0.020599782 -0.014939457 -0.034428194 -0.060353726 0.03357932 -0.10634142 0.12701096
-0.019993417 0.024088398 0.042528287 -0.050231464 0.101884276 -0.00095683336 0.010590553 -0.12289764
0.015979841 0.044297382 0.017989695 -0.012794323 0.097482145 0.10206659 0.08888003 -0.02240672
0.022301242 -0.0901396 -0.09664929 -0.022563249 0.014430061 -0.075194545 -0.10775851 0.05872962
0.04720041 -0.08529638 0.08590752 -0.096497074 0.097658545 0.068583295 -0.04363136 0.12291007
-0.072486006 -0.058971487 0.102897376 -0.03326655 -0.05214178 0.019975886 -0.021814652 0.08133151
0.10540047 0.057425752 0.027920082 0.032431945 0.0033611655 0.015161037 0.0024514794 0.0880322
0.072194815 -0.012980096 0.04875134 0.007139921 0.045621544 0.10599078 -0.08783608 0.01834619
-0.026857987 -0.12620968 -0.12544899 -0.016904138 0.09239912 -0.08512631 0.042052478 0.074406505
-0.094098054 0.05544372 0.024365425 -0.11753369 -0.002482146 -0.12119963 0.11287199 0.060506538
0.049466297 0.09911296 0.09873067 0.12816359 0.05326411 -0.09320702 0.11991222 0.03586188
-0.050890982 -0.04804629 0.12080301 0.028678402 0.093835264 0.010068417 0.1192535 -0.094466165
0.030768692 0.030805498 -0.0014889389 0.11484355 0.025924698 0.006993428 0.088114545 -0.0101919025
-0.008341223 -0.106437236 -0.0008458197 -0.060260415 0.074746266 0.11230849 -0.12044079 -0.07477632
0.124293014 -0.05510252 0.114812836 0.12710671 -0.032376513 -0.104504935 0.06455217 0.058685094

gc2.bias f4 [60]
00000000: 2007 bfbb e0a6 773d f3f9 c9bd 3e8b 0dbd
00000010: 1716 a1bd 3d25 efbd 002d bdbd 01e1 a9bd
00000020: de50 c93d 1c9b a13d a27e b3bd 36a6 d0bd
00000030: aac6 ec3d 7008 fb3c 1482 733d 9028 a53c
00000040: ce94 45bd 7cd7 8ebd 3040 8e3d 9197 02be
00000050: 4e02 dcbd 58af 1f3d 02ac 0abd f84b ca3c
00000060: a003 8d3d 8ef0 97bd cad4 94bd 819e a2bd
00000070: 7b55 e7bd f02c 0fbc 1284 e03d e047 01bc
00000080: 8600 913d 2e7d 83bd 30dd 513c a488 c6bd
00000090: 90d0 0bbc 0016 e83c 6640 62bd c0be f23d
000000a0: 2c4c 153d 103f 843d 1391 033e 3c28 603d
000000b0: 382c 26bc d48c 7c3d d745 023e 2e8b febd
000000c0: e464 c7bc 4064 803d 6a2a 00bd 3b1b d7bd
000000d0: 207c 99bd a26b 89bd a83a 5b3d 6a54 a83d
000000e0: f8b4 70bc 7a57 d8bd 1844 963c 54d6 133d
-0.005829707 0.06046188 -0.09862127 -0.03455662 -0.078655414 -0.116770245 -0.09237099 -0.08294869
0.09829877 0.07890913 -0.08764388 -0.10187952 0.1156133 0.030643672 0.059450224 0.020160943
-0.048237614 -0.06974694 0.069458365 -0.1275313 -0.10742627 0.03898558 -0.033855446 0.024694428
0.06885457 -0.07418929 -0.07267149 -0.079403885 -0.11295601 -0.008738741 0.109626904 -0.0078906715
0.07080178 -0.064203605 0.012809083 -0.09694031 -0.008533612 0.028330803 -0.055237196 0.11852789
0.036449596 0.06457341 0.1284831 0.05472587 -0.0101423785 0.06165774 0.12721954 -0.1242889
-0.0243401 0.06269121 -0.03129045 -0.10503241 -0.07494378 -0.067099825 0.053522736 0.08219226
-0.014691584 -0.1056356 0.018343017 0.03609307

gc3.weight f4 [60, 60]
00000000: b076 47bd 0456 363d 0a02 58bd c003 323d
00000010: fe2b bd3d 24dc 833d 20e4 47bc 52f3 fd3d
00000020: e8fe 39bc d8d3 ebbd e40c be3d c0d9 f53d
00000030: f051 713d 5eb6 e73d 34cd 8e3d 78d6 573d
00000040: e615 993d d11a cbbd 00e8 c9ba c6e5 61bd
00000050: bc76 113d 64d0 e9bd e016 fa3b 6ce0 4e3d
00000060: e87d 44bd 0247 55bd a279 abbd 2497 113d
00000070: 18ef ddbd bc13 d9bc 604c eb3b c4de 163d
00000080: 94fb e2bd d868 d53c c074 4fbd 2041 76bc
00000090: a2ee c0bd d6a9 cfbd 5045 903c a896 b33c
000000a0: a03c e33d 5ac8 f83d ea2d c13d 90e5 4c3d
000000b0: 6ed7 af3d acd1 613d ce4e f6bd de6a c03d
000000c0: 7866 803c 96de 03bd b242 1dbd 6ee5 d23d
000000d0: 5c80 b83d 807a 44bc c6ab 45bd 5e26 8ebd
000000e0: b46b 983d 4857 a0bd 1848 afbd aeaa 9ebd
000000f0: 9489 193d 8ead ca3d 7061 d33c bc1a 453d
00000100: ef89 d5bd 4c1a c0bd 91da 9abd c22f a9bd
00000110: 400b 6cbd f24a a0bd a604 2dbd c4ab a3bd
00000120: d482 1d3d 8058 5a3b 0047 d73b 5832 603d
00000130: f10b eebd ba05 4fbd 50b1 8fbb 0b0c f7bd
00000140: 5c7f 8c3d 0c88 c6bd 5eba b23d f7d3 023e
00000150: 30f4 d93c 1bb0 80bd 4e9a ba3d 3d55 adbd
00000160: a04a c83b e2c4 a53d 5ade f73d 00fd 1a3c
00000170: e088 20bc b08b 37bc 3b2b 00be 38ee bb3c
00000180: 21dc d1bd 0024 3e3c bc4d fbbc 2620 a83d
00000190: a8ba 53bd 6aea bb3d cc02 fcbc d48b ccbc
000001a0: acb1 f0bd fcc7 e53d 60f3 363c 1e4a eebd
000001b0: 20e8 ed3b 9c93 583d 447d dfbc b0c2 d73d
000001c0: e84f 813d 408f 87bc 772a 043e 4e77 ba3d
000001d0: 30b9 81bc 60b5 36bc 5049 223d 3e43 38bd
000001e0: 4cc3 a23d e85f febd 08a6 8dbd b863 723d
000001f0: 68c2 fdbd 5834 2fbd b495 8cbd 103b 8f3d
00000200: a0b2 d43b 3ac9 bbbd 2e0f d53d ca24 71bd
00000210: 485b 69bc 386d 323d 364c b0bd e816 43bc
00000220: fe23 32bd 64d9 fabc 96d0 3fbd e83c a93d
00000230: eeec 81bd f76e b2bd 346c 643d cc53 2b3d
00000240: 00b1 b03a 204c 2e3c a3c0 013e 26e7 30bd
00000250: 7ef3 ebbd 8035 02be 0017 093d 4819 4e3d
00000260: 001f ef3a a5ba dbbd ad87 cebd 8827 b4bd
00000270: 8836 aa3d d840 cf3c 7142 93bd 880a fabd
00000280: 7ce5 973d 00d4 b53a 0368 033e b7a0 d8bd
00000290: 3e73 d6bd a077 b63c 6635 b13d 04a6 ae3d
000002a0: b96e 033e 0a53 a83d 5832 6c3d ff90 a2bd
000002b0: 8b46 023e 4a06 6abd 0e06 aa3d 488a 593d
000002c0: 4eb7 9cbd 30f5 3cbc 881f 30bc 4aa4 c73d
000002d0: 5051 ca3d 60c1 e23c 1541 96bd 609a 163d
000002e0: 9e9f d83d ce1a 8cbd 1ae5 d33d d0fc ee3c
000002f0: c440 923d 9c62 353d 5ceb a63d fef1 e0bd
00000300: 8464 5a3d ef47 e5bd d055 10bc 56c3 ce3d
00000310: 74d2 d8bd 4b1c c9bd 68c2 67bd 002a 9f3b
00000320: 5837 92bc e688 cfbd e8cc 893c 16d6 04bd
00000330: 10f8 76bd 00b3 b83a cc93 333d 88ab a93c
00000340: f244 afbd 943a b33d 7889 c73c fe84 58bd
00000350: d6db e43d 8830 d53c 5a7d 893d 14f2 ba3d
00000360: 00c7 16bb 00e6 d93d 00fb 16ba ea84 d33d
00000370: 9047 803c a851 733d 3625 853d 9488 92bd
00000380: 8e0d e73d 2047 803b c459 423d 9e13 c3bd
00000390: e061 45bd 1a5a ac3d 92dc a6bd 3085 923c
000003a0: a02a e83d 4421 fbbd 00e7 baba f0da ab3c
000003b0: c449 ad3d a4ab 31bd f832 01be 09a4 a3bd
000003c0: 64b4 1e3d 50b4 c2bd 6354 e2bd c077 55bb
000003d0: c0be 0a3d 08cb a5bd d062 4dbd 1aa0 903d
000003e0: fec3 b2bd a97a d9bd 74d1 1fbd fa6f d43d
000003f0: ac08 1bbd 2d39 b3bd 1891 bbbd a88d f8bc
-0.048697174 0.044515625 -0.05273632 0.043460608 0.092369065 0.06438473 -0.012200385 0.12399925
-0.011352278 -0.11515015 0.092798024 0.12004423 0.058916032 0.11314081 0.06972733 0.052694768
0.0747488 -0.09917224 -0.0015404224 -0.05515077 0.035513625 -0.114167005 0.0076321214 0.050506994
-0.047971636 -0.05206967 -0.08372809 0.03554453 -0.10836619 -0.026498668 0.0071807355 0.03683354
-0.11083141 0.02605097 -0.05064845 -0.015030175 -0.094205156 -0.101398155 0.017611176 0.021922424
0.11095548 0.12147589 0.094325855 0.050023615 0.08586012 0.0551316 -0.120267496 0.09395383
0.01567386 -0.032194696 -0.038393684 0.102976665 0.090088576 -0.011992097 -0.04825952 -0.06940912
0.07442418 -0.078291476 -0.08558673 -0.07747398 0.03748472 0.09896384 0.025803298 0.0481212
-0.10426699 -0.09380016 -0.075612195 -0.08261062 -0.057627916 -0.07826795 -0.04224076 -0.07991746
0.038454846 0.003331691 0.006569743 0.05473551 -0.116233714 -0.05054257 -0.004385151 -0.12062844
0.068602294 -0.09693918 0.08726953 0.1277617 0.026605695 -0.062835895 0.091114625 -0.084635235
0.0061124116 0.08094193 0.12102957 0.009459734 -0.009798259 -0.011202738 -0.12516491 0.02294074
-0.102470644 0.011605263 -0.030676715 0.08209257 -0.05169168 0.0917557 -0.030763052 -0.024969019
-0.11752638 0.112197846 0.011166424 -0.116352305 0.0072603375 0.052875146 -0.027281411 0.105351806
0.06314069 -0.0165478 0.12906824 0.09104787 -0.015835375 -0.011151642 0.039620697 -0.044986002
0.07947406 -0.124206364 -0.069164336 0.05917713 -0.12390596 -0.04277453 -0.06864491 0.06993687
0.0064910203 -0.0916924 0.10403286 -0.058872975 -0.014242955 0.04356119 -0.08608286 -0.011907317
-0.043491356 -0.030621238 -0.046829782 0.0826357 -0.06344019 -0.08712571 0.055767253 0.04182796
0.0013480484 0.010638267 0.12671141 -0.04318919 -0.11521052 -0.12715721 0.0334692 0.05031708
0.0018243492 -0.10728959 -0.10084472 -0.087966025 0.08311182 0.025299475 -0.07190407 -0.1220904
0.074168175 0.0013872385 0.12832646 -0.10577529 -0.104711995 0.022273839 0.08652763 0.08527759
0.12835206 0.082189634 0.0576652 -0.07937812 0.12722223 -0.057134904 0.08301936 0.05311039
-0.0765215 -0.011533067 -0.010749705 0.097481325 0.098787904 0.027680099 -0.07336632 0.036768317
0.105773196 -0.0684105 0.10346432 0.029173285 0.07141259 0.044283494 0.0815036 -0.10983656
0.053318515 -0.11195361 -0.008809522 0.10095851 -0.10587016 -0.098198496 -0.056581885 0.0048573017
-0.017848656 -0.10133533 0.01682134 -0.03243073 -0.060295165 0.0014091432 0.043842122 0.020711675
-0.08558072 0.08751407 0.024357542 -0.052861206 0.11174743 0.026024118 0.06713362 0.09128204
-0.0023006797 0.10639572 -0.0005759448 0.10328086 0.015659124 0.059404045 0.06501238 -0.071549565
0.11281882 0.0039147288 0.04744889 -0.09525226 -0.048189044 0.08415623 -0.08147539 0.017885774
0.11336255 -0.12262204 -0.0014259517 0.020978421 0.08461335 -0.04337658 -0.126171 -0.079902716
0.038746253 -0.09507048 -0.11051252 -0.0032572597 0.03387332 -0.08095366 -0.050143063 0.07061787
-0.08728789 -0.10619099 -0.03901811 0.1037292 -0.037850067 -0.0875114 -0.09158534 -0.030340984

gc3.bias f4 [60]
00000000: 35de 85bd 654b 81bd 4473 003d 0c01 8abd
00000010: 580d 643d 262d f9bd e4db 41bd 07d4 033e
00000020: b034 d6bb 12a6 8f3d a463 ee3d b61d 17bd
00000030: 8c85 f6bc 8cca 97bc 82b6 83bd c0fa 7ebb
00000040: b0fe 7b3d fe32 e43d 48e8 b63d 1d31 023e
00000050: 1b87 85bd a843 b6bd 2359 02be c2ad 9b3d
00000060: 2871 6a3d dc1f fdbc b898 da3d be4c bebd
00000070: ac1b abbc 404f 5dbb d8a4 543d 8c7f dc3d
00000080: 3a54 96bd 95dd 033e 26d5 fb3d 80ae 0c3d
00000090: ac02 aebd a859 2e3d e862 dc3c a4bb 3fbd
000000a0: 0e89 fe3d b25f d4bd 92d6 3bbd 7e59 46bd
000000b0: 9ac4 12bd e0f5 c33d 3085 d2bb a027 933c
000000c0: bbcd ebbd 78d5 b2bd 4414 a63d ba9f 21bd
000000d0: a429 3d3d bfc6 cbbd f221 96bd 8071 7e3d
000000e0: b430 ba3d 1078 033c 706b efbd 8a57 a6bd
-0.06536523 -0.063132085 0.031359926 -0.06738481 0.055676788 -0.121668145 -0.047328845 0.12873851
-0.0065370426 0.07014097 0.11640099 -0.03689357 -0.030092977 -0.018529199 -0.06431295 -0.0038906783
0.061522186 0.111425385 0.08931023 0.12714048 -0.0651991 -0.08899623 -0.12729315 0.07601501
0.05723682 -0.03089898 0.1067366 -0.09291981 -0.020887218 -0.003376916 0.05191502 0.10766515
-0.07340284 0.12877496 0.12296514 0.034346104 -0.08496603 0.04256597 0.02690263 -0.046809807
0.12428485 -0.10369815 -0.045858927 -0.04842519 -0.035832025 0.09568381 -0.0064245686 0.01796323
-0.11513849 -0.08732122 0.08109334 -0.039458968 0.04618229 -0.09950017 -0.07330693 0.06211996
0.09091321 0.008024231 -0.11690414 -0.081221655

gc4.weight f4 [60, 1]
00000000: 0bf3 b0be 53b0 ee3e a3bb 4cbf 854d 1fbf
00000010: bb20 7bbf 1fca 31bf 51f9 393f 11f7 b4be
00000020: bf0d 67be c76e fd3c 8266 3ebe 49d0 a9be
00000030: 2868 18bc 3abd fbbe 9632 223f 612e d7bc
00000040: 5bdc e53e 6884 fb3d f074 413f f1c1 f93e
00000050: 02a9 fcbe 0557 62be 0c4e 6e3e 22ae b2be
00000060: 2157 2cbf 3f6f 533f a463 283f 4a04 fabe
00000070: 2813 5e3e 2b44 353f 48b8 17bf 54f9 1ebe
00000080: cd4a 50bf 1657 67bf 91f1 4b3f 2000 a93e
00000090: 8669 23bf a182 81bd 522b e6be db54 26be
000000a0: 3203 54be c337 9e3e e57d 323e 3881 2abf
000000b0: 8adf 003f 21a0 863d f9cb 02bf 42cd 11bf
000000c0: 7508 fcbb df01 a83e 8b78 69bf 0de6 61be
000000d0: 88f1 35bf 6e74 6cbf d0cc 093f 1afb aabe
000000e0: 7ee3 6ebf dc41 89be 49af 0abf 4666 083f
-0.34560427 0.466189 -0.7997381 -0.6222766 -0.9809682 -0.6944904 0.7264605 -0.35344747
-0.22563837 0.030936612 -0.18593791 -0.3316672 -0.009302177 -0.49167806 0.6335844 -0.026267232
0.4489468 0.12281114 0.7556906 0.48780778 -0.49347693 -0.22103508 0.2327196 -0.34898478
-0.6732045 0.82591623 0.6577704 -0.48831397 0.21686995 0.7080714 -0.59265566 -0.15524799
-0.81364137 -0.9036726 0.79665476 0.33007908 -0.6383289 -0.063237436 -0.44954926 -0.16243307
-0.20704344 0.30901918 0.17430837 -0.6660342 0.50341094 0.06573511 -0.5109249 -0.56953824
-0.007691438 0.32813928 -0.9119956 -0.22060414 -0.7107167 -0.9236516 0.53828144 -0.333947
-0.93315876 -0.2680806 -0.54173714 0.53281057
