pyperplan/src/checkpoints/standard_1expansion.pth (torch_old, 50427 bytes, 7 tensors)

gc1.weight f4 [81, 60]
000000 f0 ce 98 26 fb 51 ab ae 7c 58 39 b6 c4 41 a4 b7
       1.0603209e-15 -7.7907424e-11 -2.7618653e-06 -1.9580948e-05
000010 02 58 24 a4 fe c0 96 2f ee 18 13 33 2e 3c ad b5
       -3.5636377e-17 2.742197e-10 3.4248778e-08 -1.2907019e-06
000020 8f 1f f5 b5 46 e9 7f ae e5 6e ef a9 b3 a5 07 30
       -1.8263107e-06 -5.8187476e-11 -1.0632969e-13 4.9348187e-10
000030 7c bb 82 38 eb 8b 76 35 06 c9 07 2c 6e 03 54 29
       6.233805e-05 9.184575e-07 1.9296244e-12 4.707643e-14
000040 ed 2d 5c 27 73 32 54 a6 ef 25 c3 b1 8c 90 ad 2c
       3.055603e-15 -7.3620647e-16 -5.6795595e-09 4.9330037e-12
000050 3c 75 3b 38 8e d2 28 b7 8f 00 b6 25 d2 af 15 35
       4.4693457e-05 -1.0062604e-05 3.1572346e-16 5.576268e-07
000060 27 28 c7 af f5 aa 25 24 ae 21 d5 30 7e 04 5e 2e
       -3.622642e-10 3.5923478e-17 1.5507362e-09 5.0480946e-11
000070 50 c4 0d a6 2b 97 44 a5 89 c6 6c b3 c2 f7 d5 a7
       -4.9185255e-16 -1.7051508e-16 -5.51286e-08 -5.9387996e-15
000080 09 31 33 33 38 28 20 ac 0d dd 54 31 ae 74 4e aa
       4.1721282e-08 -2.2759693e-12 3.0975713e-09 -1.8336957e-13
000090 ad 78 b3 32 8e ad 10 a5 65 6a 74 a6 9c 4b 23 a5
       2.089322e-08 -1.2548812e-16 -8.4798697e-16 -1.4163614e-16
0000a0 82 f8 fb a6 66 5a 61 a3 36 a1 c5 2d 67 e5 d1 34
       -1.7483982e-15 -1.2216417e-17 2.2467899e-11 3.9096196e-07
0000b0 5f 5f 96 30 2d 26 95 ac 65 b3 44 38 20 0f fb 2e
       1.0941043e-09 -4.239073e-12 4.6897116e-05 1.1416845e-10
0000c0 7e 44 00 27 2c c8 8e 2d af ae ee 30 22 2c 7f 30
       1.7800698e-15 1.6232425e-11 1.7366427e-09 9.2831176e-10
0000d0 f2 1f 69 aa fb 4e 04 ae b9 68 04 30 b1 0d 13 27
       -2.070564e-13 -3.0083474e-11 4.817014e-10 2.040777e-15
0000e0 89 24 01 28 7c 43 0e 27 2d a4 7a ab ad ec 78 28
       7.168861e-15 1.9743042e-15 -8.904568e-13 1.3818086e-14
0000f0 b7 28 90 3e cb 65 03 3d 49 b1 5e 3e d0 25 00 80
       0.28156063 0.0320795 0.21747316 -1.3565e-41
000100 07 de 35 3e fa b7 0c bf 1d ba 35 3e d5 37 0d 39
       0.17760478 -0.54968226 0.17746778 0.00013467607
000110 d5 79 2a bb e5 5a a4 3e 78 c9 d4 3e db 29 91 3e
       -0.002601256 0.32100597 0.41559958 0.28352246
000120 45 b1 de 3e 0b 92 22 bf aa 90 dd 3d ab 93 4c bf
       0.4349462 -0.63504094 0.10818608 -0.79912823
000130 ef a6 35 3e 1b 9b 8f 3e cf 17 a2 3e 44 c7 56 3e
       0.17739461 0.28048024 0.3165879 0.20974451
000140 65 a4 3e bf bf 27 44 bf 7b 12 90 3e 7b e7 48 bf
       -0.74469596 -0.7662315 0.281391 -0.7847821
000150 8c 1c ac b9 52 f3 55 3e 49 01 5a 3e 01 e0 33 bf
       -0.00032827666 0.208936 0.21289553 -0.7026368
000160 02 c2 7e 3e b3 0b ad bb b4 6e 3a bf 57 e5 1c bf
       0.24878696 -0.0052809357 -0.7282517 -0.61287445
000170 3b 42 16 3e cf 7a 9c 3d 76 e3 0f 3e 44 5d 20 36
       0.14673702 0.076406114 0.14051613 2.3896146e-06
000180 cf 28 96 3e 5a 26 70 bd 4e 17 28 bf a2 76 29 bf
       0.2932801 -0.058630325 -0.6566056 -0.66196644
000190 40 3f 24 3e d3 df 52 3e f8 12 89 3e 31 b8 d3 3c
       0.16039753 0.20593195 0.26772285 0.025844665
0001a0 2d 79 50 3e 1c 35 82 3e f6 01 94 bd b9 7d c9 be
       0.20358725 0.25431144 -0.072269365 -0.3935373
0001b0 c1 9c 35 bd dd 12 dd 3d 45 e9 58 3e 1f 8c 44 bf
       -0.044338945 0.107946135 0.21182735 -0.7677631
0001c0 fe 44 74 3d 3a a8 f4 be 9f 42 4a 3e b4 b8 34 bf
       0.05963611 -0.47784597 0.19751976 -0.70594335
0001d0 ad 9c 39 bd 8c e2 5f bf aa 04 0f bf 97 9d 81 3e
       -0.045315433 -0.8745506 -0.5586649 0.25315544
0001e0 f4 61 37 3e ca 28 e8 bc 4e 2f 84 be f7 70 8e b2
       0.1790846 -0.028339762 -0.2581734 -1.6582346e-08
0001f0 d9 ef f8 be db e7 80 3d 48 fe 45 3e 49 eb d5 b8
       -0.4862049 0.06294223 0.19335282 -0.00010200457
000200 e1 48 71 3a 39 fd 53 3e 24 a4 77 3e 4e 04 82 3e
       0.000920428 0.20702066 0.24183708 0.2539391
000210 88 aa dc be a2 d9 f1 3e f9 26 fd 3d 65 d1 16 bf
       -0.43098855 0.47236353 0.12360949 -0.5891326
000220 3a 80 33 3e f0 3f 6d 3e 0e 93 80 3e 2b 0a 77 3e
       0.17529383 0.23168921 0.25112194 0.24124973
000230 15 d7 37 bd 1b e5 17 bf af c1 85 3e b6 ff 00 bf
       -0.044882853 -0.5933396 0.2612433 -0.50390184
000240 ed 8f 14 bb f7 19 d5 3d 50 e4 43 3e bb d3 d8 3e
       -0.0022668794 0.10405343 0.19130063 0.42349038
000250 33 27 76 3e 4a 0a 87 3e 04 89 97 3d ea db 14 bf
       0.24038391 0.26375037 0.073991805 -0.5814806
000260 f3 a0 5a 3e f7 08 44 bf a6 0d ac 3e 0e c6 9e 39
       0.2135046 -0.7657618 0.33604163 0.0003028367
000270 7f ad 69 3e 96 01 e7 3d 22 71 7a 3e 54 18 39 bf
       0.2282009 0.11279599 0.24457219 -0.72302747
000280 36 73 b7 3e 5a 8b 5c 3e 1b d9 6b 3e c8 13 40 3e
       0.35830086 0.21537533 0.23032038 0.18757546
000290 25 6b 2d 3e 29 c1 44 3e 7a 9c 29 bf f0 a5 8c bd
       0.16935404 0.1921431 -0.6625439 -0.068675876
0002a0 67 03 a3 bc 27 d3 97 3d 70 0f fa be 09 58 7d bf
       -0.019899083 0.07413321 -0.48839903 -0.98962456
0002b0 73 50 3d bf 5d 58 53 bf ef 2a 38 3e f2 7c eb be
       -0.7395088 -0.82556707 0.17985128 -0.45993763
0002c0 80 86 21 bf bd f0 1b bf 54 40 b3 3e 8a 57 66 3e
       -0.63095856 -0.6091421 0.35010016 0.22494331
0002d0 f1 99 6b b6 a6 0e 8f 32 04 d8 b0 b5 eb f5 41 a6
       -3.5107334e-06 1.6654052e-08 -1.3175891e-06 -6.7293607e-16
0002e0 07 ca 4a 2b 9a 7a 17 27 82 65 f4 b7 7b 7d 8c 36
       7.2045186e-13 2.1021922e-15 -2.9134335e-05 4.186933e-06
0002f0 b2 f4 04 32 c9 92 a1 24 bd 41 53 25 b2 f6 17 29
       7.7390485e-09 7.0071284e-17 1.8323606e-16 3.374271e-14
000300 b3 ae 0f a8 67 fe fa b1 16 7e 54 a7 5f 7c 98 2d
       -7.9759765e-15 -7.30488e-09 -2.9489261e-15 1.7335631e-11
000310 08 0b a7 af 77 4e 46 2e db f6 6b 2c 2d 95 7f b4
       -3.038496e-10 4.508968e-11 3.353254e-12 -2.3802995e-07
000320 68 37 85 32 a0 37 55 31 f1 f8 0c a6 dd 29 5e a5
       1.5508434e-08 3.1027199e-09 -4.8909636e-16 -1.9269614e-16
000330 5b 4f 48 a5 4b 9b 23 36 bb 6c eb a4 95 18 1f ae
       -1.7374121e-16 2.4379285e-06 -1.020992e-16 -3.6174248e-11
000340 da 3d f9 32 e2 bb 76 a6 ed 18 98 33 cf 2d b7 26
       2.9015542e-08 -8.5603024e-16 7.0825855e-08 1.2710592e-15
000350 e7 19 36 aa 4b e3 20 30 95 0f 16 a8 af 38 9c b5
       -1.6173834e-13 5.8530664e-10 -8.3300515e-15 -1.1639403e-06
000360 b0 27 e8 a5 c3 59 ce 29 59 86 09 27 25 25 80 31
       -4.0272478e-16 9.163809e-14 1.90854e-15 3.729513e-09
000370 bb 99 5a 34 02 16 a6 ad 24 ff 25 26 48 91 16 a5
       2.0358759e-07 -1.8881788e-11 5.7591655e-16 -1.3059649e-16
000380 8c 6c 93 a9 a9 39 98 2f d3 1f a6 36 21 ea 9f 30
       -6.546941e-14 2.768961e-10 4.9508903e-06 1.1635316e-09
000390 2d fb 46 29 94 19 56 a5 db 53 bc a4 b4 8f 81 2c
       4.4182692e-14 -1.8570207e-16 -8.167406e-17 3.6823548e-12
0003a0 29 2f 82 aa bf d7 2b 25 1b e6 bf ae 5e 6b 25 b0
       -2.3125363e-13 1.4904983e-16 -8.726549e-11 -6.017923e-10
0003b0 e2 8f 83 34 ed 6b 1d ab 10 3a 5b 2d 2d 2f 8d ae
       2.450534e-07 -5.592738e-13 1.2461601e-11 -6.420318e-11
0003c0 cc 79 99 36 89 46 8b b1 de e0 06 2e 97 bb 24 34
       4.5739343e-06 -4.0534514e-09 3.0667795e-11 1.5341935e-07
0003d0 9b 0d 84 25 f5 b3 03 b6 12 bf 05 a8 0e 2a b4 b1
       2.290757e-16 -1.962527e-06 -7.424415e-15 -5.2434705e-09
0003e0 5d fa 08 2a f2 db e4 2a e8 e7 0a 35 6b fb 2c a8
       1.2166089e-13 4.0653554e-13 5.1746474e-07 -9.602436e-15
0003f0 87 d6 95 30 08 47 5e b7 eb 07 a2 37 71 30 f7 b1
       1.0902149e-09 -1.3248769e-05 1.9315592e-05 -7.1941533e-09

gc1.bias f4 [60]
000000 ca b7 a8 3c 65 d4 1d 3e a8 ce 8c 3d ed 41 e0 b5
       0.02059545 0.15413053 0.06875354 -1.6708487e-06
000010 d3 4a 13 3d 08 67 98 3d a3 09 6e 3e ee 99 c8 ba
       0.03596003 0.07441527 0.23245864 -0.0015304664
000020 8e 58 17 39 67 6c 32 3e 80 27 50 bd fe 24 bf 3d
       0.00014433471 0.17424165 -0.05081892 0.093332276
000030 09 e3 83 3c 4d ee cb 3d d8 8b f7 3d 9d 5f 6f bd
       0.01609947 0.09957562 0.1208722 -0.058440793
000040 f4 a3 0c 3e 59 be 55 3e b2 b0 20 3e be 7b c4 3d
       0.13734418 0.20873393 0.15692404 0.095939144
000050 99 77 3c 3e e8 40 8c 3d ef ee 1e 3e b4 56 9d 3c
       0.18404998 0.068483174 0.15520833 0.019206382
000060 1c 4f 81 bb af 40 2b 3e c2 bd fe 3d 9c c8 14 3e
       -0.003946198 0.16723894 0.12438537 0.14529651
000070 76 58 30 3e 8e 13 9a 3c 70 58 e8 bc 63 16 35 3e
       0.17221245 0.018808153 -0.028362483 0.17684321
000080 f7 1a c5 3d d4 dd d1 3d 47 6f 28 3e 4a bf ca ba
       0.09624284 0.102473885 0.16448699 -0.0015468386
000090 70 d9 85 bc e2 c0 72 3e 95 9c 96 3d ed 50 e4 3d
       -0.016339034 0.23706391 0.073540844 0.11148248
0000a0 ce e9 23 3c d6 e9 0f 3e 8a 66 e9 3d 14 00 91 3d
       0.010004474 0.14054045 0.11396511 0.07080093
0000b0 54 26 1c 3e 81 81 1d 3e ce b6 ff 3d c9 dc 84 3d
       0.15248996 0.15381433 0.12486039 0.06487424
0000c0 38 d3 33 3e 0f 30 3f 3e 9f 0c b5 3d d4 00 c3 3d
       0.17561042 0.18670677 0.08840298 0.09521642
0000d0 d8 68 a4 3d 35 5d 1c 3a 08 4d a1 3d 44 f7 6b bd
       0.0802781 0.00059648167 0.07876021 -0.057608858
0000e0 c2 1a ce 3d b7 62 fc ba 1a 20 88 bc 6a d8 16 3e
       0.100636974 -0.0019255494 -0.01661687 0.14730993

gc2.weight f4 [60, 60]
000000 dc 3d 9e bc 3a ed ec bd b2 72 13 bd be e2 e0 3d
       -0.019316606 -0.11568685 -0.035998054 0.10980748
000010 d0 6f c2 3c 7c d8 bc bc 2a ce 89 3d 2e d6 cb 3d
       0.023734957 -0.023052447 0.06728776 0.09952961
000020 74 be cd 3d 1c a0 c3 bd c0 dc 17 3c 22 1d d9 bd
       0.10046092 -0.09552023 0.0092689395 -0.1060126
000030 39 4b b6 bd 76 06 cb 3d 2b a6 d2 bd 04 aa 81 bd
       -0.08901066 0.09913342 -0.102856 -0.06331256
000040 b8 97 7d 3d fd 9f 00 3e 4a 6b 00 be fb 9b aa bd
       0.06191227 0.1256103 -0.12540928 -0.08330532
000050 56 5b 4f bd f2 d0 cc 3d 0a 15 9a 3d a0 d4 a4 3d
       -0.050624214 0.10000791 0.07523544 0.080483675
000060 16 6a a9 3d 42 56 04 bd d4 f2 c2 3d 80 bf 6d bb
       0.082721874 -0.032308824 0.09518972 -0.0036277473
000070 30 ba 46 3c 3c 3b 0c bd ac 51 60 3d 68 23 6c 3d
       0.0121293515 -0.034236178 0.05476539 0.057650954
000080 58 35 60 bc 04 c2 e8 3d 1e f3 08 bd 9c d7 05 3d
       -0.013684593 0.113651305 -0.03343498 0.032676324
000090 d2 23 f0 3d fa f6 94 3d 0a 8e 40 bd 50 88 6f bd
       0.11725582 0.072736695 -0.04701046 -0.058479607
0000a0 d0 1b cc 3c 80 3e 80 ba f0 dc 14 3c 70 50 aa 3d
       0.024915606 -0.0009784251 0.009085879 0.083161235
0000b0 bc d6 38 3d e0 48 94 bd b2 de d7 bd de f6 f9 3d
       0.04512666 -0.07240462 -0.10540523 0.12205289
0000c0 d0 db 68 bc 18 53 50 bd 34 30 c2 bd c2 e4 fd 3d
       -0.014212564 -0.050860494 -0.0948185 0.12397148
0000d0 62 6a 85 3d 1d 9c a7 bd 87 59 e4 bd ac af e5 3d
       0.065144315 -0.08184073 -0.111498885 0.112151474
0000e0 b0 aa 63 3d 24 59 9b bc 4c bc db bd 78 40 a0 3d
       0.055582702 -0.018963404 -0.10729274 0.078247964
0000f0 32 7a b3 bd be ec 81 3d 1a 1e fb bd da bc eb bd
       -0.08763541 0.06343983 -0.12261601 -0.1151063
000100 30 a4 fd bd 98 af ef 3d 40 44 f0 3d c0 9a e1 bd
       -0.12384832 0.11703414 0.11731768 -0.11015844
000110 0e 63 cc 3d e7 b4 a0 bd 83 b7 f5 bd 84 7c 7e 3d
       0.09979831 -0.078470044 -0.11997893 0.062130466
000120 3c e0 95 3d e6 dd 95 3d 58 9a b9 3c 1a be fd 3d
       0.0731816 0.073177144 0.022656605 0.123897746
000130 eb c3 e3 bd bc fa 73 3d e4 90 27 bd c0 ed d0 3b
       -0.11121353 0.05956529 -0.040909663 0.0063759983
000140 ba 59 b6 3d c2 55 bd bd c0 bb 67 3d c0 3d d3 bc
       0.08903833 -0.09244873 0.056575537 -0.02578628
000150 3a 04 ab 3d 80 2c 5e bb 30 2d 83 3d 7e af fd 3d
       0.083504155 -0.0033901036 0.06405103 0.12386988
000160 12 ce 3c bd 95 38 02 be ee 65 f9 3d c2 90 91 bd
       -0.04609496 -0.12716897 0.12177645 -0.071076885
000170 48 b0 f1 3c 12 70 a4 3d 98 3c a4 bc 5e a2 ce 3d
       0.029503003 0.08029188 -0.020048425 0.10089563
000180 bc 57 ab 3d d8 eb d4 bc 84 a4 0a 3d 80 4b 20 3c
       0.083663434 -0.025991365 0.0338483 0.009783626
000190 e3 53 01 3e 80 0c b7 3d 3a 19 b0 bd d0 cc 4b 3c
       0.12629656 0.08937931 -0.085985616 0.012438968
0001a0 b2 9a 8e 3d ac 21 ca 3d dc 8b 34 3d 40 b1 60 3d
       0.069630995 0.09869704 0.044078693 0.05485654
0001b0 ec 43 c3 bc c0 82 37 3b 4c fd b6 bd 4e a9 d9 3d
       -0.023836099 0.0028001517 -0.08935031 0.106279954
0001c0 0e 32 d0 3d 9d 96 91 bd 5c 5c e2 bd 28 2c ce 3d
       0.10165797 -0.07108805 -0.110527724 0.10067016
0001d0 38 56 ea bd 0c 90 a9 3d 15 c4 00 be 51 2c 87 bd
       -0.11442226 0.08279428 -0.125748 -0.066002496
0001e0 2a e3 5f bd fa 7a f8 3d 7c f5 b2 bc 70 10 e4 3d
       -0.05466 0.12132831 -0.021845572 0.11135948
0001f0 e0 a2 19 3d 2d 12 00 3e 32 1f af 3d 7c b8 c2 3d
       0.037508845 0.12506934 0.08550872 0.09507844
000200 5e 83 e6 3d 66 3b 1c bd 84 63 11 bd 90 61 2a 3d
       0.11255525 -0.038142584 -0.035495296 0.04159695
000210 d4 ea e8 3d 76 99 42 bd 3a fa cf bd 94 d3 ce bd
       0.11372915 -0.047509633 -0.10155149 -0.10098949
000220 3a 4d 74 bd e0 c0 a8 3c a0 c4 74 bc 94 04 0d bd
       -0.05964396 0.020599782 -0.014939457 -0.034428194
000230 78 35 77 bd 78 8a 09 3d 88 c9 d9 bd 29 0f 02 3e
       -0.060353726 0.03357932 -0.10634142 0.12701096
000240 3c c9 a3 bc 08 55 c5 3c 24 32 2e 3d 82 bf 4d bd
       -0.019993417 0.024088398 0.042528287 -0.050231464
000250 b4 a8 d0 3d 00 d4 7a ba 00 84 2d 3c c2 b1 fb bd
       0.101884276 -0.00095683336 0.010590553 -0.12289764
000260 28 e8 82 3c 2c 71 35 3d 20 5f 93 3c 48 9f 51 bc
       0.015979841 0.044297382 0.017989695 -0.012794323
000270 b8 a4 c7 3d 4a 08 d1 3d bc 06 b6 3d 4c 8e b7 bc
       0.097482145 0.10206659 0.08888003 -0.02240672
000280 18 b1 b6 3c 1c 9b b8 bd 10 f0 c5 bd 90 d6 b8 bc
       0.022301242 -0.0901396 -0.09664929 -0.022563249
000290 10 6c 6c 3c 99 ff 99 bd 7e b0 dc bd 78 8e 70 3d
       0.014430061 -0.075194545 -0.10775851 0.05872962
0002a0 38 55 41 3d de af ae bd 48 f0 af 3d 42 a0 c5 bd
       0.04720041 -0.08529638 0.08590752 -0.096497074
0002b0 34 01 c8 3d 66 75 8c 3d cc b6 32 bd 46 b8 fb 3d
       0.097658545 0.068583295 -0.04363136 0.12291007
0002c0 8b 73 94 bd 16 8c 71 bd dc bb d2 3d 82 42 08 bd
       -0.072486006 -0.058971487 0.102897376 -0.03326655
0002d0 9e 92 55 bd 78 a4 a3 3c a4 b4 b2 bc 22 91 a6 3d
       -0.05214178 0.019975886 -0.021814652 0.08133151
0002e0 34 dc d7 3d 44 37 6b 3d a8 b8 e4 3c 5c d7 04 3d
       0.10540047 0.057425752 0.027920082 0.032431945
0002f0 00 47 5c 3b 00 66 78 3c 00 a9 20 3b 3a 4a b4 3d
       0.0033611655 0.015161037 0.0024514794 0.0880322
000300 e0 da 93 3d 78 aa 54 bc 7c af 47 3d 00 f6 e9 3b
       0.072194815 -0.012980096 0.04875134 0.007139921
000310 a8 dd 3a 3d b2 11 d9 3d 67 e3 b3 bd c0 4a 96 3c
       0.045621544 0.10599078 -0.08783608 0.01834619
000320 48 05 dc bc 1c 3d 01 be b3 75 00 be 8c 7a 8a bc
       -0.026857987 -0.12620968 -0.12544899 -0.016904138
000330 c0 3b bd 3d b4 56 ae bd 38 3f 2c 3d 70 62 98 3d
       0.09239912 -0.08512631 0.042052478 0.074406505
000340 7b b6 c0 bd f4 18 63 3d 00 9a c7 3c 81 b5 f0 bd
       -0.094098054 0.05544372 0.024365425 -0.11753369
000350 80 ab 22 bb 83 37 f8 bd 6e 29 e7 3d b4 d5 77 3d
       -0.002482146 -0.12119963 0.11287199 0.060506538
000360 2c 9d 4a 3d bc fb ca 3d 4e 33 ca 3d 51 3d 03 3e
       0.049466297 0.09911296 0.09873067 0.12816359
000370 78 2b 5a 3d 52 e3 be bd 8a 94 f5 3d e8 e3 12 3d
       0.05326411 -0.09320702 0.11991222 0.03586188
000380 10 73 50 bd 30 cc 44 bd 92 67 f7 3d f8 ee ea 3c
       -0.050890982 -0.04804629 0.12080301 0.028678402
000390 b4 2c c0 3d 00 f6 24 3c 2e 3b f4 3d 7a 77 c1 bd
       0.093835264 0.010068417 0.1192535 -0.094466165
0003a0 a0 0e fc 3c d0 5b fc 3c 80 28 c3 ba 18 33 eb 3d
       0.030768692 0.030805498 -0.0014889389 0.11484355
0003b0 08 60 d4 3c 20 29 e5 3b 66 75 b4 3d f0 fb 26 bc
       0.025924698 0.006993428 0.088114545 -0.0101919025
0003c0 a0 a9 08 bc c4 fb d9 bd 00 ba 5d ba a0 d3 76 bd
       -0.008341223 -0.106437236 -0.0008458197 -0.060260415
0003d0 92 14 99 3d fe 01 e6 3d a9 a9 f6 bd 54 24 99 bd
       0.074746266 0.11230849 -0.12044079 -0.07477632
0003e0 56 8d fe 3d 2e b3 61 bd fe 22 eb 3d 43 28 02 3e
       0.124293014 -0.05510252 0.114812836 0.12710671
0003f0 3c 9d 04 bd af 06 d6 bd ee 33 84 3d c8 5f 70 3d
       -0.032376513 -0.104504935 0.06455217 0.058685094

gc2.bias f4 [60]
000000 20 07 bf bb e0 a6 77 3d f3 f9 c9 bd 3e 8b 0d bd
       -0.005829707 0.06046188 -0.09862127 -0.03455662
000010 17 16 a1 bd 3d 25 ef bd 00 2d bd bd 01 e1 a9 bd
       -0.078655414 -0.116770245 -0.09237099 -0.08294869
000020 de 50 c9 3d 1c 9b a1 3d a2 7e b3 bd 36 a6 d0 bd
       0.09829877 0.07890913 -0.08764388 -0.10187952
000030 aa c6 ec 3d 70 08 fb 3c 14 82 73 3d 90 28 a5 3c
       0.1156133 0.030643672 0.059450224 0.020160943
000040 ce 94 45 bd 7c d7 8e bd 30 40 8e 3d 91 97 02 be
       -0.048237614 -0.06974694 0.069458365 -0.1275313
000050 4e 02 dc bd 58 af 1f 3d 02 ac 0a bd f8 4b ca 3c
       -0.10742627 0.03898558 -0.033855446 0.024694428
000060 a0 03 8d 3d 8e f0 97 bd ca d4 94 bd 81 9e a2 bd
       0.06885457 -0.07418929 -0.07267149 -0.079403885
000070 7b 55 e7 bd f0 2c 0f bc 12 84 e0 3d e0 47 01 bc
       -0.11295601 -0.008738741 0.109626904 -0.0078906715
000080 86 00 91 3d 2e 7d 83 bd 30 dd 51 3c a4 88 c6 bd
       0.07080178 -0.064203605 0.012809083 -0.09694031
000090 90 d0 0b bc 00 16 e8 3c 66 40 62 bd c0 be f2 3d
       -0.008533612 0.028330803 -0.055237196 0.11852789
0000a0 2c 4c 15 3d 10 3f 84 3d 13 91 03 3e 3c 28 60 3d
       0.036449596 0.06457341 0.1284831 0.05472587
0000b0 38 2c 26 bc d4 8c 7c 3d d7 45 02 3e 2e 8b fe bd
       -0.0101423785 0.06165774 0.12721954 -0.1242889
0000c0 e4 64 c7 bc 40 64 80 3d 6a 2a 00 bd 3b 1b d7 bd
       -0.0243401 0.06269121 -0.03129045 -0.10503241
0000d0 20 7c 99 bd a2 6b 89 bd a8 3a 5b 3d 6a 54 a8 3d
       -0.07494378 -0.067099825 0.053522736 0.08219226
0000e0 f8 b4 70 bc 7a 57 d8 bd 18 44 96 3c 54 d6 13 3d
       -0.014691584 -0.1056356 0.018343017 0.03609307

gc3.weight f4 [60, 60]
000000 b0 76 47 bd 04 56 36 3d 0a 02 58 bd c0 03 32 3d
       -0.048697174 0.044515625 -0.05273632 0.043460608
000010 fe 2b bd 3d 24 dc 83 3d 20 e4 47 bc 52 f3 fd 3d
       0.092369065 0.06438473 -0.012200385 0.12399925
000020 e8 fe 39 bc d8 d3 eb bd e4 0c be 3d c0 d9 f5 3d
       -0.011352278 -0.11515015 0.092798024 0.12004423
000030 f0 51 71 3d 5e b6 e7 3d 34 cd 8e 3d 78 d6 57 3d
       0.058916032 0.11314081 0.06972733 0.052694768
000040 e6 15 99 3d d1 1a cb bd 00 e8 c9 ba c6 e5 61 bd
       0.0747488 -0.09917224 -0.0015404224 -0.05515077
000050 bc 76 11 3d 64 d0 e9 bd e0 16 fa 3b 6c e0 4e 3d
       0.035513625 -0.114167005 0.0076321214 0.050506994
000060 e8 7d 44 bd 02 47 55 bd a2 79 ab bd 24 97 11 3d
       -0.047971636 -0.05206967 -0.08372809 0.03554453
000070 18 ef dd bd bc 13 d9 bc 60 4c eb 3b c4 de 16 3d
       -0.10836619 -0.026498668 0.0071807355 0.03683354
000080 94 fb e2 bd d8 68 d5 3c c0 74 4f bd 20 41 76 bc
       -0.11083141 0.02605097 -0.05064845 -0.015030175
000090 a2 ee c0 bd d6 a9 cf bd 50 45 90 3c a8 96 b3 3c
       -0.094205156 -0.101398155 0.017611176 0.021922424
0000a0 a0 3c e3 3d 5a c8 f8 3d ea 2d c1 3d 90 e5 4c 3d
       0.11095548 0.12147589 0.094325855 0.050023615
0000b0 6e d7 af 3d ac d1 61 3d ce 4e f6 bd de 6a c0 3d
       0.08586012 0.0551316 -0.120267496 0.09395383
0000c0 78 66 80 3c 96 de 03 bd b2 42 1d bd 6e e5 d2 3d
       0.01567386 -0.032194696 -0.038393684 0.102976665
0000d0 5c 80 b8 3d 80 7a 44 bc c6 ab 45 bd 5e 26 8e bd
       0.090088576 -0.011992097 -0.04825952 -0.06940912
0000e0 b4 6b 98 3d 48 57 a0 bd 18 48 af bd ae aa 9e bd
       0.07442418 -0.078291476 -0.08558673 -0.07747398
0000f0 94 89 19 3d 8e ad ca 3d 70 61 d3 3c bc 1a 45 3d
       0.03748472 0.09896384 0.025803298 0.0481212
000100 ef 89 d5 bd 4c 1a c0 bd 91 da 9a bd c2 2f a9 bd
       -0.10426699 -0.09380016 -0.075612195 -0.08261062
000110 40 0b 6c bd f2 4a a0 bd a6 04 2d bd c4 ab a3 bd
       -0.057627916 -0.07826795 -0.04224076 -0.07991746
000120 d4 82 1d 3d 80 58 5a 3b 00 47 d7 3b 58 32 60 3d
       0.038454846 0.003331691 0.006569743 0.05473551
000130 f1 0b ee bd ba 05 4f bd 50 b1 8f bb 0b 0c f7 bd
       -0.116233714 -0.05054257 -0.004385151 -0.12062844
000140 5c 7f 8c 3d 0c 88 c6 bd 5e ba b2 3d f7 d3 02 3e
       0.068602294 -0.09693918 0.08726953 0.1277617
000150 30 f4 d9 3c 1b b0 80 bd 4e 9a ba 3d 3d 55 ad bd
       0.026605695 -0.062835895 0.091114625 -0.084635235
000160 a0 4a c8 3b e2 c4 a5 3d 5a de f7 3d 00 fd 1a 3c
       0.0061124116 0.08094193 0.12102957 0.009459734
000170 e0 88 20 bc b0 8b 37 bc 3b 2b 00 be 38 ee bb 3c
       -0.009798259 -0.011202738 -0.12516491 0.02294074
000180 21 dc d1 bd 00 24 3e 3c bc 4d fb bc 26 20 a8 3d
       -0.102470644 0.011605263 -0.030676715 0.08209257
000190 a8 ba 53 bd 6a ea bb 3d cc 02 fc bc d4 8b cc bc
       -0.05169168 0.0917557 -0.030763052 -0.024969019
0001a0 ac b1 f0 bd fc c7 e5 3d 60 f3 36 3c 1e 4a ee bd
       -0.11752638 0.112197846 0.011166424 -0.116352305
0001b0 20 e8 ed 3b 9c 93 58 3d 44 7d df bc b0 c2 d7 3d
       0.0072603375 0.052875146 -0.027281411 0.105351806
0001c0 e8 4f 81 3d 40 8f 87 bc 77 2a 04 3e 4e 77 ba 3d
       0.06314069 -0.0165478 0.12906824 0.09104787
0001d0 30 b9 81 bc 60 b5 36 bc 50 49 22 3d 3e 43 38 bd
       -0.015835375 -0.011151642 0.039620697 -0.044986002
0001e0 4c c3 a2 3d e8 5f fe bd 08 a6 8d bd b8 63 72 3d
       0.07947406 -0.124206364 -0.069164336 0.05917713
0001f0 68 c2 fd bd 58 34 2f bd b4 95 8c bd 10 3b 8f 3d
       -0.12390596 -0.04277453 -0.06864491 0.06993687
000200 a0 b2 d4 3b 3a c9 bb bd 2e 0f d5 3d ca 24 71 bd
       0.0064910203 -0.0916924 0.10403286 -0.058872975
000210 48 5b 69 bc 38 6d 32 3d 36 4c b0 bd e8 16 43 bc
       -0.014242955 0.04356119 -0.08608286 -0.011907317
000220 fe 23 32 bd 64 d9 fa bc 96 d0 3f bd e8 3c a9 3d
       -0.043491356 -0.030621238 -0.046829782 0.0826357
000230 ee ec 81 bd f7 6e b2 bd 34 6c 64 3d cc 53 2b 3d
       -0.06344019 -0.08712571 0.055767253 0.04182796
000240 00 b1 b0 3a 20 4c 2e 3c a3 c0 01 3e 26 e7 30 bd
       0.0013480484 0.010638267 0.12671141 -0.04318919
000250 7e f3 eb bd 80 35 02 be 00 17 09 3d 48 19 4e 3d
       -0.11521052 -0.12715721 0.0334692 0.05031708
000260 00 1f ef 3a a5 ba db bd ad 87 ce bd 88 27 b4 bd
       0.0018243492 -0.10728959 -0.10084472 -0.087966025
000270 88 36 aa 3d d8 40 cf 3c 71 42 93 bd 88 0a fa bd
       0.08311182 0.025299475 -0.07190407 -0.1220904
000280 7c e5 97 3d 00 d4 b5 3a 03 68 03 3e b7 a0 d8 bd
       0.074168175 0.0013872385 0.12832646 -0.10577529
000290 3e 73 d6 bd a0 77 b6 3c 66 35 b1 3d 04 a6 ae 3d
       -0.104711995 0.022273839 0.08652763 0.08527759
0002a0 b9 6e 03 3e 0a 53 a8 3d 58 32 6c 3d ff 90 a2 bd
       0.12835206 0.082189634 0.0576652 -0.07937812
0002b0 8b 46 02 3e 4a 06 6a bd 0e 06 aa 3d 48 8a 59 3d
       0.12722223 -0.057134904 0.08301936 0.05311039
0002c0 4e b7 9c bd 30 f5 3c bc 88 1f 30 bc 4a a4 c7 3d
       -0.0765215 -0.011533067 -0.010749705 0.097481325
0002d0 50 51 ca 3d 60 c1 e2 3c 15 41 96 bd 60 9a 16 3d
       0.098787904 0.027680099 -0.07336632 0.036768317
0002e0 9e 9f d8 3d ce 1a 8c bd 1a e5 d3 3d d0 fc ee 3c
       0.105773196 -0.0684105 0.10346432 0.029173285
0002f0 c4 40 92 3d 9c 62 35 3d 5c eb a6 3d fe f1 e0 bd
       0.07141259 0.044283494 0.0815036 -0.10983656
000300 84 64 5a 3d ef 47 e5 bd d0 55 10 bc 56 c3 ce 3d
       0.053318515 -0.11195361 -0.008809522 0.10095851
000310 74 d2 d8 bd 4b 1c c9 bd 68 c2 67 bd 00 2a 9f 3b
       -0.10587016 -0.098198496 -0.056581885 0.0048573017
000320 58 37 92 bc e6 88 cf bd e8 cc 89 3c 16 d6 04 bd
       -0.017848656 -0.10133533 0.01682134 -0.03243073
000330 10 f8 76 bd 00 b3 b8 3a cc 93 33 3d 88 ab a9 3c
       -0.060295165 0.0014091432 0.043842122 0.020711675
000340 f2 44 af bd 94 3a b3 3d 78 89 c7 3c fe 84 58 bd
       -0.08558072 0.08751407 0.024357542 -0.052861206
000350 d6 db e4 3d 88 30 d5 3c 5a 7d 89 3d 14 f2 ba 3d
       0.11174743 0.026024118 0.06713362 0.09128204
000360 00 c7 16 bb 00 e6 d9 3d 00 fb 16 ba ea 84 d3 3d
       -0.0023006797 0.10639572 -0.0005759448 0.10328086
000370 90 47 80 3c a8 51 73 3d 36 25 85 3d 94 88 92 bd
       0.015659124 0.059404045 0.06501238 -0.071549565
000380 8e 0d e7 3d 20 47 80 3b c4 59 42 3d 9e 13 c3 bd
       0.11281882 0.0039147288 0.04744889 -0.09525226
000390 e0 61 45 bd 1a 5a ac 3d 92 dc a6 bd 30 85 92 3c
       -0.048189044 0.08415623 -0.08147539 0.017885774
0003a0 a0 2a e8 3d 44 21 fb bd 00 e7 ba ba f0 da ab 3c
       0.11336255 -0.12262204 -0.0014259517 0.020978421
0003b0 c4 49 ad 3d a4 ab 31 bd f8 32 01 be 09 a4 a3 bd
       0.08461335 -0.04337658 -0.126171 -0.079902716
0003c0 64 b4 1e 3d 50 b4 c2 bd 63 54 e2 bd c0 77 55 bb
       0.038746253 -0.09507048 -0.11051252 -0.0032572597
0003d0 c0 be 0a 3d 08 cb a5 bd d0 62 4d bd 1a a0 90 3d
       0.03387332 -0.08095366 -0.050143063 0.07061787
0003e0 fe c3 b2 bd a9 7a d9 bd 74 d1 1f bd fa 6f d4 3d
       -0.08728789 -0.10619099 -0.03901811 0.1037292
0003f0 ac 08 1b bd 2d 39 b3 bd 18 91 bb bd a8 8d f8 bc
       -0.037850067 -0.0875114 -0.09158534 -0.030340984

gc3.bias f4 [60]
000000 35 de 85 bd 65 4b 81 bd 44 73 00 3d 0c 01 8a bd
       -0.06536523 -0.063132085 0.031359926 -0.06738481
000010 58 0d 64 3d 26 2d f9 bd e4 db 41 bd 07 d4 03 3e
       0.055676788 -0.121668145 -0.047328845 0.12873851
000020 b0 34 d6 bb 12 a6 8f 3d a4 63 ee 3d b6 1d 17 bd
       -0.0065370426 0.07014097 0.11640099 -0.03689357
000030 8c 85 f6 bc 8c ca 97 bc 82 b6 83 bd c0 fa 7e bb
       -0.030092977 -0.018529199 -0.06431295 -0.0038906783
000040 b0 fe 7b 3d fe 32 e4 3d 48 e8 b6 3d 1d 31 02 3e
       0.061522186 0.111425385 0.08931023 0.12714048
000050 1b 87 85 bd a8 43 b6 bd 23 59 02 be c2 ad 9b 3d
       -0.0651991 -0.08899623 -0.12729315 0.07601501
000060 28 71 6a 3d dc 1f fd bc b8 98 da 3d be 4c be bd
       0.05723682 -0.03089898 0.1067366 -0.09291981
000070 ac 1b ab bc 40 4f 5d bb d8 a4 54 3d 8c 7f dc 3d
       -0.020887218 -0.003376916 0.05191502 0.10766515
000080 3a 54 96 bd 95 dd 03 3e 26 d5 fb 3d 80 ae 0c 3d
       -0.07340284 0.12877496 0.12296514 0.034346104
000090 ac 02 ae bd a8 59 2e 3d e8 62 dc 3c a4 bb 3f bd
       -0.08496603 0.04256597 0.02690263 -0.046809807
0000a0 0e 89 fe 3d b2 5f d4 bd 92 d6 3b bd 7e 59 46 bd
       0.12428485 -0.10369815 -0.045858927 -0.04842519
0000b0 9a c4 12 bd e0 f5 c3 3d 30 85 d2 bb a0 27 93 3c
       -0.035832025 0.09568381 -0.0064245686 0.01796323
0000c0 bb cd eb bd 78 d5 b2 bd 44 14 a6 3d ba 9f 21 bd
       -0.11513849 -0.08732122 0.08109334 -0.039458968
0000d0 a4 29 3d 3d bf c6 cb bd f2 21 96 bd 80 71 7e 3d
       0.04618229 -0.09950017 -0.07330693 0.06211996
0000e0 b4 30 ba 3d 10 78 03 3c 70 6b ef bd 8a 57 a6 bd
       0.09091321 0.008024231 -0.11690414 -0.081221655

gc4.weight f4 [60, 1]
000000 ef bd 38 bf 5b a3 72 3f cc 2d 6a bf d2 3d bd 3b
       -0.72164816 0.9478051 -0.9147613 0.005775192
000010 6f ab e7 bf 3e b5 8e bf 39 a8 2c 3f 54 03 09 ba
       -1.8099192 -1.1149061 0.6744419 -0.0005226631
000020 e5 e0 43 bc d5 b1 4b 3e 25 ed 2b bf a9 1a 1c bf
       -0.0119554745 0.19892056 -0.6715873 -0.6097818
000030 7e 13 52 bf 4a 48 aa bf fd db df 3e 52 3b 6a bf
       -0.8206099 -1.3303311 0.43722525 -0.91496766
000040 a1 5c 98 3e 2d fb 60 3e 45 93 3d 3f c6 a8 a2 3e
       0.2975817 0.21970816 0.7405284 0.3176939
000050 40 87 99 bf 96 cb 8b bf ce 83 85 3e c0 97 6f bf
       -1.19944 -1.0921504 0.26077121 -0.9359093
000060 97 4a b2 3b 6b b3 3b 3f 8c 26 c2 3e f6 5d cb bf
       0.0054410207 0.73320645 0.37920034 -1.588805
000070 7d 30 9a 3e f5 77 51 3f 2d 7f ea bf 88 8d 61 bf
       0.3011512 0.81823665 -1.8320061 -0.88106585
000080 ee a3 15 3e d1 8f fa bf 3e dd 2f 3f 79 54 96 3a
       0.14613315 -1.9575139 0.68696964 0.0011469267
000090 67 19 9d bf 66 7e d4 be da e4 bb bf 1b 98 18 bf
       -1.2273377 -0.41502684 -1.4679215 -0.59607095
0000a0 09 54 cc be b8 49 94 3e a9 2e 64 3e 5c 7e 86 3d
       -0.39907864 0.28962493 0.22283424 0.0656707
0000b0 26 65 8e 3e 8a b3 39 3e 2c 7c 87 bf 33 20 84 bf
       0.27811545 0.18134895 -1.0584769 -1.0322326
0000c0 42 d0 c7 3e bc ba 1b 3f 99 5b ca bf 7a 93 bb bf
       0.39026076 0.6083181 -1.5809203 -1.4654381
0000d0 51 05 e6 bf 11 92 f3 bf a2 0a 9b 3e 85 63 8f bf
       -1.7970372 -1.9028951 0.3028155 -1.1202246
0000e0 dc 8e 87 bf d9 3a a5 bf 06 16 c8 bf 24 02 e1 3e
       -1.0590472 -1.2908584 -1.5631721 0.43946946
