pyperplan/src/checkpoints/standard.pth (torch_old, 50427 bytes, 7 tensors)

gc1.weight f4 [81, 60]
000000 a4 61 82 25 70 33 ef b6 f8 ba 8c a3 e7 a7 fe 27
       2.261757e-16 -7.128743e-06 -1.5258015e-17 7.0681202e-15
000010 cf d1 e3 2a cb ed 83 35 de e2 fa 2a c9 84 d6 2e
       4.0468884e-13 9.829467e-07 4.4566342e-13 9.755181e-11
000020 43 61 96 33 71 66 a0 b4 94 cd 42 2a 8f d0 fb a8
       7.002611e-08 -2.9876858e-07 1.7301986e-13 -2.7957046e-14
000030 f3 58 8f 2e 17 f1 4f 27 a4 5c 6e b1 d1 a4 4c aa
       6.518688e-11 2.8857716e-15 -3.4686218e-09 -1.8176022e-13
000040 bf 4a d1 a5 79 5d 79 ad 06 a5 2f 27 49 e2 a1 37
       -3.630637e-16 -1.4174766e-11 2.4375588e-15 1.9298068e-05
000050 55 b8 91 b3 c2 41 f0 27 b6 7c f6 2a 4a 3b 56 36
       -6.7856185e-08 6.6684676e-15 4.3784914e-13 3.1922996e-06
000060 22 24 72 29 8c 87 2e 29 d0 fb 1a 30 10 08 1b b1
       5.3766135e-14 3.875333e-14 5.638272e-10 -2.2560052e-09
000070 ff 1c a6 a7 9c c2 76 2e 40 4e 8f 32 42 9c 08 29
       -4.6105693e-15 5.6106772e-11 1.6682975e-08 3.03336e-14
000080 ac 34 8b b1 a6 40 bb 27 c2 78 99 ab 43 24 6b 25
       -4.0514205e-09 5.197302e-15 -1.0904821e-12 2.0395287e-16
000090 cf b2 83 2a a3 ab a1 b6 65 4b c7 2d e2 18 98 a5
       2.3394348e-13 -4.818155e-06 2.2657163e-11 -2.6384658e-16
0000a0 b2 c5 9a 33 33 3c 7e 35 54 75 1d b8 be 50 3f a6
       7.2071444e-08 9.4709975e-07 -3.7540987e-05 -6.6375863e-16
0000b0 b9 19 3e a6 a9 51 83 2a 20 f9 74 2e 2e 00 2a 28
       -6.5954353e-16 2.3326938e-13 5.5700444e-11 9.436935e-15
0000c0 6d 6b 44 b2 fa d4 3d ab cd ce 5b aa 54 e5 a0 ac
       -1.1433127e-08 -6.7441853e-13 -1.9522856e-13 -4.572934e-12
0000d0 ad 36 a4 28 e7 51 f3 a4 3b c3 68 2f 86 0d df af
       1.823137e-14 -1.055232e-16 2.1169637e-10 -4.0573073e-10
0000e0 1c 65 ab 27 8e 79 0e 26 37 59 5e b7 1c af 40 aa
       4.7571657e-15 4.9430884e-16 -1.3253003e-05 -1.7113779e-13
0000f0 fa 8f 20 bf 18 88 56 3e ed 58 f6 3e d3 78 5e bf
       -0.6271969 0.20950353 0.4811472 -0.86903113
000100 37 f3 78 3e 43 7b 49 bf 39 c5 15 3f 2a a6 c7 be
       0.24311529 -0.7870371 0.5850406 -0.3899396
000110 94 3d e6 be a7 9a af 3e 06 30 63 bc 49 ad ec 3e
       -0.44968855 0.34297678 -0.01386643 0.46225956
000120 5c 20 25 3f b8 fd 00 bf e1 7f ab 3e 33 24 0d bf
       0.645025 -0.50387144 0.33496 -0.5513336
000130 dc ba b8 3e 1d d1 eb 3e d6 64 eb 3e 71 dd a2 3e
       0.36080062 0.46057978 0.4597537 0.3180957
000140 55 1d 56 bf ce aa 25 bf 6d da d0 3e 09 e8 13 bf
       -0.8363851 -0.6471375 0.40791646 -0.5777593
000150 2f cb ab 3e d9 f2 fd bd 67 27 d7 3e 53 15 57 bf
       0.33553454 -0.12399835 0.4202225 -0.84016913
000160 b6 7c 83 3e 27 cc 05 be 1d 08 2c bf 60 42 59 bf
       0.25681084 -0.13066159 -0.6719988 -0.84866905
000170 77 8b bb 3e 71 4f 1b bc 8c c7 b9 3e b7 3a d7 3e
       0.3662984 -0.0094793895 0.36285055 0.42036983
000180 6d 51 91 3e f9 c9 06 bf a0 19 02 bf 2b c2 79 be
       0.28382435 -0.52651936 -0.5082035 -0.24390475
000190 24 1a 08 3f dc a1 a8 3e 93 69 c7 3e 08 ab 5a bf
       0.5316489 0.3293599 0.38947734 -0.8541722
0001a0 a0 4a 01 3f fd 71 ab 3e 48 c6 0e 3d 9d 34 1b bf
       0.50504494 0.33485404 0.034857064 -0.60627156
0001b0 8d 11 27 bd 47 9d 35 be 89 0b 62 3e 48 74 97 bd
       -0.040788222 -0.17735778 0.22074713 -0.07395226
0001c0 4d 35 74 3b 53 97 e5 be 47 5a ab 3e b6 4f ac 3d
       0.0037263215 -0.44842014 0.33467314 0.08413641
0001d0 34 85 a2 3e ab 6f 2f 3e 66 21 fd be 4b 37 af 3e
       0.3174225 0.17132442 -0.49439543 0.34221873
0001e0 38 68 63 3e e4 32 86 3d 36 c7 d6 3e ca 4f 2c bf
       0.22207725 0.06552675 0.4194886 -0.6730925
0001f0 58 45 03 bf 5f 61 e3 bc 04 95 79 3e 01 34 29 bf
       -0.51277685 -0.027756391 0.24373251 -0.66094977
000200 88 55 08 3e d4 bd 86 3e 74 b0 b7 bc f2 ed df 3e
       0.13313878 0.26316702 -0.022423007 0.43736225
000210 22 62 08 3f 3c bb 49 3f dc 82 b7 3e 85 75 30 bf
       0.5327474 0.7880132 0.35842025 -0.6892932
000220 03 db b8 3e ab e3 ab 3e c0 bb f0 3e f0 dc b8 3e
       0.36104593 0.33572134 0.47018242 0.36106062
000230 56 77 f8 be 8a 41 57 bf 78 10 9a 3e ac 8a 29 bf
       -0.48528546 -0.8408438 0.3009069 -0.6622722
000240 c4 25 8a 3e 5a b0 67 bd 5e 54 d1 3e d3 f9 05 bf
       0.26981938 -0.056564666 0.4088468 -0.52334327
000250 a3 ef 0b 3f bc ae d0 3e 9f 28 57 3e 00 29 28 bf
       0.5466253 0.40758312 0.2101159 -0.6568756
000260 2a 2d a5 3e 7d 28 1a bf 17 f8 04 3f 96 66 cf 3e
       0.3226102 -0.6021803 0.51941055 0.40507954
000270 31 36 0d bf a4 5d 04 3f 2e aa 2f bf 18 b0 10 bf
       -0.55160815 0.51705384 -0.6861905 -0.565187
000280 20 78 46 be 0a 18 ba 3e 1c de cf 3e 7e 47 fc be
       -0.19381762 0.36346465 0.40599144 -0.49273294
000290 e0 ff 81 3e 6c 16 b7 3e 04 ee 62 bf 90 0d 42 3e
       0.2539053 0.35759294 -0.88644433 0.18950486
0002a0 62 c1 b2 bd a5 5a 82 be 5d 27 fa be 4a f5 43 bf
       -0.08728291 -0.2545978 -0.48858157 -0.76546156
0002b0 a8 af 28 bf 19 29 4a bf f4 c1 b3 3e fb c5 51 bf
       -0.6589303 -0.7896896 0.35108912 -0.8194272
0002c0 5f 55 c2 3e af ca 48 bf 1b 44 53 3d e8 36 c4 3e
       0.37955758 -0.7843427 0.051578622 0.3832314
0002d0 04 d5 5f 2d 22 84 4a 2b d0 e8 43 37 6c 0d 0f b4
       1.2723381e-11 7.194819e-13 1.1677112e-05 -1.3322796e-07
0002e0 54 ab f9 30 6d 3a 78 34 9f 3b e4 2a 60 24 d2 a8
       1.8165829e-09 2.3118055e-07 4.0542306e-13 -2.3330459e-14
0002f0 ec fe 18 33 a9 ef 5d a8 90 de 29 b8 67 61 ff b0
       3.5622108e-08 -1.23199324e-14 -4.0500017e-05 -1.8581375e-09
000300 a6 aa 92 af 23 cb 9c 25 52 3d fb 29 2b b8 3e ac
       -2.6678498e-10 2.7199337e-16 1.11572765e-13 -2.7102858e-12
000310 c3 1a 92 a9 19 6a 6d 2c 36 55 20 36 33 88 8b 29
       -6.488345e-14 3.3738622e-12 2.3891457e-06 6.196467e-14
000320 12 2a 90 a8 6b 4a d9 b7 87 ac ba aa 6f a9 c1 24
       -1.6005457e-14 -2.590307e-05 -3.3159952e-13 8.398744e-17
000330 79 a4 2c 33 ac c4 22 38 d8 6a a4 b3 4d 9a 39 b7
       4.0196458e-08 3.8806975e-05 -7.65628e-08 -1.1062785e-05
000340 9d 10 08 2b fd 8e ef 32 90 ff 43 35 7a 2f b6 af
       4.833996e-13 2.7888285e-08 7.3015053e-07 -3.313934e-10
000350 43 9a 00 29 ce bc c8 2e c6 00 d6 2b 96 af bc 31
       2.855551e-14 9.1284855e-11 1.5205829e-12 5.491482e-09
000360 3d ab 83 24 03 61 9f b1 a5 e8 0d 35 59 07 a4 30
       5.710228e-17 -4.638538e-09 5.2865136e-07 1.1934659e-09
000370 6e 85 55 b6 06 13 43 27 15 88 07 28 2f 87 a3 31
       -3.181714e-06 2.7071999e-15 7.5235135e-15 4.759293e-09
000380 f5 99 73 a7 a3 9f 9a a7 76 76 84 a6 0d 34 ae 2b
       -3.3806485e-15 -4.2916665e-15 -9.191449e-16 1.2377891e-12
000390 9a 4d 1a ab dc 87 a9 b3 c3 c6 52 b2 60 ab 07 b5
       -5.4819484e-13 -7.8943884e-08 -1.2268802e-08 -5.05408e-07
0003a0 ae 91 83 b3 9a e0 23 b4 55 31 ad 29 22 35 09 2c
       -6.126662e-08 -1.5262268e-07 7.691301e-14 1.9498366e-12
0003b0 23 d2 79 2a 2e 8f 05 37 77 a8 85 aa ff 69 5e b5
       2.2188548e-13 7.960754e-06 -2.3742442e-13 -8.285569e-07
0003c0 df 61 2f 30 bb 6d c7 b2 ff 11 d6 a5 45 ce fa 34
       6.380371e-10 -2.3216549e-08 -3.7135277e-16 4.671621e-07
0003d0 ff f0 0b 2a f1 74 76 31 0c fc 7e b4 80 92 f2 b2
       1.2429292e-13 3.5864185e-09 -2.3747288e-07 -2.8239128e-08
0003e0 03 7a d5 25 8e 4b 47 2c 68 f8 16 2b 2c e9 81 b8
       3.7032288e-16 2.8321542e-12 5.363544e-13 -6.194631e-05
0003f0 82 62 7c 33 06 1c 7b 25 c6 d5 47 29 24 54 b3 34
       5.8762915e-08 2.1780274e-16 4.4372295e-14 3.3402569e-07

gc1.bias f4 [60]
000000 aa 0d ef 3d 26 3c 9a 3e c6 99 13 3e 7f 71 4d bd
       0.11672528 0.30124015 0.14414129 -0.050157066
000010 6d 18 8f 3d 08 11 45 3d da de 4a 3e 4c 3b 2e 3d
       0.06987081 0.048111945 0.19811574 0.04253702
000020 27 7d 83 bd 95 49 85 3e 8e 36 9c bc c4 ed 17 3e
       -0.06420355 0.260327 -0.019068982 0.14836794
000030 c6 d6 09 be eb 6f 26 3e a3 9b 9a 3e 64 5e 18 be
       -0.13460836 0.16253631 0.30196866 -0.14879757
000040 01 f8 34 3e c5 45 4b 3e 42 30 96 3e a2 9c 90 3e
       0.17672731 0.19850834 0.29333693 0.282445
000050 76 ad e7 3d e8 d5 36 3e fc 00 6a 3e d5 ed e1 bd
       0.11312382 0.17855036 0.22851938 -0.11031691
000060 96 f3 75 3e f3 63 26 3e 03 13 7b 3e 02 19 f6 3d
       0.24018702 0.16249065 0.24518971 0.120164886
000070 5a 61 45 3e b5 54 3d 3e 54 7a 76 3d f1 2c 19 3e
       0.19275418 0.18489344 0.060175255 0.1495855
000080 82 dd 2b 3e 1b b6 9f 3c a1 c9 9f 3e b3 02 90 3e
       0.16783717 0.019496014 0.31208518 0.2812706
000090 2b f2 c0 3d 26 ac 8d 3e e5 0e a7 3d 6f e1 68 3d
       0.0942119 0.276704 0.08157138 0.056855615
0000a0 52 e7 65 3d 3e 8d 82 3e ea 49 73 3e a9 53 b8 bd
       0.056128807 0.25498384 0.23758665 -0.09000332
0000b0 33 7a 55 3e 55 a0 45 3e 99 6b 93 3d 15 3e 0d 3c
       0.20847397 0.19299443 0.07198257 0.008620759
0000c0 16 c0 27 3e 7a 55 30 3e fc f6 08 be af 31 07 3e
       0.16381869 0.17220107 -0.13375467 0.13202547
0000d0 e0 e8 8d 3d 85 45 21 be d0 91 39 3e 0b 65 85 bd
       0.06929183 -0.15749176 0.1812203 -0.06513413
0000e0 c8 0d 41 3e c8 90 2f 3e b7 a0 78 bc 28 a6 a7 3e
       0.18852913 0.17145073 -0.015175036 0.32743955

gc2.weight f4 [60, 60]
000000 dc 3d 9e bc 3a ed ec bd b2 72 13 bd be e2 e0 3d
       -0.019316606 -0.11568685 -0.035998054 0.10980748
000010 d0 6f c2 3c 7c d8 bc bc 2a ce 89 3d 2e d6 cb 3d
       0.023734957 -0.023052447 0.06728776 0.09952961
000020 74 be cd 3d 1c a0 c3 bd c0 dc 17 3c 22 1d d9 bd
       0.10046092 -0.09552023 0.0092689395 -0.1060126
000030 39 4b b6 bd 76 06 cb 3d 2b a6 d2 bd 04 aa 81 bd
       -0.08901066 0.09913342 -0.102856 -0.06331256
000040 b8 97 7d 3d fd 9f 00 3e 4a 6b 00 be fb 9b aa bd
       0.06191227 0.1256103 -0.12540928 -0.08330532
000050 56 5b 4f bd f2 d0 cc 3d 0a 15 9a 3d a0 d4 a4 3d
       -0.050624214 0.10000791 0.07523544 0.080483675
000060 16 6a a9 3d 42 56 04 bd d4 f2 c2 3d 80 bf 6d bb
       0.082721874 -0.032308824 0.09518972 -0.0036277473
000070 30 ba 46 3c 3c 3b 0c bd ac 51 60 3d 68 23 6c 3d
       0.0121293515 -0.034236178 0.05476539 0.057650954
000080 58 35 60 bc 04 c2 e8 3d 1e f3 08 bd 9c d7 05 3d
       -0.013684593 0.113651305 -0.03343498 0.032676324
000090 d2 23 f0 3d fa f6 94 3d 0a 8e 40 bd 50 88 6f bd
       0.11725582 0.072736695 -0.04701046 -0.058479607
0000a0 d0 1b cc 3c 80 3e 80 ba f0 dc 14 3c 70 50 aa 3d
       0.024915606 -0.0009784251 0.009085879 0.083161235
0000b0 bc d6 38 3d e0 48 94 bd b2 de d7 bd de f6 f9 3d
       0.04512666 -0.07240462 -0.10540523 0.12205289
0000c0 d0 db 68 bc 18 53 50 bd 34 30 c2 bd c2 e4 fd 3d
       -0.014212564 -0.050860494 -0.0948185 0.12397148
0000d0 62 6a 85 3d 1d 9c a7 bd 87 59 e4 bd ac af e5 3d
       0.065144315 -0.08184073 -0.111498885 0.112151474
0000e0 b0 aa 63 3d 24 59 9b bc 4c bc db bd 78 40 a0 3d
       0.055582702 -0.018963404 -0.10729274 0.078247964
0000f0 32 7a b3 bd be ec 81 3d 1a 1e fb bd da bc eb bd
       -0.08763541 0.06343983 -0.12261601 -0.1151063
000100 30 a4 fd bd 98 af ef 3d 40 44 f0 3d c0 9a e1 bd
       -0.12384832 0.11703414 0.11731768 -0.11015844
000110 0e 63 cc 3d e7 b4 a0 bd 83 b7 f5 bd 84 7c 7e 3d
       0.09979831 -0.078470044 -0.11997893 0.062130466
000120 3c e0 95 3d e6 dd 95 3d 58 9a b9 3c 1a be fd 3d
       0.0731816 0.073177144 0.022656605 0.123897746
000130 eb c3 e3 bd bc fa 73 3d e4 90 27 bd c0 ed d0 3b
       -0.11121353 0.05956529 -0.040909663 0.0063759983
000140 ba 59 b6 3d c2 55 bd bd c0 bb 67 3d c0 3d d3 bc
       0.08903833 -0.09244873 0.056575537 -0.02578628
000150 3a 04 ab 3d 80 2c 5e bb 30 2d 83 3d 7e af fd 3d
       0.083504155 -0.0033901036 0.06405103 0.12386988
000160 12 ce 3c bd 95 38 02 be ee 65 f9 3d c2 90 91 bd
       -0.04609496 -0.12716897 0.12177645 -0.071076885
000170 48 b0 f1 3c 12 70 a4 3d 98 3c a4 bc 5e a2 ce 3d
       0.029503003 0.08029188 -0.020048425 0.10089563
000180 bc 57 ab 3d d8 eb d4 bc 84 a4 0a 3d 80 4b 20 3c
       0.083663434 -0.025991365 0.0338483 0.009783626
000190 e3 53 01 3e 80 0c b7 3d 3a 19 b0 bd d0 cc 4b 3c
       0.12629656 0.08937931 -0.085985616 0.012438968
0001a0 b2 9a 8e 3d ac 21 ca 3d dc 8b 34 3d 40 b1 60 3d
       0.069630995 0.09869704 0.044078693 0.05485654
0001b0 ec 43 c3 bc c0 82 37 3b 4c fd b6 bd 4e a9 d9 3d
       -0.023836099 0.0028001517 -0.08935031 0.106279954
0001c0 0e 32 d0 3d 9d 96 91 bd 5c 5c e2 bd 28 2c ce 3d
       0.10165797 -0.07108805 -0.110527724 0.10067016
0001d0 38 56 ea bd 0c 90 a9 3d 15 c4 00 be 51 2c 87 bd
       -0.11442226 0.08279428 -0.125748 -0.066002496
0001e0 2a e3 5f bd fa 7a f8 3d 7c f5 b2 bc 70 10 e4 3d
       -0.05466 0.12132831 -0.021845572 0.11135948
0001f0 e0 a2 19 3d 2d 12 00 3e 32 1f af 3d 7c b8 c2 3d
       0.037508845 0.12506934 0.08550872 0.09507844
000200 5e 83 e6 3d 66 3b 1c bd 84 63 11 bd 90 61 2a 3d
       0.11255525 -0.038142584 -0.035495296 0.04159695
000210 d4 ea e8 3d 76 99 42 bd 3a fa cf bd 94 d3 ce bd
       0.11372915 -0.047509633 -0.10155149 -0.10098949
000220 3a 4d 74 bd e0 c0 a8 3c a0 c4 74 bc 94 04 0d bd
       -0.05964396 0.020599782 -0.014939457 -0.034428194
000230 78 35 77 bd 78 8a 09 3d 88 c9 d9 bd 29 0f 02 3e
       -0.060353726 0.03357932 -0.10634142 0.12701096
000240 3c c9 a3 bc 08 55 c5 3c 24 32 2e 3d 82 bf 4d bd
       -0.019993417 0.024088398 0.042528287 -0.050231464
000250 b4 a8 d0 3d 00 d4 7a ba 00 84 2d 3c c2 b1 fb bd
       0.101884276 -0.00095683336 0.010590553 -0.12289764
000260 28 e8 82 3c 2c 71 35 3d 20 5f 93 3c 48 9f 51 bc
       0.015979841 0.044297382 0.017989695 -0.012794323
000270 b8 a4 c7 3d 4a 08 d1 3d bc 06 b6 3d 4c 8e b7 bc
       0.097482145 0.10206659 0.08888003 -0.02240672
000280 18 b1 b6 3c 1c 9b b8 bd 10 f0 c5 bd 90 d6 b8 bc
       0.022301242 -0.0901396 -0.09664929 -0.022563249
000290 10 6c 6c 3c 99 ff 99 bd 7e b0 dc bd 78 8e 70 3d
       0.014430061 -0.075194545 -0.10775851 0.05872962
0002a0 38 55 41 3d de af ae bd 48 f0 af 3d 42 a0 c5 bd
       0.04720041 -0.08529638 0.08590752 -0.096497074
0002b0 34 01 c8 3d 66 75 8c 3d cc b6 32 bd 46 b8 fb 3d
       0.097658545 0.068583295 -0.04363136 0.12291007
0002c0 8b 73 94 bd 16 8c 71 bd dc bb d2 3d 82 42 08 bd
       -0.072486006 -0.058971487 0.102897376 -0.03326655
0002d0 9e 92 55 bd 78 a4 a3 3c a4 b4 b2 bc 22 91 a6 3d
       -0.05214178 0.019975886 -0.021814652 0.08133151
0002e0 34 dc d7 3d 44 37 6b 3d a8 b8 e4 3c 5c d7 04 3d
       0.10540047 0.057425752 0.027920082 0.032431945
0002f0 00 47 5c 3b 00 66 78 3c 00 a9 20 3b 3a 4a b4 3d
       0.0033611655 0.015161037 0.0024514794 0.0880322
000300 e0 da 93 3d 78 aa 54 bc 7c af 47 3d 00 f6 e9 3b
       0.072194815 -0.012980096 0.04875134 0.007139921
000310 a8 dd 3a 3d b2 11 d9 3d 67 e3 b3 bd c0 4a 96 3c
       0.045621544 0.10599078 -0.08783608 0.01834619
000320 48 05 dc bc 1c 3d 01 be b3 75 00 be 8c 7a 8a bc
       -0.026857987 -0.12620968 -0.12544899 -0.016904138
000330 c0 3b bd 3d b4 56 ae bd 38 3f 2c 3d 70 62 98 3d
       0.09239912 -0.08512631 0.042052478 0.074406505
000340 7b b6 c0 bd f4 18 63 3d 00 9a c7 3c 81 b5 f0 bd
       -0.094098054 0.05544372 0.024365425 -0.11753369
000350 80 ab 22 bb 83 37 f8 bd 6e 29 e7 3d b4 d5 77 3d
       -0.002482146 -0.12119963 0.11287199 0.060506538
000360 2c 9d 4a 3d bc fb ca 3d 4e 33 ca 3d 51 3d 03 3e
       0.049466297 0.09911296 0.09873067 0.12816359
000370 78 2b 5a 3d 52 e3 be bd 8a 94 f5 3d e8 e3 12 3d
       0.05326411 -0.09320702 0.11991222 0.03586188
000380 10 73 50 bd 30 cc 44 bd 92 67 f7 3d f8 ee ea 3c
       -0.050890982 -0.04804629 0.12080301 0.028678402
000390 b4 2c c0 3d 00 f6 24 3c 2e 3b f4 3d 7a 77 c1 bd
       0.093835264 0.010068417 0.1192535 -0.094466165
0003a0 a0 0e fc 3c d0 5b fc 3c 80 28 c3 ba 18 33 eb 3d
       0.030768692 0.030805498 -0.0014889389 0.11484355
0003b0 08 60 d4 3c 20 29 e5 3b 66 75 b4 3d f0 fb 26 bc
       0.025924698 0.006993428 0.088114545 -0.0101919025
0003c0 a0 a9 08 bc c4 fb d9 bd 00 ba 5d ba a0 d3 76 bd
       -0.008341223 -0.106437236 -0.0008458197 -0.060260415
0003d0 92 14 99 3d fe 01 e6 3d a9 a9 f6 bd 54 24 99 bd
       0.074746266 0.11230849 -0.12044079 -0.07477632
0003e0 56 8d fe 3d 2e b3 61 bd fe 22 eb 3d 43 28 02 3e
       0.124293014 -0.05510252 0.114812836 0.12710671
0003f0 3c 9d 04 bd af 06 d6 bd ee 33 84 3d c8 5f 70 3d
       -0.032376513 -0.104504935 0.06455217 0.058685094

gc2.bias f4 [60]
000000 20 07 bf bb e0 a6 77 3d f3 f9 c9 bd 3e 8b 0d bd
       -0.005829707 0.06046188 -0.09862127 -0.03455662
000010 17 16 a1 bd 3d 25 ef bd 00 2d bd bd 01 e1 a9 bd
       -0.078655414 -0.116770245 -0.09237099 -0.08294869
000020 de 50 c9 3d 1c 9b a1 3d a2 7e b3 bd 36 a6 d0 bd
       0.09829877 0.07890913 -0.08764388 -0.10187952
000030 aa c6 ec 3d 70 08 fb 3c 14 82 73 3d 90 28 a5 3c
       0.1156133 0.030643672 0.059450224 0.020160943
000040 ce 94 45 bd 7c d7 8e bd 30 40 8e 3d 91 97 02 be
       -0.048237614 -0.06974694 0.069458365 -0.1275313
000050 4e 02 dc bd 58 af 1f 3d 02 ac 0a bd f8 4b ca 3c
       -0.10742627 0.03898558 -0.033855446 0.024694428
000060 a0 03 8d 3d 8e f0 97 bd ca d4 94 bd 81 9e a2 bd
       0.06885457 -0.07418929 -0.07267149 -0.079403885
000070 7b 55 e7 bd f0 2c 0f bc 12 84 e0 3d e0 47 01 bc
       -0.11295601 -0.008738741 0.109626904 -0.0078906715
000080 86 00 91 3d 2e 7d 83 bd 30 dd 51 3c a4 88 c6 bd
       0.07080178 -0.064203605 0.012809083 -0.09694031
000090 90 d0 0b bc 00 16 e8 3c 66 40 62 bd c0 be f2 3d
       -0.008533612 0.028330803 -0.055237196 0.11852789
0000a0 2c 4c 15 3d 10 3f 84 3d 13 91 03 3e 3c 28 60 3d
       0.036449596 0.06457341 0.1284831 0.05472587
0000b0 38 2c 26 bc d4 8c 7c 3d d7 45 02 3e 2e 8b fe bd
       -0.0101423785 0.06165774 0.12721954 -0.1242889
0000c0 e4 64 c7 bc 40 64 80 3d 6a 2a 00 bd 3b 1b d7 bd
       -0.0243401 0.06269121 -0.03129045 -0.10503241
0000d0 20 7c 99 bd a2 6b 89 bd a8 3a 5b 3d 6a 54 a8 3d
       -0.07494378 -0.067099825 0.053522736 0.08219226
0000e0 f8 b4 70 bc 7a 57 d8 bd 18 44 96 3c 54 d6 13 3d
       -0.014691584 -0.1056356 0.018343017 0.03609307

gc3.weight f4 [60, 60]
000000 b0 76 47 bd 04 56 36 3d 0a 02 58 bd c0 03 32 3d
       -0.048697174 0.044515625 -0.05273632 0.043460608
000010 fe 2b bd 3d 24 dc 83 3d 20 e4 47 bc 52 f3 fd 3d
       0.092369065 0.06438473 -0.012200385 0.12399925
000020 e8 fe 39 bc d8 d3 eb bd e4 0c be 3d c0 d9 f5 3d
       -0.011352278 -0.11515015 0.092798024 0.12004423
000030 f0 51 71 3d 5e b6 e7 3d 34 cd 8e 3d 78 d6 57 3d
       0.058916032 0.11314081 0.06972733 0.052694768
000040 e6 15 99 3d d1 1a cb bd 00 e8 c9 ba c6 e5 61 bd
       0.0747488 -0.09917224 -0.0015404224 -0.05515077
000050 bc 76 11 3d 64 d0 e9 bd e0 16 fa 3b 6c e0 4e 3d
       0.035513625 -0.114167005 0.0076321214 0.050506994
000060 e8 7d 44 bd 02 47 55 bd a2 79 ab bd 24 97 11 3d
       -0.047971636 -0.05206967 -0.08372809 0.03554453
000070 18 ef dd bd bc 13 d9 bc 60 4c eb 3b c4 de 16 3d
       -0.10836619 -0.026498668 0.0071807355 0.03683354
000080 94 fb e2 bd d8 68 d5 3c c0 74 4f bd 20 41 76 bc
       -0.11083141 0.02605097 -0.05064845 -0.015030175
000090 a2 ee c0 bd d6 a9 cf bd 50 45 90 3c a8 96 b3 3c
       -0.094205156 -0.101398155 0.017611176 0.021922424
0000a0 a0 3c e3 3d 5a c8 f8 3d ea 2d c1 3d 90 e5 4c 3d
       0.11095548 0.12147589 0.094325855 0.050023615
0000b0 6e d7 af 3d ac d1 61 3d ce 4e f6 bd de 6a c0 3d
       0.08586012 0.0551316 -0.120267496 0.09395383
0000c0 78 66 80 3c 96 de 03 bd b2 42 1d bd 6e e5 d2 3d
       0.01567386 -0.032194696 -0.038393684 0.102976665
0000d0 5c 80 b8 3d 80 7a 44 bc c6 ab 45 bd 5e 26 8e bd
       0.090088576 -0.011992097 -0.04825952 -0.06940912
0000e0 b4 6b 98 3d 48 57 a0 bd 18 48 af bd ae aa 9e bd
       0.07442418 -0.078291476 -0.08558673 -0.07747398
0000f0 94 89 19 3d 8e ad ca 3d 70 61 d3 3c bc 1a 45 3d
       0.03748472 0.09896384 0.025803298 0.0481212
000100 ef 89 d5 bd 4c 1a c0 bd 91 da 9a bd c2 2f a9 bd
       -0.10426699 -0.09380016 -0.075612195 -0.08261062
000110 40 0b 6c bd f2 4a a0 bd a6 04 2d bd c4 ab a3 bd
       -0.057627916 -0.07826795 -0.04224076 -0.07991746
000120 d4 82 1d 3d 80 58 5a 3b 00 47 d7 3b 58 32 60 3d
       0.038454846 0.003331691 0.006569743 0.05473551
000130 f1 0b ee bd ba 05 4f bd 50 b1 8f bb 0b 0c f7 bd
       -0.116233714 -0.05054257 -0.004385151 -0.12062844
000140 5c 7f 8c 3d 0c 88 c6 bd 5e ba b2 3d f7 d3 02 3e
       0.068602294 -0.09693918 0.08726953 0.1277617
000150 30 f4 d9 3c 1b b0 80 bd 4e 9a ba 3d 3d 55 ad bd
       0.026605695 -0.062835895 0.091114625 -0.084635235
000160 a0 4a c8 3b e2 c4 a5 3d 5a de f7 3d 00 fd 1a 3c
       0.0061124116 0.08094193 0.12102957 0.009459734
000170 e0 88 20 bc b0 8b 37 bc 3b 2b 00 be 38 ee bb 3c
       -0.009798259 -0.011202738 -0.12516491 0.02294074
000180 21 dc d1 bd 00 24 3e 3c bc 4d fb bc 26 20 a8 3d
       -0.102470644 0.011605263 -0.030676715 0.08209257
000190 a8 ba 53 bd 6a ea bb 3d cc 02 fc bc d4 8b cc bc
       -0.05169168 0.0917557 -0.030763052 -0.024969019
0001a0 ac b1 f0 bd fc c7 e5 3d 60 f3 36 3c 1e 4a ee bd
       -0.11752638 0.112197846 0.011166424 -0.116352305
0001b0 20 e8 ed 3b 9c 93 58 3d 44 7d df bc b0 c2 d7 3d
       0.0072603375 0.052875146 -0.027281411 0.105351806
0001c0 e8 4f 81 3d 40 8f 87 bc 77 2a 04 3e 4e 77 ba 3d
       0.06314069 -0.0165478 0.12906824 0.09104787
0001d0 30 b9 81 bc 60 b5 36 bc 50 49 22 3d 3e 43 38 bd
       -0.015835375 -0.011151642 0.039620697 -0.044986002
0001e0 4c c3 a2 3d e8 5f fe bd 08 a6 8d bd b8 63 72 3d
       0.07947406 -0.124206364 -0.069164336 0.05917713
0001f0 68 c2 fd bd 58 34 2f bd b4 95 8c bd 10 3b 8f 3d
       -0.12390596 -0.04277453 -0.06864491 0.06993687
000200 a0 b2 d4 3b 3a c9 bb bd 2e 0f d5 3d ca 24 71 bd
       0.0064910203 -0.0916924 0.10403286 -0.058872975
000210 48 5b 69 bc 38 6d 32 3d 36 4c b0 bd e8 16 43 bc
       -0.014242955 0.04356119 -0.08608286 -0.011907317
000220 fe 23 32 bd 64 d9 fa bc 96 d0 3f bd e8 3c a9 3d
       -0.043491356 -0.030621238 -0.046829782 0.0826357
000230 ee ec 81 bd f7 6e b2 bd 34 6c 64 3d cc 53 2b 3d
       -0.06344019 -0.08712571 0.055767253 0.04182796
000240 00 b1 b0 3a 20 4c 2e 3c a3 c0 01 3e 26 e7 30 bd
       0.0013480484 0.010638267 0.12671141 -0.04318919
000250 7e f3 eb bd 80 35 02 be 00 17 09 3d 48 19 4e 3d
       -0.11521052 -0.12715721 0.0334692 0.05031708
000260 00 1f ef 3a a5 ba db bd ad 87 ce bd 88 27 b4 bd
       0.0018243492 -0.10728959 -0.10084472 -0.087966025
000270 88 36 aa 3d d8 40 cf 3c 71 42 93 bd 88 0a fa bd
       0.08311182 0.025299475 -0.07190407 -0.1220904
000280 7c e5 97 3d 00 d4 b5 3a 03 68 03 3e b7 a0 d8 bd
       0.074168175 0.0013872385 0.12832646 -0.10577529
000290 3e 73 d6 bd a0 77 b6 3c 66 35 b1 3d 04 a6 ae 3d
       -0.104711995 0.022273839 0.08652763 0.08527759
0002a0 b9 6e 03 3e 0a 53 a8 3d 58 32 6c 3d ff 90 a2 bd
       0.12835206 0.082189634 0.0576652 -0.07937812
0002b0 8b 46 02 3e 4a 06 6a bd 0e 06 aa 3d 48 8a 59 3d
       0.12722223 -0.057134904 0.08301936 0.05311039
0002c0 4e b7 9c bd 30 f5 3c bc 88 1f 30 bc 4a a4 c7 3d
       -0.0765215 -0.011533067 -0.010749705 0.097481325
0002d0 50 51 ca 3d 60 c1 e2 3c 15 41 96 bd 60 9a 16 3d
       0.098787904 0.027680099 -0.07336632 0.036768317
0002e0 9e 9f d8 3d ce 1a 8c bd 1a e5 d3 3d d0 fc ee 3c
       0.105773196 -0.0684105 0.10346432 0.029173285
0002f0 c4 40 92 3d 9c 62 35 3d 5c eb a6 3d fe f1 e0 bd
       0.07141259 0.044283494 0.0815036 -0.10983656
000300 84 64 5a 3d ef 47 e5 bd d0 55 10 bc 56 c3 ce 3d
       0.053318515 -0.11195361 -0.008809522 0.10095851
000310 74 d2 d8 bd 4b 1c c9 bd 68 c2 67 bd 00 2a 9f 3b
       -0.10587016 -0.098198496 -0.056581885 0.0048573017
000320 58 37 92 bc e6 88 cf bd e8 cc 89 3c 16 d6 04 bd
       -0.017848656 -0.10133533 0.01682134 -0.03243073
000330 10 f8 76 bd 00 b3 b8 3a cc 93 33 3d 88 ab a9 3c
       -0.060295165 0.0014091432 0.043842122 0.020711675
000340 f2 44 af bd 94 3a b3 3d 78 89 c7 3c fe 84 58 bd
       -0.08558072 0.08751407 0.024357542 -0.052861206
000350 d6 db e4 3d 88 30 d5 3c 5a 7d 89 3d 14 f2 ba 3d
       0.11174743 0.026024118 0.06713362 0.09128204
000360 00 c7 16 bb 00 e6 d9 3d 00 fb 16 ba ea 84 d3 3d
       -0.0023006797 0.10639572 -0.0005759448 0.10328086
000370 90 47 80 3c a8 51 73 3d 36 25 85 3d 94 88 92 bd
       0.015659124 0.059404045 0.06501238 -0.071549565
000380 8e 0d e7 3d 20 47 80 3b c4 59 42 3d 9e 13 c3 bd
       0.11281882 0.0039147288 0.04744889 -0.09525226
000390 e0 61 45 bd 1a 5a ac 3d 92 dc a6 bd 30 85 92 3c
       -0.048189044 0.08415623 -0.08147539 0.017885774
0003a0 a0 2a e8 3d 44 21 fb bd 00 e7 ba ba f0 da ab 3c
       0.11336255 -0.12262204 -0.0014259517 0.020978421
0003b0 c4 49 ad 3d a4 ab 31 bd f8 32 01 be 09 a4 a3 bd
       0.08461335 -0.04337658 -0.126171 -0.079902716
0003c0 64 b4 1e 3d 50 b4 c2 bd 63 54 e2 bd c0 77 55 bb
       0.038746253 -0.09507048 -0.11051252 -0.0032572597
0003d0 c0 be 0a 3d 08 cb a5 bd d0 62 4d bd 1a a0 90 3d
       0.03387332 -0.08095366 -0.050143063 0.07061787
0003e0 fe c3 b2 bd a9 7a d9 bd 74 d1 1f bd fa 6f d4 3d
       -0.08728789 -0.10619099 -0.03901811 0.1037292
0003f0 ac 08 1b bd 2d 39 b3 bd 18 91 bb bd a8 8d f8 bc
       -0.037850067 -0.0875114 -0.09158534 -0.030340984

gc3.bias f4 [60]
000000 35 de 85 bd 65 4b 81 bd 44 73 00 3d 0c 01 8a bd
       -0.06536523 -0.063132085 0.031359926 -0.06738481
000010 58 0d 64 3d 26 2d f9 bd e4 db 41 bd 07 d4 03 3e
       0.055676788 -0.121668145 -0.047328845 0.12873851
000020 b0 34 d6 bb 12 a6 8f 3d a4 63 ee 3d b6 1d 17 bd
       -0.0065370426 0.07014097 0.11640099 -0.03689357
000030 8c 85 f6 bc 8c ca 97 bc 82 b6 83 bd c0 fa 7e bb
       -0.030092977 -0.018529199 -0.06431295 -0.0038906783
000040 b0 fe 7b 3d fe 32 e4 3d 48 e8 b6 3d 1d 31 02 3e
       0.061522186 0.111425385 0.08931023 0.12714048
000050 1b 87 85 bd a8 43 b6 bd 23 59 02 be c2 ad 9b 3d
       -0.0651991 -0.08899623 -0.12729315 0.07601501
000060 28 71 6a 3d dc 1f fd bc b8 98 da 3d be 4c be bd
       0.05723682 -0.03089898 0.1067366 -0.09291981
000070 ac 1b ab bc 40 4f 5d bb d8 a4 54 3d 8c 7f dc 3d
       -0.020887218 -0.003376916 0.05191502 0.10766515
000080 3a 54 96 bd 95 dd 03 3e 26 d5 fb 3d 80 ae 0c 3d
       -0.07340284 0.12877496 0.12296514 0.034346104
000090 ac 02 ae bd a8 59 2e 3d e8 62 dc 3c a4 bb 3f bd
       -0.08496603 0.04256597 0.02690263 -0.046809807
0000a0 0e 89 fe 3d b2 5f d4 bd 92 d6 3b bd 7e 59 46 bd
       0.12428485 -0.10369815 -0.045858927 -0.04842519
0000b0 9a c4 12 bd e0 f5 c3 3d 30 85 d2 bb a0 27 93 3c
       -0.035832025 0.09568381 -0.0064245686 0.01796323
0000c0 bb cd eb bd 78 d5 b2 bd 44 14 a6 3d ba 9f 21 bd
       -0.11513849 -0.08732122 0.08109334 -0.039458968
0000d0 a4 29 3d 3d bf c6 cb bd f2 21 96 bd 80 71 7e 3d
       0.04618229 -0.09950017 -0.07330693 0.06211996
0000e0 b4 30 ba 3d 10 78 03 3c 70 6b ef bd 8a 57 a6 bd
       0.09091321 0.008024231 -0.11690414 -0.081221655

gc4.weight f4 [60, 1]
000000 52 00 a3 bf 4f 2c b4 3e 4c b1 fd be 0f 4a c2 bf
       -1.2734473 0.35190055 -0.4954933 -1.5178851
000010 93 ce 97 bf bf 07 3c bf 45 25 16 3f 39 4f 6a bf
       -1.1859916 -0.7344932 0.5865062 -0.91527134
000020 c0 f8 a2 bf ae 95 00 3e 68 1e b7 bc 01 cc f5 be
       -1.2732162 0.12557098 -0.022353366 -0.48007205
000030 c5 9b 48 bf 8e 9b 9c bf bc 68 c3 3e 30 e5 92 bf
       -0.78362685 -1.2234972 0.38165843 -1.1476192
000040 f5 fb e8 3d 69 f9 34 3e 5b e4 72 3e 08 c6 0d 3e
       0.11376182 0.17673267 0.23719923 0.13845074
000050 8e 9d 4d bf 12 a5 4d bf d8 b1 18 3e 91 45 91 bf
       -0.80318534 -0.8033 0.14911592 -1.1349355
000060 6a 62 1e 3e 56 af 3c 3f 17 0e 1a 3e 47 8d 4f bf
       0.1546723 0.7370504 0.15044437 -0.8107495
000070 82 5b a3 3e 2d 30 3e 3f 9d 1d d5 bf c4 dd b0 bf
       0.31905752 0.7429226 -1.6649662 -1.3817677
000080 72 d3 f4 3d a5 ec bc bf 7a 78 a2 3e 8c ce 1f 3e
       0.119543925 -1.4759718 0.3173254 0.15606135
000090 aa 94 a6 bf d3 05 75 bf f9 e6 89 bf 40 91 04 bf
       -1.3014119 -0.9571201 -1.0773612 -0.51784134
0000a0 f8 9e a5 bf a8 c2 26 3e a3 3f 0c 3e d3 a2 c3 bf
       -1.2939138 0.16285193 0.1369615 -1.5284065
0000b0 d1 c7 55 3e f9 c2 11 3e 48 b6 2d bf d9 16 d4 bf
       0.20877005 0.14234532 -0.67856264 -1.6569473
0000c0 78 e7 8b 3e 7f 71 62 3e 13 5c b2 bf 0e b7 eb be
       0.27325034 0.22113608 -1.3934349 -0.46038097
0000d0 77 45 be bf c4 5d 8f bf 6e 90 ff 3d 33 57 0d bf
       -1.4864949 -1.120049 0.1247872 -0.5521118
0000e0 07 cf 0d 3e da d7 b7 bf e3 9e ac bf 1c 15 4c 3e
       0.13848506 -1.4362748 -1.3485988 0.19929928
