pyperplan/src/checkpoints/standard_1epochs.pth (torch_old, 50413 bytes, 7 tensors)

gc1.weight f4 [81, 60]
1.6695e-41 -1.188e-41 2.6734e-41 1.3139e-41 -2.7091e-41 3.7794e-41 2.2516e-41 6.492e-42
1.2322e-41 -1.3356e-41 -1.5266e-41 -1.2141e-41 7.224e-42 4.4184e-41 1.7666e-41 -4.296e-42
-1.4746e-41 1.9573e-41 -2.0843e-41 1.2417e-41 1.7627e-41 1.6626e-41 -1.894e-41 6.223e-42
1.3797e-41 2.5229e-41 -2.686e-42 1.8294e-41 -2.1273e-41 1.71e-43 1.1205e-41 -7.068e-42
-1.318e-41 -4.6868e-41 -3.4336e-41 6.132e-42 -3.8337e-41 1.219e-42 -4.9732e-41 -2.5541e-41
4.0597e-41 3.152e-41 -1.7586e-41 1.0193e-41 1.3204e-41 8.048e-42 1.4084e-41 -6.012e-42
1.6234e-41 -1.9262e-41 1.513e-41 -9.57e-42 -6.447e-42 -1.2375e-41 -2.0861e-41 -1.7526e-41
-3.272e-41 -6.5558e-41 5.29e-42 1.5459e-41 0.062142305 0.004567034 0.052422635 -0.030785823
0.17196292 -0.057171155 0.17053296 -0.010532687 -0.06319843 0.061653916 0.15904853 0.114406236
0.2513813 -0.3011355 0.035325013 -0.4053988 0.018429559 0.16979633 0.16831306 0.16063042
-0.4363592 -0.41230944 0.14980823 -0.22950996 0.047075417 0.054195117 0.1290676 -0.31122574
0.06384706 -0.015566555 -0.23844105 -0.06981863 0.043629587 0.09025068 -0.00026576073 -0.0016658504
0.20539467 -0.031171203 -0.25565153 -0.34318203 0.011633048 0.097390786 0.08496206 -0.13310409
0.0855996 -0.016599244 -0.017696818 -0.21451484 0.023328047 0.053946465 0.18256252 -0.19519515
0.07279832 -0.302291 -0.0024539442 -0.27951118 -0.045475196 -0.1284396 -0.280816 0.13905264
0.033126943 0.022210669 0.068158686 -0.07690622 -0.255502 -0.09050958 0.061434537 -0.02583132
0.06692156 0.17715102 0.15922888 0.15974842 0.1375468 0.2544658 0.08113206 -0.3887257
0.018525882 0.07631056 0.15941219 0.102461524 -0.04427254 -0.39780375 0.2023238 -0.20377368
-0.007964754 0.11296081 0.17099564 0.26299515 0.23031743 0.064681254 0.042390812 -0.1891572
-0.013211439 -0.32144243 0.21023875 -1.7903e-41 0.11903051 0.1566609 0.08580764 -0.35297534
0.2344113 0.14013575 0.13915987 -0.12108031 0.14240761 0.00039867175 -0.422204 0.09276782
0.038731836 0.10593635 -0.124846704 -0.17355254 -0.19062616 -0.30724123 0.026661107 -0.27719453
-0.083796546 -0.12811506 0.22850452 0.14242245 -1.7918e-41 2.0469e-41 -1.5327e-41 -1.9128e-41
1.6694e-41 1.3049e-41 6.241e-42 -3.003e-42 3.8562e-41 5.2177e-41 3.8118e-41 1.0598e-41
-3.208e-42 -2.158e-42 4.8935e-41 -1.9194e-41 -2.324e-41 6.7429e-41 3.4245e-41 1.206e-41
1.0211e-41 2.251e-41 -1.77e-42 2.0497e-41 -1.6645e-41 -1.3664e-41 1.351e-41 -1.0301e-41
-1.3506e-41 2.7387e-41 -1.1457e-41 1.9915e-41 -1.5142e-41 1.381e-41 2.6951e-41 2.892e-42
4.9879e-41 -1.1505e-41 3.559e-42 -1.9942e-41 -4.664e-42 5.801e-42 -1.607e-42 6.673e-42
1.5524e-41 1.8231e-41 -1.7725e-41 1.6608e-41 1.2305e-41 1.5535e-41 -1.6732e-41 -1.95e-42
-2.2836e-41 1.2291e-41 -1.5189e-41 -1.2176e-41 1.88993e-40 1.0794e-41 1.6203e-41 3.102e-42
1.5077e-41 1.8808e-41 -2.7198e-41 -1.9898e-41 -3.1849e-41 1.631e-42 -6.88e-42 -2.011e-41
2.0568e-41 7.846e-42 -3.066e-41 -1.4935e-41 -2.2026e-41 2.407e-41 -5.088e-42 1.645e-42
00000000: 8a2e 0000 1e21 0080 864a 0000 a024 0000
00000010: 854b 0080 5b69 0000 c43e 0000 1912 0000
00000020: 5922 0000 3b25 0080 8e2a 0080 d821 0080
00000030: 2314 0000 2b7b 0000 3f31 0000 fa0b 0080
00000040: 1b29 0080 9036 0000 1a3a 0080 9d22 0000
00000050: 2331 0000 592e 0000 cc34 0080 5911 0000
00000060: 7626 0000 5446 0000 7d07 0080 ff32 0000
00000070: 4d3b 0080 7a00 0000 3c1f 0000 b413 0080
00000080: be24 0080 a682 0080 b75f 0080 1811 0000
00000090: de6a 0080 6603 0000 a28a 0080 3347 0080
000000a0: 2b71 0000 dd57 0000 0631 0080 6a1c 0000
000000b0: cf24 0000 6f16 0000 4327 0000 c210 0080
000000c0: 412d 0000 b235 0080 2d2a 0000 ad1a 0080
000000d0: f911 0080 7f22 0080 273a 0080 db30 0080
000000e0: 365b 0080 c0b6 0080 bf0e 0000 182b 0000
000000f0: ee88 7e3d 0fa7 953b 1eb9 563d 8d32 fcbc
00000100: 0c17 303e 4d2c 6abd 31a0 2e3e 4b91 2cbc
00000110: 2e6e 81bd d188 7c3d 9edd 223e d14d ea3d
00000120: 0db5 803e 6f2e 9abe f6b0 103d 6e90 cfbe
00000130: 96f9 963c 17df 2d3e 425a 2c3e 4d7c 243e
00000140: 796a dfbe 391a d3be 5467 193e a904 6bbe
00000150: 27d2 403d b3fb 5d3d 4c2a 043e fb58 9fbe
00000160: 3fc2 823d dd0a 7fbc e429 74be 12fd 8ebd
00000170: f0b4 323d 59d5 b83d cd55 8bb9 aa58 daba
00000180: fb52 523e c05a ffbc c2e4 82be 8eb5 afbe
00000190: 8a98 3e3c d274 c73d 9700 ae3d 704c 08be
000001a0: d84e af3d 23fb 87bc ebf8 90bc c7a9 5bbe
000001b0: 761a bf3c f8f6 5c3d abf1 3a3e 3de1 47be
000001c0: 4917 953d e3c5 9abe 5ad2 20bb 171c 8fbe
000001d0: 3344 3abd ac85 03be 1dc7 8fbe d163 0e3e
000001e0: 1eb0 073d 26f3 b53c c896 8b3d 0281 9dbd
000001f0: 28d1 82be 165d b9bd c8a2 7b3d 349c d3bc
00000200: 2c0e 893d 1467 353e e50c 233e 1795 233e
00000210: 11d9 0c3e 5749 823e 9128 a63d 0e07 c7be
00000220: 97c3 973c b648 9c3d f33c 233e 59d7 d13d
00000230: 1f57 35bd efac cbbe f82d 4f3e 0caa 50be
00000240: 997e 02bc ff57 e73d 7b19 2f3e 4da7 863e
00000250: 55d8 6b3e 9b77 843d fda1 2d3d 6db2 41be
00000260: cb74 58bc 1a94 a4be d448 573e e831 0080
00000270: 45c6 f33d b76b 203e eabb af3d 2fb9 b4be
00000280: 8409 703e bf7f 0f3e ed7f 0e3e f4f8 f7bd
00000290: 4dd3 113e d104 d139 1f2b d8be 0efd bd3d
000002a0: 46a5 1e3d 28f5 d83d a1af ffbd c2b7 31be
000002b0: 8133 43be b94e 9dbe 6568 da3c 71ec 8dbe
000002c0: 869d abbd 9830 03be 17fd 693e 31d7 113e
000002d0: f331 0080 0f39 0000 ba2a 0080 5235 0080
000002e0: 892e 0000 6024 0000 6611 0000 5f08 0080
000002f0: 7f6b 0000 7391 0000 426a 0000 8b1d 0000
00000300: f108 0080 0406 0080 6988 0000 8135 0080
00000310: c940 0080 f7bb 0000 765f 0000 9e21 0000
00000320: 771c 0000 c03e 0000 ef04 0080 2339 0000
00000330: 662e 0080 1726 0080 a925 0000 b71c 0080
00000340: a625 0080 584c 0000 f01f 0080 8437 0000
00000350: 362a 0080 7f26 0000 214b 0000 1008 0000
00000360: 0b8b 0000 1220 0080 ec09 0000 9737 0080
00000370: 000d 0080 2c10 0000 7b04 0080 9a12 0000
00000380: 462b 0000 d232 0000 6931 0080 4c2e 0000
00000390: 4d22 0000 4e2b 0000 a42e 0080 7005 0080
000003a0: a83f 0080 4322 0000 572a 0080 f121 0080
000003b0: d60e 0200 171e 0000 2b2d 0000 a608 0000
000003c0: 072a 0000 6e34 0000 d14b 0080 7837 0080
000003d0: c858 0080 8c04 0000 2e13 0080 0f38 0080
000003e0: 5639 0000 df15 0000 7855 0080 a229 0080
000003f0: 663d 0080 1943 0000 2f0e 0080 9604 0000

gc1.bias f4 [60]
-0.049785823 0.104126655 0.023393553 -0.0057822154 0.024063844 0.03514549 0.15041399 -0.039093785
-0.13899583 0.23837219 -0.027707595 0.0576663 0.03399826 -0.0074760565 0.0016807928 -0.033181276
0.11768345 0.24095082 0.09042777 0.039975822 0.0698011 0.009672344 0.13554628 -0.11511697
-0.1004182 0.012040799 0.08739977 0.020536536 0.19027431 0.017156202 -0.014559084 0.08682212
-0.053527366 -0.0082721375 0.13150857 -0.008927506 0.016029112 0.10930432 0.039347913 0.04327511
-0.06979505 0.04878389 0.09196133 -0.032174103 0.15381914 -0.0075166835 0.07307712 -0.059558395
0.101697065 0.0893724 -0.038820338 0.066144906 -0.012003518 -0.007865724 0.038620185 -0.07290549
-0.0045097484 -0.0035407692 0.02021194 0.08325535
00000000: 38ec 4bbd 5b40 d53d d6a3 bf3c bd78 bdbb
00000010: 8a21 c53c b8f4 0f3d 2006 1a3e ce20 20bd
00000020: ec54 0ebe d717 743e 0afb e2bc 8033 6c3d
00000030: c241 0b3d b5f9 f4bb 0c4e dc3a 17e9 07bd
00000040: 0504 f13d d0bb 763e 3232 b93d b0bd 233d
00000050: e1f3 8e3d c078 1e3c a5cc 0a3e 72c2 ebbd
00000060: 0fa8 cdbd c546 453c a7fe b23d 3d3c a83c
00000070: 45d7 423e 2a8b 8c3c 3989 6ebc cccf b13d
00000080: 833f 5bbd dc87 07bc 2faa 063e ad44 12bc
00000090: 7c4f 833c f1da df3d 472b 213d 3e41 313d
000000a0: b5f0 8ebd 9ed1 473d 3956 bc3d fec8 03bd
000000b0: c482 1d3e 834e f6bb 75a9 953d 81f3 73bd
000000c0: 8d46 d03d e008 b73d 1302 1fbd fb76 873d
000000d0: 67aa 44bc 3ddf 00bc 3330 1e3d 794f 95bd
000000e0: 83c6 93bb 400c 68bb 8393 a53c c881 aa3d

gc2.weight f4 [60, 60]
-0.019316606 -0.11568685 -0.035998054 0.10980748 0.023734957 -0.023052447 0.06728776 0.09952961
0.10046092 -0.09552023 0.0092689395 -0.1060126 -0.08901066 0.09913342 -0.102856 -0.06331256
0.06191227 0.1256103 -0.12540928 -0.08330532 -0.050624214 0.10000791 0.07523544 0.080483675
0.082721874 -0.032308824 0.09518972 -0.0036277473 0.0121293515 -0.034236178 0.05476539 0.057650954
-0.013684593 0.113651305 -0.03343498 0.032676324 0.11725582 0.072736695 -0.04701046 -0.058479607
0.024915606 -0.0009784251 0.009085879 0.083161235 0.04512666 -0.07240462 -0.10540523 0.12205289
-0.014212564 -0.050860494 -0.0948185 0.12397148 0.065144315 -0.08184073 -0.111498885 0.112151474
0.055582702 -0.018963404 -0.10729274 0.078247964 -0.08763541 0.06343983 -0.12261601 -0.1151063
-0.12384832 0.11703414 0.11731768 -0.11015844 0.09979831 -0.078470044 -0.11997893 0.062130466
0.0731816 0.073177144 0.022656605 0.123897746 -0.11121353 0.05956529 -0.040909663 0.0063759983
0.08903833 -0.09244873 0.056575537 -0.02578628 0.083504155 -0.0033901036 0.06405103 0.12386988
-0.04609496 -0.12716897 0.12177645 -0.071076885 0.029503003 0.08029188 -0.020048425 0.10089563
0.083663434 -0.025991365 0.0338483 0.009783626 0.12629656 0.08937931 -0.085985616 0.012438968
0.069630995 0.09869704 0.044078693 0.05485654 -0.023836099 0.0028001517 -0.08935031 0.106279954
0.10165797 -0.07108805 -0.110527724 0.10067016 -0.11442226 0.08279428 -0.125748 -0.066002496
-0.05466 0.12132831 -0.021845572 0.11135948 0.037508845 0.12506934 0.08550872 0.09507844
0.11255525 -0.038142584 -0.035495296 0.04159695 0.11372915 -0.047509633 -0.10155149 -0.10098949
-0.05964396 0.020599782 -0.014939457 -0.034428194 -0.060353726 0.03357932 -0.10634142 0.12701096
-0.019993417 0.024088398 0.042528287 -0.050231464 0.101884276 -0.00095683336 0.010590553 -0.12289764
0.015979841 0.044297382 0.017989695 -0.012794323 0.097482145 0.10206659 0.08888003 -0.02240672
0.022301242 -0.0901396 -0.09664929 -0.022563249 0.014430061 -0.075194545 -0.10775851 0.05872962
0.04720041 -0.08529638 0.08590752 -0.096497074 0.097658545 0.068583295 -0.04363136 0.12291007
-0.072486006 -0.058971487 0.102897376 -0.03326655 -0.05214178 0.019975886 -0.021814652 0.08133151
0.10540047 0.057425752 0.027920082 0.032431945 0.0033611655 0.015161037 0.0024514794 0.0880322
0.072194815 -0.012980096 0.04875134 0.007139921 0.045621544 0.10599078 -0.08783608 0.01834619
-0.026857987 -0.12620968 -0.12544899 -0.016904138 0.09239912 -0.08512631 0.042052478 0.074406505
-0.094098054 0.05544372 0.024365425 -0.11753369 -0.002482146 -0.12119963 0.11287199 0.060506538
0.049466297 0.09911296 0.09873067 0.12816359 0.05326411 -0.09320702 0.11991222 0.03586188
-0.050890982 -0.04804629 0.12080301 0.028678402 0.093835264 0.010068417 0.1192535 -0.094466165
0.030768692 0.030805498 -0.0014889389 0.11484355 0.025924698 0.006993428 0.088114545 -0.0101919025
-0.008341223 -0.106437236 -0.0008458197 -0.060260415 0.074746266 0.11230849 -0.12044079 -0.07477632
0.124293014 -0.05510252 0.114812836 0.12710671 -0.032376513 -0.104504935 0.06455217 0.058685094
00000000: dc3d 9ebc 3aed ecbd b272 13bd bee2 e03d
00000010: d06f c23c 7cd8 bcbc 2ace 893d 2ed6 cb3d
00000020: 74be cd3d 1ca0 c3bd c0dc 173c 221d d9bd
00000030: 394b b6bd 7606 cb3d 2ba6 d2bd 04aa 81bd
00000040: b897 7d3d fd9f 003e 4a6b 00be fb9b aabd
00000050: 565b 4fbd f2d0 cc3d 0a15 9a3d a0d4 a43d
00000060: 166a a93d 4256 04bd d4f2 c23d 80bf 6dbb
00000070: 30ba 463c 3c3b 0cbd ac51 603d 6823 6c3d
00000080: 5835 60bc 04c2 e83d 1ef3 08bd 9cd7 053d
00000090: d223 f03d faf6 943d 0a8e 40bd 5088 6fbd
000000a0: d01b cc3c 803e 80ba f0dc 143c 7050 aa3d
000000b0: bcd6 383d e048 94bd b2de d7bd def6 f93d
000000c0: d0db 68bc 1853 50bd 3430 c2bd c2e4 fd3d
000000d0: 626a 853d 1d9c a7bd 8759 e4bd acaf e53d
000000e0: b0aa 633d 2459 9bbc 4cbc dbbd 7840 a03d
000000f0: 327a b3bd beec 813d 1a1e fbbd dabc ebbd
00000100: 30a4 fdbd 98af ef3d 4044 f03d c09a e1bd
00000110: 0e63 cc3d e7b4 a0bd 83b7 f5bd 847c 7e3d
00000120: 3ce0 953d e6dd 953d 589a b93c 1abe fd3d
00000130: ebc3 e3bd bcfa 733d e490 27bd c0ed d03b
00000140: ba59 b63d c255 bdbd c0bb 673d c03d d3bc
00000150: 3a04 ab3d 802c 5ebb 302d 833d 7eaf fd3d
00000160: 12ce 3cbd 9538 02be ee65 f93d c290 91bd
00000170: 48b0 f13c 1270 a43d 983c a4bc 5ea2 ce3d
00000180: bc57 ab3d d8eb d4bc 84a4 0a3d 804b 203c
00000190: e353 013e 800c b73d 3a19 b0bd d0cc 4b3c
000001a0: b29a 8e3d ac21 ca3d dc8b 343d 40b1 603d
000001b0: ec43 c3bc c082 373b 4cfd b6bd 4ea9 d93d
000001c0: 0e32 d03d 9d96 91bd 5c5c e2bd 282c ce3d
000001d0: 3856 eabd 0c90 a93d 15c4 00be 512c 87bd
000001e0: 2ae3 5fbd fa7a f83d 7cf5 b2bc 7010 e43d
000001f0: e0a2 193d 2d12 003e 321f af3d 7cb8 c23d
00000200: 5e83 e63d 663b 1cbd 8463 11bd 9061 2a3d
00000210: d4ea e83d 7699 42bd 3afa cfbd 94d3 cebd
00000220: 3a4d 74bd e0c0 a83c a0c4 74bc 9404 0dbd
00000230: 7835 77bd 788a 093d 88c9 d9bd 290f 023e
00000240: 3cc9 a3bc 0855 c53c 2432 2e3d 82bf 4dbd
00000250: b4a8 d03d 00d4 7aba 0084 2d3c c2b1 fbbd
00000260: 28e8 823c 2c71 353d 205f 933c 489f 51bc
00000270: b8a4 c73d 4a08 d13d bc06 b63d 4c8e b7bc
00000280: 18b1 b63c 1c9b b8bd 10f0 c5bd 90d6 b8bc
00000290: 106c 6c3c 99ff 99bd 7eb0 dcbd 788e 703d
000002a0: 3855 413d deaf aebd 48f0 af3d 42a0 c5bd
000002b0: 3401 c83d 6675 8c3d ccb6 32bd 46b8 fb3d
000002c0: 8b73 94bd 168c 71bd dcbb d23d 8242 08bd
000002d0: 9e92 55bd 78a4 a33c a4b4 b2bc 2291 a63d
000002e0: 34dc d73d 4437 6b3d a8b8 e43c 5cd7 043d
000002f0: 0047 5c3b 0066 783c 00a9 203b 3a4a b43d
00000300: e0da 933d 78aa 54bc 7caf 473d 00f6 e93b
00000310: a8dd 3a3d b211 d93d 67e3 b3bd c04a 963c
00000320: 4805 dcbc 1c3d 01be b375 00be 8c7a 8abc
00000330: c03b bd3d b456 aebd 383f 2c3d 7062 983d
00000340: 7bb6 c0bd f418 633d 009a c73c 81b5 f0bd
00000350: 80ab 22bb 8337 f8bd 6e29 e73d b4d5 773d
00000360: 2c9d 4a3d bcfb ca3d 4e33 ca3d 513d 033e
00000370: 782b 5a3d 52e3 bebd 8a94 f53d e8e3 123d
00000380: 1073 50bd 30cc 44bd 9267 f73d f8ee ea3c
00000390: b42c c03d 00f6 243c 2e3b f43d 7a77 c1bd
000003a0: a00e fc3c d05b fc3c 8028 c3ba 1833 eb3d
000003b0: 0860 d43c 2029 e53b 6675 b43d f0fb 26bc
000003c0: a0a9 08bc c4fb d9bd 00ba 5dba a0d3 76bd
000003d0: 9214 993d fe01 e63d a9a9 f6bd 5424 99bd
000003e0: 568d fe3d 2eb3 61bd fe22 eb3d 4328 023e
000003f0: 3c9d 04bd af06 d6bd ee33 843d c85f 703d

gc2.bias f4 [60]
-0.005829707 0.06046188 -0.09862127 -0.03455662 -0.078655414 -0.116770245 -0.09237099 -0.08294869
0.09829877 0.07890913 -0.08764388 -0.10187952 0.1156133 0.030643672 0.059450224 0.020160943
-0.048237614 -0.06974694 0.069458365 -0.1275313 -0.10742627 0.03898558 -0.033855446 0.024694428
0.06885457 -0.07418929 -0.07267149 -0.079403885 -0.11295601 -0.008738741 0.109626904 -0.0078906715
0.07080178 -0.064203605 0.012809083 -0.09694031 -0.008533612 0.028330803 -0.055237196 0.11852789
0.036449596 0.06457341 0.1284831 0.05472587 -0.0101423785 0.06165774 0.12721954 -0.1242889
-0.0243401 0.06269121 -0.03129045 -0.10503241 -0.07494378 -0.067099825 0.053522736 0.08219226
-0.014691584 -0.1056356 0.018343017 0.03609307
00000000: 2007 bfbb e0a6 773d f3f9 c9bd 3e8b 0dbd
00000010: 1716 a1bd 3d25 efbd 002d bdbd 01e1 a9bd
00000020: de50 c93d 1c9b a13d a27e b3bd 36a6 d0bd
00000030: aac6 ec3d 7008 fb3c 1482 733d 9028 a53c
00000040: ce94 45bd 7cd7 8ebd 3040 8e3d 9197 02be
00000050: 4e02 dcbd 58af 1f3d 02ac 0abd f84b ca3c
00000060: a003 8d3d 8ef0 97bd cad4 94bd 819e a2bd
00000070: 7b55 e7bd f02c 0fbc 1284 e03d e047 01bc
00000080: 8600 913d 2e7d 83bd 30dd 513c a488 c6bd
00000090: 90d0 0bbc 0016 e83c 6640 62bd c0be f23d
000000a0: 2c4c 153d 103f 843d 1391 033e 3c28 603d
000000b0: 382c 26bc d48c 7c3d d745 023e 2e8b febd
000000c0: e464 c7bc 4064 803d 6a2a 00bd 3b1b d7bd
000000d0: 207c 99bd a26b 89bd a83a 5b3d 6a54 a83d
000000e0: f8b4 70bc 7a57 d8bd 1844 963c 54d6 133d

gc3.weight f4 [60, 60]
-0.048697174 0.044515625 -0.05273632 0.043460608 0.092369065 0.06438473 -0.012200385 0.12399925
-0.011352278 -0.11515015 0.092798024 0.12004423 0.058916032 0.11314081 0.06972733 0.052694768
0.0747488 -0.09917224 -0.0015404224 -0.05515077 0.035513625 -0.114167005 0.0076321214 0.050506994
-0.047971636 -0.05206967 -0.08372809 0.03554453 -0.10836619 -0.026498668 0.0071807355 0.03683354
-0.11083141 0.02605097 -0.05064845 -0.015030175 -0.094205156 -0.101398155 0.017611176 0.021922424
0.11095548 0.12147589 0.094325855 0.050023615 0.08586012 0.0551316 -0.120267496 0.09395383
0.01567386 -0.032194696 -0.038393684 0.102976665 0.090088576 -0.011992097 -0.04825952 -0.06940912
0.07442418 -0.078291476 -0.08558673 -0.07747398 0.03748472 0.09896384 0.025803298 0.0481212
-0.10426699 -0.09380016 -0.075612195 -0.08261062 -0.057627916 -0.07826795 -0.04224076 -0.07991746
0.038454846 0.003331691 0.006569743 0.05473551 -0.116233714 -0.05054257 -0.004385151 -0.12062844
0.068602294 -0.09693918 0.08726953 0.1277617 0.026605695 -0.062835895 0.091114625 -0.084635235
0.0061124116 0.08094193 0.12102957 0.009459734 -0.009798259 -0.011202738 -0.12516491 0.02294074
-0.102470644 0.011605263 -0.030676715 0.08209257 -0.05169168 0.0917557 -0.030763052 -0.024969019
-0.11752638 0.112197846 0.011166424 -0.116352305 0.0072603375 0.052875146 -0.027281411 0.105351806
0.06314069 -0.0165478 0.12906824 0.09104787 -0.015835375 -0.011151642 0.039620697 -0.044986002
0.07947406 -0.124206364 -0.069164336 0.05917713 -0.12390596 -0.04277453 -0.06864491 0.06993687
0.0064910203 -0.0916924 0.10403286 -0.058872975 -0.014242955 0.04356119 -0.08608286 -0.011907317
-0.043491356 -0.030621238 -0.046829782 0.0826357 -0.06344019 -0.08712571 0.055767253 0.04182796
0.0013480484 0.010638267 0.12671141 -0.04318919 -0.11521052 -0.12715721 0.0334692 0.05031708
0.0018243492 -0.10728959 -0.10084472 -0.087966025 0.08311182 0.025299475 -0.07190407 -0.1220904
0.074168175 0.0013872385 0.12832646 -0.10577529 -0.104711995 0.022273839 0.08652763 0.08527759
0.12835206 0.082189634 0.0576652 -0.07937812 0.12722223 -0.057134904 0.08301936 0.05311039
-0.0765215 -0.011533067 -0.010749705 0.097481325 0.098787904 0.027680099 -0.07336632 0.036768317
0.105773196 -0.0684105 0.10346432 0.029173285 0.07141259 0.044283494 0.0815036 -0.10983656
0.053318515 -0.11195361 -0.008809522 0.10095851 -0.10587016 -0.098198496 -0.056581885 0.0048573017
-0.017848656 -0.10133533 0.01682134 -0.03243073 -0.060295165 0.0014091432 0.043842122 0.020711675
-0.08558072 0.08751407 0.024357542 -0.052861206 0.11174743 0.026024118 0.06713362 0.09128204
-0.0023006797 0.10639572 -0.0005759448 0.10328086 0.015659124 0.059404045 0.06501238 -0.071549565
0.11281882 0.0039147288 0.04744889 -0.09525226 -0.048189044 0.08415623 -0.08147539 0.017885774
0.11336255 -0.12262204 -0.0014259517 0.020978421 0.08461335 -0.04337658 -0.126171 -0.079902716
0.038746253 -0.09507048 -0.11051252 -0.0032572597 0.03387332 -0.08095366 -0.050143063 0.07061787
-0.08728789 -0.10619099 -0.03901811 0.1037292 -0.037850067 -0.0875114 -0.09158534 -0.030340984
00000000: b076 47bd 0456 363d 0a02 58bd c003 323d
00000010: fe2b bd3d 24dc 833d 20e4 47bc 52f3 fd3d
00000020: e8fe 39bc d8d3 ebbd e40c be3d c0d9 f53d
00000030: f051 713d 5eb6 e73d 34cd 8e3d 78d6 573d
00000040: e615 993d d11a cbbd 00e8 c9ba c6e5 61bd
00000050: bc76 113d 64d0 e9bd e016 fa3b 6ce0 4e3d
00000060: e87d 44bd 0247 55bd a279 abbd 2497 113d
00000070: 18ef ddbd bc13 d9bc 604c eb3b c4de 163d
00000080: 94fb e2bd d868 d53c c074 4fbd 2041 76bc
00000090: a2ee c0bd d6a9 cfbd 5045 903c a896 b33c
000000a0: a03c e33d 5ac8 f83d ea2d c13d 90e5 4c3d
000000b0: 6ed7 af3d acd1 613d ce4e f6bd de6a c03d
000000c0: 7866 803c 96de 03bd b242 1dbd 6ee5 d23d
000000d0: 5c80 b83d 807a 44bc c6ab 45bd 5e26 8ebd
000000e0: b46b 983d 4857 a0bd 1848 afbd aeaa 9ebd
000000f0: 9489 193d 8ead ca3d 7061 d33c bc1a 453d
00000100: ef89 d5bd 4c1a c0bd 91da 9abd c22f a9bd
00000110: 400b 6cbd f24a a0bd a604 2dbd c4ab a3bd
00000120: d482 1d3d 8058 5a3b 0047 d73b 5832 603d
00000130: f10b eebd ba05 4fbd 50b1 8fbb 0b0c f7bd
00000140: 5c7f 8c3d 0c88 c6bd 5eba b23d f7d3 023e
00000150: 30f4 d93c 1bb0 80bd 4e9a ba3d 3d55 adbd
00000160: a04a c83b e2c4 a53d 5ade f73d 00fd 1a3c
00000170: e088 20bc b08b 37bc 3b2b 00be 38ee bb3c
00000180: 21dc d1bd 0024 3e3c bc4d fbbc 2620 a83d
00000190: a8ba 53bd 6aea bb3d cc02 fcbc d48b ccbc
000001a0: acb1 f0bd fcc7 e53d 60f3 363c 1e4a eebd
000001b0: 20e8 ed3b 9c93 583d 447d dfbc b0c2 d73d
000001c0: e84f 813d 408f 87bc 772a 043e 4e77 ba3d
000001d0: 30b9 81bc 60b5 36bc 5049 223d 3e43 38bd
000001e0: 4cc3 a23d e85f febd 08a6 8dbd b863 723d
000001f0: 68c2 fdbd 5834 2fbd b495 8cbd 103b 8f3d
00000200: a0b2 d43b 3ac9 bbbd 2e0f d53d ca24 71bd
00000210: 485b 69bc 386d 323d 364c b0bd e816 43bc
00000220: fe23 32bd 64d9 fabc 96d0 3fbd e83c a93d
00000230: eeec 81bd f76e b2bd 346c 643d cc53 2b3d
00000240: 00b1 b03a 204c 2e3c a3c0 013e 26e7 30bd
00000250: 7ef3 ebbd 8035 02be 0017 093d 4819 4e3d
00000260: 001f ef3a a5ba dbbd ad87 cebd 8827 b4bd
00000270: 8836 aa3d d840 cf3c 7142 93bd 880a fabd
00000280: 7ce5 973d 00d4 b53a 0368 033e b7a0 d8bd
00000290: 3e73 d6bd a077 b63c 6635 b13d 04a6 ae3d
000002a0: b96e 033e 0a53 a83d 5832 6c3d ff90 a2bd
000002b0: 8b46 023e 4a06 6abd 0e06 aa3d 488a 593d
000002c0: 4eb7 9cbd 30f5 3cbc 881f 30bc 4aa4 c73d
000002d0: 5051 ca3d 60c1 e23c 1541 96bd 609a 163d
000002e0: 9e9f d83d ce1a 8cbd 1ae5 d33d d0fc ee3c
000002f0: c440 923d 9c62 353d 5ceb a63d fef1 e0bd
00000300: 8464 5a3d ef47 e5bd d055 10bc 56c3 ce3d
00000310: 74d2 d8bd 4b1c c9bd 68c2 67bd 002a 9f3b
00000320: 5837 92bc e688 cfbd e8cc 893c 16d6 04bd
00000330: 10f8 76bd 00b3 b83a cc93 333d 88ab a93c
00000340: f244 afbd 943a b33d 7889 c73c fe84 58bd
00000350: d6db e43d 8830 d53c 5a7d 893d 14f2 ba3d
00000360: 00c7 16bb 00e6 d93d 00fb 16ba ea84 d33d
00000370: 9047 803c a851 733d 3625 853d 9488 92bd
00000380: 8e0d e73d 2047 803b c459 423d 9e13 c3bd
00000390: e061 45bd 1a5a ac3d 92dc a6bd 3085 923c
000003a0: a02a e83d 4421 fbbd 00e7 baba f0da ab3c
000003b0: c449 ad3d a4ab 31bd f832 01be 09a4 a3bd
000003c0: 64b4 1e3d 50b4 c2bd 6354 e2bd c077 55bb
000003d0: c0be 0a3d 08cb a5bd d062 4dbd 1aa0 903d
000003e0: fec3 b2bd a97a d9bd 74d1 1fbd fa6f d43d
000003f0: ac08 1bbd 2d39 b3bd 1891 bbbd a88d f8bc

gc3.bias f4 [60]
-0.06536523 -0.063132085 0.031359926 -0.06738481 0.055676788 -0.121668145 -0.047328845 0.12873851
-0.0065370426 0.07014097 0.11640099 -0.03689357 -0.030092977 -0.018529199 -0.06431295 -0.0038906783
0.061522186 0.111425385 0.08931023 0.12714048 -0.0651991 -0.08899623 -0.12729315 0.07601501
0.05723682 -0.03089898 0.1067366 -0.09291981 -0.020887218 -0.003376916 0.05191502 0.10766515
-0.07340284 0.12877496 0.12296514 0.034346104 -0.08496603 0.04256597 0.02690263 -0.046809807
0.12428485 -0.10369815 -0.045858927 -0.04842519 -0.035832025 0.09568381 -0.0064245686 0.01796323
-0.11513849 -0.08732122 0.08109334 -0.039458968 0.04618229 -0.09950017 -0.07330693 0.06211996
0.09091321 0.008024231 -0.11690414 -0.081221655
00000000: 35de 85bd 654b 81bd 4473 003d 0c01 8abd
00000010: 580d 643d 262d f9bd e4db 41bd 07d4 033e
00000020: b034 d6bb 12a6 8f3d a463 ee3d b61d 17bd
00000030: 8c85 f6bc 8cca 97bc 82b6 83bd c0fa 7ebb
00000040: b0fe 7b3d fe32 e43d 48e8 b63d 1d31 023e
00000050: 1b87 85bd a843 b6bd 2359 02be c2ad 9b3d
00000060: 2871 6a3d dc1f fdbc b898 da3d be4c bebd
00000070: ac1b abbc 404f 5dbb d8a4 543d 8c7f dc3d
00000080: 3a54 96bd 95dd 033e 26d5 fb3d 80ae 0c3d
00000090: ac02 aebd a859 2e3d e862 dc3c a4bb 3fbd
000000a0: 0e89 fe3d b25f d4bd 92d6 3bbd 7e59 46bd
000000b0: 9ac4 12bd e0f5 c33d 3085 d2bb a027 933c
000000c0: bbcd ebbd 78d5 b2bd 4414 a63d ba9f 21bd
000000d0: a429 3d3d bfc6 cbbd f221 96bd 8071 7e3d
000000e0: b430 ba3d 1078 033c 706b efbd 8a57 a6bd

gc4.weight f4 [60, 1]
-0.5399059 0.74090326 -0.9377969 -0.10341182 -1.3254929 -0.8475149 0.7809058 0.0010612574
-0.19549073 0.18640679 -0.32435068 -0.6385251 -0.3838513 -0.8423777 0.64203846 -0.28563216
0.45385408 0.24372418 0.9386347 0.5124552 -0.9631685 -0.45522785 0.3056127 -0.3971969
-0.0001708461 0.8771368 0.7053008 -0.8308979 0.39779 0.8614828 -0.78929025 -0.40543434
-0.6284394 -1.2682561 0.8493902 1.5492127e-05 -0.9206388 -0.3125195 -0.6880742 -0.44307482
-0.46729684 0.41971102 0.259204 -0.5978343 0.52152103 0.03708698 -0.9156804 -0.64734966
0.35609943 0.62590444 -1.0693728 -0.40700734 -1.0200163 -1.2754016 0.5034087 -0.49250704
-0.76247805 -0.10502499 -0.83759624 0.76261085
00000000: 4637 0abf d6ab 3d3f 7513 70bf 94c9 d3bd
00000010: c0a9 a9bf bdf6 58bf 71e9 473f e419 8b3a
00000020: b92e 48be 6ce1 3e3e 4b11 a6be 6276 23bf
00000030: 2888 c4be 11a6 57bf a25c 243f 613e 92be
00000040: 905f e83e d592 793e 5d4a 703f 4430 033f
00000050: 3692 76bf a013 e9be 4579 9c3e 645d cbbe
00000060: 2725 33b9 0a8c 603f 988e 343f bab5 54bf
00000070: 22ab cb3e 238a 5c3f ed0e 4abf 1795 cfbe
00000080: 68e1 20bf 3756 a2bf a371 593f 17f5 8137
00000090: fcae 6bbf 8e02 a0be a125 30bf b4da e2be
000000a0: 8841 efbe 5de4 d63e 63b6 843e ab0b 19bf
000000b0: 6782 053f 84e8 173d 086a 6abf b5b8 25bf
000000c0: aa52 b63e 463b 203f 35e1 88bf 4463 d0be
000000d0: e58f 82bf 5c40 a3bf 64df 003f e229 fcbe
000000e0: c331 43bf 5817 d7bd b56c 56bf 773a 433f
