pyperplan/src/checkpoints/standard_1data.pth (torch_old, 50413 bytes, 7 tensors)

gc1.weight f4 [81, 60]
00000000: 8feb b63a d271 373b e546 5435 9ece b73b
00000010: 0077 d3b4 4902 5d35 b7a7 0a36 5aaa ddb6
00000020: 8714 8d3b 81d0 71ba 0030 803b aadb 3fb4
00000030: c03e 823a eda3 a8b4 d187 00b5 547d 1bb4
00000040: ad91 c53a 9f32 1435 785a 70b6 4f9d 81b5
00000050: 33c9 9bb6 4d0b a6b4 52d2 04b6 2a52 8139
00000060: ae10 f4ba b86c 9ab6 9e3b 9fb5 df1e 5fb7
00000070: bcf6 8cb3 8891 0bbc 5d35 a53b 74f7 59bb
00000080: 2c46 c83a 92ac c7b4 d42a d333 7a1f 5338
00000090: 030b e834 345a 143b aa3d 8a34 d63c 59b5
000000a0: 2ccd 7833 d7b1 96b4 5287 8d36 de71 993b
000000b0: acb6 7cb7 61cb c0b6 052f 83b7 26c5 32b5
000000c0: 9660 30b7 4d61 f8b7 d145 0dbc 00dc 8935
000000d0: f992 bcba c0d9 273b 061e c935 2ee7 5a36
000000e0: 2070 4435 2e9a f3b2 3863 e23a ce63 28ba
000000f0: 7fac 883b 3d1a 86bd ab78 883c a783 aebc
00000100: 6c77 083d e9c7 1abd 1550 073e 191e 80bd
00000110: d591 85bd f879 f8bc f593 ab3d c2b8 543c
00000120: 7275 d03d 106e 00be c700 01be 3cc3 e1ba
00000130: dadd 2fbd ffbe 923d 30bd 963d 3238 083e
00000140: 471e 97bd 091c c9bc f0ef bb3d 9f23 9ebd
00000150: 3e0a 0b3d 09bd eebb 34c5 ab3d afea b3bd
00000160: c7bc 14bc ece2 873d 523d 9eba ead2 38bd
00000170: 3848 353d 7761 653d e4a7 78bd f9e8 ac37
00000180: e995 b53d 086f d9bc c72d 5ebd 795a f9bb
00000190: cd64 92bd 4402 043d a2ab 953c aaa5 c3bd
000001a0: a8b2 e73c d5fc 343c bacd 08be 7806 98bd
000001b0: 4c67 82bc 4f85 06bd 612d dd3d 163a c5bc
000001c0: f3c2 d83c 7414 06be 5e51 5bbd 5df0 84bd
000001d0: dcbe d734 3459 8bbb c2d5 77bd 1f90 32bc
000001e0: f280 f43b e21a 38bc 0e91 fe3b b751 c0bc
000001f0: d627 d4bd 0fa1 9dbd fc44 59bc fead 60bd
00000200: c9ba 913d 0ab0 0b3c 6454 b63d f1b9 903c
00000210: b2cc f6bd 9c82 ce3d 6f19 09bc ec6d 31bc
00000220: bece 91bd 3612 8dbd bb14 433d 6738 3a3b
00000230: 5158 193c 5285 d2bd 0291 e13d fe5b 02be
00000240: 7fbd a3bb 2b44 d43c 69e7 953d 0032 b33d
00000250: a74a f03d 78e4 29bd 8c55 dcbb 8f51 52bd
00000260: 4177 36bc 053d e0bd cb49 043e ddf3 72ba
00000270: af77 4b3d e708 2e3d ed44 1e3c 2d77 bb37
00000280: 6862 fa3d 4dd6 f43c 2530 213d 4983 05be
00000290: 8302 7a3d 31fb 8c3c 0913 adbd e2d1 c03d
000002a0: f168 ab3c d77c 923b 7819 a8bd 084a 7cbc
000002b0: 32e6 5b3d eed2 88bd 8580 3bbd 7c01 a1bd
000002c0: 6703 92ba 7f11 34b6 9f10 a33d 88ac 2abb
000002d0: e377 2fb5 7aea 6eb7 da2f 18b5 073c 3336
000002e0: 89b9 89b7 7e3b 95b7 0bae 18b6 30f4 4135
000002f0: bb19 9634 0b99 8d33 9017 4035 f351 e1b5
00000300: 13dc 0039 47df 6c3b 337e be34 91f1 7cb2
00000310: 1d64 4c33 32b0 9b32 ebfd 92b5 861a 8b35
00000320: b744 abbb 208a 2b36 378e 4c3b 5ed0 21b5
00000330: f321 f333 c647 88b7 c71e 12b8 d7c3 9cbb
00000340: 7a72 7834 3585 c3b5 a012 f438 6fe9 9636
00000350: 60aa 8fbb bcc7 61b7 22f4 a4b4 2d00 f93b
00000360: d617 d834 9af6 4235 83c5 5536 6450 df35
00000370: d496 26b9 3bd8 643a b126 b4b6 e104 4fb5
00000380: c40c 11bc 6b1c 9539 2bbd a73a 2649 35b6
00000390: 0c50 05ba 8401 0bbc 40bc 1abb f950 8f3a
000003a0: 8827 4234 7d6f 4b3b 0305 90b7 4786 8cb5
000003b0: 67ec ddb2 5af5 adba 17c9 67bb 140e cdbb
000003c0: 82ae 2736 9418 7036 94b4 57b5 d030 8d37
000003d0: 1266 0b35 ba14 16ba 7c17 47b9 16cd 62b5
000003e0: c5ef e1b5 ad46 4c38 831c a2b4 d599 71ba
000003f0: 51b6 4035 bdb1 b235 5a15 c3b5 5260 e3bb
0.00139557 0.0027991426 7.907932e-07 0.0056093475 -3.9388397e-07 8.233224e-07 2.0661225e-06 -6.606145e-06
0.0043054256 -0.000922449 0.003911972 -1.7868174e-07 0.0009936914 -3.141171e-07 -4.7881355e-07 -1.4481094e-07
0.0015073322 5.520796e-07 -3.5815447e-06 -9.657032e-07 -4.6427826e-06 -3.0928132e-07 -1.9791955e-06 0.00024666014
-0.0018620694 -4.602214e-06 -1.1863774e-06 -1.32990235e-05 -6.564139e-08 -0.008518584 0.005041762 -0.0033259066
0.0015279702 -3.71922e-07 9.8332436e-08 5.0335635e-05 4.322138e-07 0.0022636773 2.574937e-07 -8.092733e-07
5.7928602e-08 -2.8069073e-07 4.217881e-06 0.0046827635 -1.5062902e-05 -5.7457223e-06 -1.5638312e-05 -6.6597056e-07
-1.0512906e-05 -2.9609213e-05 -0.008622603 1.0271324e-06 -0.0014387063 0.0025611967 1.4984405e-06 3.2619096e-06
7.3178853e-07 -2.8359036e-08 0.0017272001 -0.00064235635 0.0041709538 -0.06547973 0.016659101 -0.021303011
0.033317015 -0.037788305 0.13214143 -0.06255741 -0.06521956 -0.030331597 0.0837783 0.012983503
0.10178651 -0.12541986 -0.12597953 -0.0017224322 -0.042936184 0.07165336 0.073603034 0.13302687
-0.07378822 -0.024549501 0.09176624 -0.07721638 0.033945315 -0.0072857183 0.08387223 -0.08784997
-0.009078211 0.06635079 -0.0012072718 -0.04512302 0.044258326 0.056001153 -0.060706988 2.0612484e-05
0.08866484 -0.026542202 -0.054242875 -0.007609662 -0.071481325 0.032228723 0.018270317 -0.09553082
0.028283432 0.011046608 -0.13359728 -0.07423109 -0.015918396 -0.032841977 0.10799671 -0.02407555
0.026460147 -0.1309374 -0.053544395 -0.06491158 4.018574e-07 -0.004252577 -0.06050659 -0.010898619
0.0074616605 -0.011236878 0.0077687567 -0.023476465 -0.103591606 -0.07696735 -0.013261076 -0.054853432
0.071157046 0.008525858 0.08902815 0.017666789 -0.12050761 0.100835055 -0.00836788 -0.01082943
-0.07119511 -0.06888239 0.047627192 0.0028414966 0.009359435 -0.10279335 0.11013986 -0.12730405
-0.004996955 0.025911411 0.073195286 0.08749771 0.11732989 -0.04147765 -0.006724065 -0.05134731
-0.011136831 -0.109491386 0.12918775 -0.0009267906 0.049674686 0.04248896 0.009659988 2.2347633e-05
0.12225801 0.029887343 0.039352555 -0.13038363 0.06103755 0.017209621 -0.08450896 0.09415032
0.020924063 0.0044704485 -0.08207983 -0.01539851 0.05368633 -0.06680857 -0.045776863 -0.07861611
-0.001113993 -2.6832274e-06 0.079621546 -0.0026042778 -6.536704e-07 -1.4240499e-05 -5.6694046e-07 2.670802e-06
-1.641807e-05 -1.7789887e-05 -2.2751071e-06 7.225344e-07 2.79584e-07 6.5936625e-08 7.155986e-07 -1.6787657e-06
0.00012289015 0.0036143826 3.548208e-07 -1.4723256e-08 4.7588504e-08 1.81245e-08 -1.0951748e-06 1.0364026e-06
-0.0052266973 2.5561385e-06 0.0031212696 -6.028039e-07 1.13217446e-07 -1.6245885e-05 -3.4837776e-05 -0.004784088
2.3138446e-07 -1.45674e-06 0.00011638296 4.4975236e-06 -0.004384324 -1.3457549e-05 -3.072501e-07 0.007598898
4.0250478e-07 7.2629484e-07 3.185444e-06 1.6638191e-06 -0.00015887182 0.00087297306 -5.3689223e-06 -7.712061e-07
-0.008853141 0.00028440668 0.0012797465 -2.701368e-06 -0.0005085475 -0.008484248 -0.002361074 0.0010934166
1.808204e-07 0.0031041794 -1.7168471e-05 -1.0469893e-06 -2.583529e-08 -0.0013271973 -0.0035367662 -0.0062577818
2.4986516e-06 3.5777093e-06 -8.035652e-07 1.683124e-05 5.1930067e-07 -0.00057251344 -0.00018986868 -8.449e-07
-1.6833588e-06 4.8703212e-05 -3.0195596e-07 -0.0009216343 7.179088e-07 1.3313762e-06 -1.4534846e-06 -0.0069389725

gc1.bias f4 [60]
00000000: 4e9a cbbc 8ab3 9c3d 21b8 e73c 608d e93c
00000010: ed2f a43d f812 d83c 5b2c fc3d 5730 84bc
00000020: 5df5 0cbe 0698 ee3d cf30 a93b 6590 a23d
00000030: c94a a33c 5fb8 aaba 5bb6 94bd 9ece fabd
00000040: 90aa 7f3d bbcd 193e 59ed 283d 98ce 943b
00000050: 3120 8b3d fa5b 70bd 4e89 993d 06d6 00be
00000060: ebc5 c4bd 82c6 f2bc 96a4 153d a610 063d
00000070: 7094 b43d a204 a3bc 4efb 4cbd e802 7e3d
00000080: 040c 31bd 07b4 d7bc 67e8 e93d 2b7b f5bb
00000090: 2c4d bf3c 9623 e13d 620c e03b 1a9f aabb
000000a0: 1b54 91bd 11c6 0fbd 4c7f c53c 310f 8fbc
000000b0: 2925 d73d 3257 7a3c 050e 883d cd52 93bd
000000c0: 66d2 fa3c 9d63 6839 f851 13bc dd30 913d
000000d0: 1bff 503c ba0a 1cbd e5e4 e0bb 5ab2 f5bd
000000e0: 3735 cfb9 6cc0 69bb 101f 943d 9fa0 07bc
-0.024853852 0.07651432 0.028286042 0.028509796 0.080169536 0.026376233 0.12313148 -0.016136331
-0.13765474 0.1165009 0.005163289 0.07937697 0.019933121 -0.0013024918 -0.07261344 -0.1224644
0.06241852 0.15019886 0.041241977 0.0045412295 0.067932494 -0.058681466 0.07496892 -0.12581643
-0.09608062 -0.029635672 0.036533915 0.03273072 0.08817375 -0.01989967 -0.05004435 0.06201449
-0.04322435 -0.02633096 0.1142128 -0.0074914894 0.023352228 0.109931156 0.0068374136 -0.0052069547
-0.0709612 -0.035101 0.024108551 -0.017463299 0.105051346 0.015279578 0.06643299 -0.07193527
0.030617904 0.00022162353 -0.008991711 0.07089398 0.012756134 -0.038096167 -0.006863224 -0.119969085
-0.00039521765 -0.003566767 0.07232487 -0.008278041

gc2.weight f4 [60, 60]
00000000: dc3d 9ebc 3aed ecbd b272 13bd bee2 e03d
00000010: d06f c23c 7cd8 bcbc 2ace 893d 2ed6 cb3d
00000020: 74be cd3d 1ca0 c3bd c0dc 173c 221d d9bd
00000030: 394b b6bd 7606 cb3d 2ba6 d2bd 04aa 81bd
00000040: b897 7d3d fd9f 003e 4a6b 00be fb9b aabd
00000050: 565b 4fbd f2d0 cc3d 0a15 9a3d a0d4 a43d
00000060: 166a a93d 4256 04bd d4f2 c23d 80bf 6dbb
00000070: 30ba 463c 3c3b 0cbd ac51 603d 6823 6c3d
00000080: 5835 60bc 04c2 e83d 1ef3 08bd 9cd7 053d
00000090: d223 f03d faf6 943d 0a8e 40bd 5088 6fbd
000000a0: d01b cc3c 803e 80ba f0dc 143c 7050 aa3d
000000b0: bcd6 383d e048 94bd b2de d7bd def6 f93d
000000c0: d0db 68bc 1853 50bd 3430 c2bd c2e4 fd3d
000000d0: 626a 853d 1d9c a7bd 8759 e4bd acaf e53d
000000e0: b0aa 633d 2459 9bbc 4cbc dbbd 7840 a03d
000000f0: 327a b3bd beec 813d 1a1e fbbd dabc ebbd
00000100: 30a4 fdbd 98af ef3d 4044 f03d c09a e1bd
00000110: 0e63 cc3d e7b4 a0bd 83b7 f5bd 847c 7e3d
00000120: 3ce0 953d e6dd 953d 589a b93c 1abe fd3d
00000130: ebc3 e3bd bcfa 733d e490 27bd c0ed d03b
00000140: ba59 b63d c255 bdbd c0bb 673d c03d d3bc
00000150: 3a04 ab3d 802c 5ebb 302d 833d 7eaf fd3d
00000160: 12ce 3cbd 9538 02be ee65 f93d c290 91bd
00000170: 48b0 f13c 1270 a43d 983c a4bc 5ea2 ce3d
00000180: bc57 ab3d d8eb d4bc 84a4 0a3d 804b 203c
00000190: e353 013e 800c b73d 3a19 b0bd d0cc 4b3c
000001a0: b29a 8e3d ac21 ca3d dc8b 343d 40b1 603d
000001b0: ec43 c3bc c082 373b 4cfd b6bd 4ea9 d93d
000001c0: 0e32 d03d 9d96 91bd 5c5c e2bd 282c ce3d
000001d0: 3856 eabd 0c90 a93d 15c4 00be 512c 87bd
000001e0: 2ae3 5fbd fa7a f83d 7cf5 b2bc 7010 e43d
000001f0: e0a2 193d 2d12 003e 321f af3d 7cb8 c23d
00000200: 5e83 e63d 663b 1cbd 8463 11bd 9061 2a3d
00000210: d4ea e83d 7699 42bd 3afa cfbd 94d3 cebd
00000220: 3a4d 74bd e0c0 a83c a0c4 74bc 9404 0dbd
00000230: 7835 77bd 788a 093d 88c9 d9bd 290f 023e
00000240: 3cc9 a3bc 0855 c53c 2432 2e3d 82bf 4dbd
00000250: b4a8 d03d 00d4 7aba 0084 2d3c c2b1 fbbd
00000260: 28e8 823c 2c71 353d 205f 933c 489f 51bc
00000270: b8a4 c73d 4a08 d13d bc06 b63d 4c8e b7bc
00000280: 18b1 b63c 1c9b b8bd 10f0 c5bd 90d6 b8bc
00000290: 106c 6c3c 99ff 99bd 7eb0 dcbd 788e 703d
000002a0: 3855 413d deaf aebd 48f0 af3d 42a0 c5bd
000002b0: 3401 c83d 6675 8c3d ccb6 32bd 46b8 fb3d
000002c0: 8b73 94bd 168c 71bd dcbb d23d 8242 08bd
000002d0: 9e92 55bd 78a4 a33c a4b4 b2bc 2291 a63d
000002e0: 34dc d73d 4437 6b3d a8b8 e43c 5cd7 043d
000002f0: 0047 5c3b 0066 783c 00a9 203b 3a4a b43d
00000300: e0da 933d 78aa 54bc 7caf 473d 00f6 e93b
00000310: a8dd 3a3d b211 d93d 67e3 b3bd c04a 963c
00000320: 4805 dcbc 1c3d 01be b375 00be 8c7a 8abc
00000330: c03b bd3d b456 aebd 383f 2c3d 7062 983d
00000340: 7bb6 c0bd f418 633d 009a c73c 81b5 f0bd
00000350: 80ab 22bb 8337 f8bd 6e29 e73d b4d5 773d
00000360: 2c9d 4a3d bcfb ca3d 4e33 ca3d 513d 033e
00000370: 782b 5a3d 52e3 bebd 8a94 f53d e8e3 123d
00000380: 1073 50bd 30cc 44bd 9267 f73d f8ee ea3c
00000390: b42c c03d 00f6 243c 2e3b f43d 7a77 c1bd
000003a0: a00e fc3c d05b fc3c 8028 c3ba 1833 eb3d
000003b0: 0860 d43c 2029 e53b 6675 b43d f0fb 26bc
000003c0: a0a9 08bc c4fb d9bd 00ba 5dba a0d3 76bd
000003d0: 9214 993d fe01 e63d a9a9 f6bd 5424 99bd
000003e0: 568d fe3d 2eb3 61bd fe22 eb3d 4328 023e
000003f0: 3c9d 04bd af06 d6bd ee33 843d c85f 703d
-0.019316606 -0.11568685 -0.035998054 0.10980748 0.023734957 -0.023052447 0.06728776 0.09952961
0.10046092 -0.09552023 0.0092689395 -0.1060126 -0.08901066 0.09913342 -0.102856 -0.06331256
0.06191227 0.1256103 -0.12540928 -0.08330532 -0.050624214 0.10000791 0.07523544 0.080483675
0.082721874 -0.032308824 0.09518972 -0.0036277473 0.0121293515 -0.034236178 0.05476539 0.057650954
-0.013684593 0.113651305 -0.03343498 0.032676324 0.11725582 0.072736695 -0.04701046 -0.058479607
0.024915606 -0.0009784251 0.009085879 0.083161235 0.04512666 -0.07240462 -0.10540523 0.12205289
-0.014212564 -0.050860494 -0.0948185 0.12397148 0.065144315 -0.08184073 -0.111498885 0.112151474
0.055582702 -0.018963404 -0.10729274 0.078247964 -0.08763541 0.06343983 -0.12261601 -0.1151063
-0.12384832 0.11703414 0.11731768 -0.11015844 0.09979831 -0.078470044 -0.11997893 0.062130466
0.0731816 0.073177144 0.022656605 0.123897746 -0.11121353 0.05956529 -0.040909663 0.0063759983
0.08903833 -0.09244873 0.056575537 -0.02578628 0.083504155 -0.0033901036 0.06405103 0.12386988
-0.04609496 -0.12716897 0.12177645 -0.071076885 0.029503003 0.08029188 -0.020048425 0.10089563
0.083663434 -0.025991365 0.0338483 0.009783626 0.12629656 0.08937931 -0.085985616 0.012438968
0.069630995 0.09869704 0.044078693 0.05485654 -0.023836099 0.0028001517 -0.08935031 0.106279954
0.10165797 -0.07108805 -0.110527724 0.10067016 -0.11442226 0.08279428 -0.125748 -0.066002496
-0.05466 0.12132831 -0.021845572 0.11135948 0.037508845 0.12506934 0.08550872 0.09507844
0.11255525 -0.038142584 -0.035495296 0.04159695 0.11372915 -0.047509633 -0.10155149 -0.10098949
-0.05964396 0.020599782 -0.014939457 -0.034428194 -0.060353726 0.03357932 -0.10634142 0.12701096
-0.019993417 0.024088398 0.042528287 -0.050231464 0.101884276 -0.00095683336 0.010590553 -0.12289764
0.015979841 0.044297382 0.017989695 -0.012794323 0.097482145 0.10206659 0.08888003 -0.02240672
0.022301242 -0.0901396 -0.09664929 -0.022563249 0.014430061 -0.075194545 -0.10775851 0.05872962
0.04720041 -0.08529638 0.08590752 -0.096497074 0.097658545 0.068583295 -0.04363136 0.12291007
-0.072486006 -0.058971487 0.102897376 -0.03326655 -0.05214178 0.019975886 -0.021814652 0.08133151
0.10540047 0.057425752 0.027920082 0.032431945 0.0033611655 0.015161037 0.0024514794 0.0880322
0.072194815 -0.012980096 0.04875134 0.007139921 0.045621544 0.10599078 -0.08783608 0.01834619
-0.026857987 -0.12620968 -0.12544899 -0.016904138 0.09239912 -0.08512631 0.042052478 0.074406505
-0.094098054 0.05544372 0.024365425 -0.11753369 -0.002482146 -0.12119963 0.11287199 0.060506538
0.049466297 0.09911296 0.09873067 0.12816359 0.05326411 -0.09320702 0.11991222 0.03586188
-0.050890982 -0.04804629 0.12080301 0.028678402 0.093835264 0.010068417 0.1192535 -0.094466165
0.030768692 0.030805498 -0.0014889389 0.11484355 0.025924698 0.006993428 0.088114545 -0.0101919025
-0.008341223 -0.106437236 -0.0008458197 -0.060260415 0.074746266 0.11230849 -0.12044079 -0.07477632
0.124293014 -0.05510252 0.114812836 0.12710671 -0.032376513 -0.104504935 0.06455217 0.058685094

gc2.bias f4 [60]
00000000: 2007 bfbb e0a6 773d f3f9 c9bd 3e8b 0dbd
00000010: 1716 a1bd 3d25 efbd 002d bdbd 01e1 a9bd
00000020: de50 c93d 1c9b a13d a27e b3bd 36a6 d0bd
00000030: aac6 ec3d 7008 fb3c 1482 733d 9028 a53c
00000040: ce94 45bd 7cd7 8ebd 3040 8e3d 9197 02be
00000050: 4e02 dcbd 58af 1f3d 02ac 0abd f84b ca3c
00000060: a003 8d3d 8ef0 97bd cad4 94bd 819e a2bd
00000070: 7b55 e7bd f02c 0fbc 1284 e03d e047 01bc
00000080: 8600 913d 2e7d 83bd 30dd 513c a488 c6bd
00000090: 90d0 0bbc 0016 e83c 6640 62bd c0be f23d
000000a0: 2c4c 153d 103f 843d 1391 033e 3c28 603d
000000b0: 382c 26bc d48c 7c3d d745 023e 2e8b febd
000000c0: e464 c7bc 4064 803d 6a2a 00bd 3b1b d7bd
000000d0: 207c 99bd a26b 89bd a83a 5b3d 6a54 a83d
000000e0: f8b4 70bc 7a57 d8bd 1844 963c 54d6 133d
-0.005829707 0.06046188 -0.09862127 -0.03455662 -0.078655414 -0.116770245 -0.09237099 -0.08294869
0.09829877 0.07890913 -0.08764388 -0.10187952 0.1156133 0.030643672 0.059450224 0.020160943
-0.048237614 -0.06974694 0.069458365 -0.1275313 -0.10742627 0.03898558 -0.033855446 0.024694428
0.06885457 -0.07418929 -0.07267149 -0.079403885 -0.11295601 -0.008738741 0.109626904 -0.0078906715
0.07080178 -0.064203605 0.012809083 -0.09694031 -0.008533612 0.028330803 -0.055237196 0.11852789
0.036449596 0.06457341 0.1284831 0.05472587 -0.0101423785 0.06165774 0.12721954 -0.1242889
-0.0243401 0.06269121 -0.03129045 -0.10503241 -0.07494378 -0.067099825 0.053522736 0.08219226
-0.014691584 -0.1056356 0.018343017 0.03609307

gc3.weight f4 [60, 60]
00000000: b076 47bd 0456 363d 0a02 58bd c003 323d
00000010: fe2b bd3d 24dc 833d 20e4 47bc 52f3 fd3d
00000020: e8fe 39bc d8d3 ebbd e40c be3d c0d9 f53d
00000030: f051 713d 5eb6 e73d 34cd 8e3d 78d6 573d
00000040: e615 993d d11a cbbd 00e8 c9ba c6e5 61bd
00000050: bc76 113d 64d0 e9bd e016 fa3b 6ce0 4e3d
00000060: e87d 44bd 0247 55bd a279 abbd 2497 113d
00000070: 18ef ddbd bc13 d9bc 604c eb3b c4de 163d
00000080: 94fb e2bd d868 d53c c074 4fbd 2041 76bc
00000090: a2ee c0bd d6a9 cfbd 5045 903c a896 b33c
000000a0: a03c e33d 5ac8 f83d ea2d c13d 90e5 4c3d
000000b0: 6ed7 af3d acd1 613d ce4e f6bd de6a c03d
000000c0: 7866 803c 96de 03bd b242 1dbd 6ee5 d23d
000000d0: 5c80 b83d 807a 44bc c6ab 45bd 5e26 8ebd
000000e0: b46b 983d 4857 a0bd 1848 afbd aeaa 9ebd
000000f0: 9489 193d 8ead ca3d 7061 d33c bc1a 453d
00000100: ef89 d5bd 4c1a c0bd 91da 9abd c22f a9bd
00000110: 400b 6cbd f24a a0bd a604 2dbd c4ab a3bd
00000120: d482 1d3d 8058 5a3b 0047 d73b 5832 603d
00000130: f10b eebd ba05 4fbd 50b1 8fbb 0b0c f7bd
00000140: 5c7f 8c3d 0c88 c6bd 5eba b23d f7d3 023e
00000150: 30f4 d93c 1bb0 80bd 4e9a ba3d 3d55 adbd
00000160: a04a c83b e2c4 a53d 5ade f73d 00fd 1a3c
00000170: e088 20bc b08b 37bc 3b2b 00be 38ee bb3c
00000180: 21dc d1bd 0024 3e3c bc4d fbbc 2620 a83d
00000190: a8ba 53bd 6aea bb3d cc02 fcbc d48b ccbc
000001a0: acb1 f0bd fcc7 e53d 60f3 363c 1e4a eebd
000001b0: 20e8 ed3b 9c93 583d 447d dfbc b0c2 d73d
000001c0: e84f 813d 408f 87bc 772a 043e 4e77 ba3d
000001d0: 30b9 81bc 60b5 36bc 5049 223d 3e43 38bd
000001e0: 4cc3 a23d e85f febd 08a6 8dbd b863 723d
000001f0: 68c2 fdbd 5834 2fbd b495 8cbd 103b 8f3d
00000200: a0b2 d43b 3ac9 bbbd 2e0f d53d ca24 71bd
00000210: 485b 69bc 386d 323d 364c b0bd e816 43bc
00000220: fe23 32bd 64d9 fabc 96d0 3fbd e83c a93d
00000230: eeec 81bd f76e b2bd 346c 643d cc53 2b3d
00000240: 00b1 b03a 204c 2e3c a3c0 013e 26e7 30bd
00000250: 7ef3 ebbd 8035 02be 0017 093d 4819 4e3d
00000260: 001f ef3a a5ba dbbd ad87 cebd 8827 b4bd
00000270: 8836 aa3d d840 cf3c 7142 93bd 880a fabd
00000280: 7ce5 973d 00d4 b53a 0368 033e b7a0 d8bd
00000290: 3e73 d6bd a077 b63c 6635 b13d 04a6 ae3d
000002a0: b96e 033e 0a53 a83d 5832 6c3d ff90 a2bd
000002b0: 8b46 023e 4a06 6abd 0e06 aa3d 488a 593d
000002c0: 4eb7 9cbd 30f5 3cbc 881f 30bc 4aa4 c73d
000002d0: 5051 ca3d 60c1 e23c 1541 96bd 609a 163d
000002e0: 9e9f d83d ce1a 8cbd 1ae5 d33d d0fc ee3c
000002f0: c440 923d 9c62 353d 5ceb a63d fef1 e0bd
00000300: 8464 5a3d ef47 e5bd d055 10bc 56c3 ce3d
00000310: 74d2 d8bd 4b1c c9bd 68c2 67bd 002a 9f3b
00000320: 5837 92bc e688 cfbd e8cc 893c 16d6 04bd
00000330: 10f8 76bd 00b3 b83a cc93 333d 88ab a93c
00000340: f244 afbd 943a b33d 7889 c73c fe84 58bd
00000350: d6db e43d 8830 d53c 5a7d 893d 14f2 ba3d
00000360: 00c7 16bb 00e6 d93d 00fb 16ba ea84 d33d
00000370: 9047 803c a851 733d 3625 853d 9488 92bd
00000380: 8e0d e73d 2047 803b c459 423d 9e13 c3bd
00000390: e061 45bd 1a5a ac3d 92dc a6bd 3085 923c
000003a0: a02a e83d 4421 fbbd 00e7 baba f0da ab3c
000003b0: c449 ad3d a4ab 31bd f832 01be 09a4 a3bd
000003c0: 64b4 1e3d 50b4 c2bd 6354 e2bd c077 55bb
000003d0: c0be 0a3d 08cb a5bd d062 4dbd 1aa0 903d
000003e0: fec3 b2bd a97a d9bd 74d1 1fbd fa6f d43d
000003f0: ac08 1bbd 2d39 b3bd 1891 bbbd a88d f8bc
-0.048697174 0.044515625 -0.05273632 0.043460608 0.092369065 0.06438473 -0.012200385 0.12399925
-0.011352278 -0.11515015 0.092798024 0.12004423 0.058916032 0.11314081 0.06972733 0.052694768
0.0747488 -0.09917224 -0.0015404224 -0.05515077 0.035513625 -0.114167005 0.0076321214 0.050506994
-0.047971636 -0.05206967 -0.08372809 0.03554453 -0.10836619 -0.026498668 0.0071807355 0.03683354
-0.11083141 0.02605097 -0.05064845 -0.015030175 -0.094205156 -0.101398155 0.017611176 0.021922424
0.11095548 0.12147589 0.094325855 0.050023615 0.08586012 0.0551316 -0.120267496 0.09395383
0.01567386 -0.032194696 -0.038393684 0.102976665 0.090088576 -0.011992097 -0.04825952 -0.06940912
0.07442418 -0.078291476 -0.08558673 -0.07747398 0.03748472 0.09896384 0.025803298 0.0481212
-0.10426699 -0.09380016 -0.075612195 -0.08261062 -0.057627916 -0.07826795 -0.04224076 -0.07991746
0.038454846 0.003331691 0.006569743 0.05473551 -0.116233714 -0.05054257 -0.004385151 -0.12062844
0.068602294 -0.09693918 0.08726953 0.1277617 0.026605695 -0.062835895 0.091114625 -0.084635235
0.0061124116 0.08094193 0.12102957 0.009459734 -0.009798259 -0.011202738 -0.12516491 0.02294074
-0.102470644 0.011605263 -0.030676715 0.08209257 -0.05169168 0.0917557 -0.030763052 -0.024969019
-0.11752638 0.112197846 0.011166424 -0.116352305 0.0072603375 0.052875146 -0.027281411 0.105351806
0.06314069 -0.0165478 0.12906824 0.09104787 -0.015835375 -0.011151642 0.039620697 -0.044986002
0.07947406 -0.124206364 -0.069164336 0.05917713 -0.12390596 -0.04277453 -0.06864491 0.06993687
0.0064910203 -0.0916924 0.10403286 -0.058872975 -0.014242955 0.04356119 -0.08608286 -0.011907317
-0.043491356 -0.030621238 -0.046829782 0.0826357 -0.06344019 -0.08712571 0.055767253 0.04182796
0.0013480484 0.010638267 0.12671141 -0.04318919 -0.11521052 -0.12715721 0.0334692 0.05031708
0.0018243492 -0.10728959 -0.10084472 -0.087966025 0.08311182 0.025299475 -0.07190407 -0.1220904
0.074168175 0.0013872385 0.12832646 -0.10577529 -0.104711995 0.022273839 0.08652763 0.08527759
0.12835206 0.082189634 0.0576652 -0.07937812 0.12722223 -0.057134904 0.08301936 0.05311039
-0.0765215 -0.011533067 -0.010749705 0.097481325 0.098787904 0.027680099 -0.07336632 0.036768317
0.105773196 -0.0684105 0.10346432 0.029173285 0.07141259 0.044283494 0.0815036 -0.10983656
0.053318515 -0.11195361 -0.008809522 0.10095851 -0.10587016 -0.098198496 -0.056581885 0.0048573017
-0.017848656 -0.10133533 0.01682134 -0.03243073 -0.060295165 0.0014091432 0.043842122 0.020711675
-0.08558072 0.08751407 0.024357542 -0.052861206 0.11174743 0.026024118 0.06713362 0.09128204
-0.0023006797 0.10639572 -0.0005759448 0.10328086 0.015659124 0.059404045 0.06501238 -0.071549565
0.11281882 0.0039147288 0.04744889 -0.09525226 -0.048189044 0.08415623 -0.08147539 0.017885774
0.11336255 -0.12262204 -0.0014259517 0.020978421 0.08461335 -0.04337658 -0.126171 -0.079902716
0.038746253 -0.09507048 -0.11051252 -0.0032572597 0.03387332 -0.08095366 -0.050143063 0.07061787
-0.08728789 -0.10619099 -0.03901811 0.1037292 -0.037850067 -0.0875114 -0.09158534 -0.030340984

gc3.bias f4 [60]
00000000: 35de 85bd 654b 81bd 4473 003d 0c01 8abd
00000010: 580d 643d 262d f9bd e4db 41bd 07d4 033e
00000020: b034 d6bb 12a6 8f3d a463 ee3d b61d 17bd
00000030: 8c85 f6bc 8cca 97bc 82b6 83bd c0fa 7ebb
00000040: b0fe 7b3d fe32 e43d 48e8 b63d 1d31 023e
00000050: 1b87 85bd a843 b6bd 2359 02be c2ad 9b3d
00000060: 2871 6a3d dc1f fdbc b898 da3d be4c bebd
00000070: ac1b abbc 404f 5dbb d8a4 543d 8c7f dc3d
00000080: 3a54 96bd 95dd 033e 26d5 fb3d 80ae 0c3d
00000090: ac02 aebd a859 2e3d e862 dc3c a4bb 3fbd
000000a0: 0e89 fe3d b25f d4bd 92d6 3bbd 7e59 46bd
000000b0: 9ac4 12bd e0f5 c33d 3085 d2bb a027 933c
000000c0: bbcd ebbd 78d5 b2bd 4414 a63d ba9f 21bd
000000d0: a429 3d3d bfc6 cbbd f221 96bd 8071 7e3d
000000e0: b430 ba3d 1078 033c 706b efbd 8a57 a6bd
-0.06536523 -0.063132085 0.031359926 -0.06738481 0.055676788 -0.121668145 -0.047328845 0.12873851
-0.0065370426 0.07014097 0.11640099 -0.03689357 -0.030092977 -0.018529199 -0.06431295 -0.0038906783
0.061522186 0.111425385 0.08931023 0.12714048 -0.0651991 -0.08899623 -0.12729315 0.07601501
0.05723682 -0.03089898 0.1067366 -0.09291981 -0.020887218 -0.003376916 0.05191502 0.10766515
-0.07340284 0.12877496 0.12296514 0.034346104 -0.08496603 0.04256597 0.02690263 -0.046809807
0.12428485 -0.10369815 -0.045858927 -0.04842519 -0.035832025 0.09568381 -0.0064245686 0.01796323
-0.11513849 -0.08732122 0.08109334 -0.039458968 0.04618229 -0.09950017 -0.07330693 0.06211996
0.09091321 0.008024231 -0.11690414 -0.081221655

gc4.weight f4 [60, 1]
00000000: 15ef bcbe ef67 003f 5f32 58bf 2275 27bf
00000010: 5f91 76bf 654d 39bf 8747 443f 0d45 bcbe
00000020: 115d 57be 4f8f 8a3d 52ae 24be bb96 abbe
00000030: 12a4 47ba c78a 02bf c7a5 1e3f cdef 62bc
00000040: 513a f43e 60e9 2a3e 81aa 4a3f 57f0 003f
00000050: 0064 08bf ed3a 87be 20a8 803e 5f39 b8be
00000060: 90e5 27bf 1631 583f 4440 2d3f 2415 01bf
00000070: 2902 7e3e aa7e 3f3f 372c 12bf 2002 54be
00000080: 4072 4dbf 891d 6abf 0983 503f d436 3a3e
00000090: 5288 1cbf 268c e8bd 7478 dfbe c827 acbd
000000a0: d125 6ebe 79fc ad3e 48f2 573e 1cc2 21bf
000000b0: d7e0 063f 71e3 803d 93ca fabe e463 0ebf
000000c0: 62f2 1a3d f6fc bc3e bd87 63bf 6c2f 4ebe
000000d0: 17fa 35bf 5fbc 66bf 7029 0d3f 6c75 b4be
000000e0: bd16 43bf a77f f7bd a581 0dbf da41 133f
-0.36901155 0.5015859 -0.8445186 -0.65413105 -0.9631557 -0.7238372 0.7667164 -0.36771432
-0.21031596 0.06765615 -0.16082123 -0.33513436 -0.0007615696 -0.5099301 0.61971706 -0.013851118
0.47700742 0.16690588 0.7916642 0.5036673 -0.5327759 -0.26412144 0.2512827 -0.3598127
-0.6558466 0.844499 0.67676187 -0.50422883 0.24805512 0.7480265 -0.57098716 -0.20703936
-0.80252457 -0.9145132 0.81449944 0.18184978 -0.6114551 -0.11354856 -0.43646586 -0.08406025
-0.23256613 0.33981684 0.21088517 -0.6318681 0.5268683 0.06293381 -0.48982677 -0.5562117
0.03782881 0.36911744 -0.88878995 -0.20135278 -0.7108473 -0.9013118 0.55141354 -0.35245836
-0.7620657 -0.120848946 -0.55275947 0.57522357
